weight1/checkpoint_actor_target_1.pth (torch_old, 531550 bytes, 10 tensors)

fc1.weight f4 [400, 24]
-0.0106032 -0.044849444 0.046680987 -0.050861005 -0.09148413 -0.037177224 0.0072791073 -0.06072472
0.006062533 -0.058904473 0.0015749199 -0.0766732 0.015871553 0.03957737 -0.0047623413 -0.023918897
0.052302156 0.011489679 -0.021293005 -0.042403314 -0.017829694 0.08506089 -0.043974202 -0.018834885
-0.0059145098 -0.03934218 -0.021009764 -0.017486468 0.0640577 0.0061297165 -0.035159532 -0.02510363
-0.0153327985 -0.02112487 -0.064421654 -0.01419397 -0.021061404 0.027760645 0.0049394974 0.026174262
0.05361285 -0.074944094 -0.02617415 -0.08609577 -0.050303023 -0.009593143 -0.012780399 -0.05519852
0.03594555 -0.056896236 0.015886808 -0.04275411 0.0070047006 -0.059231263 0.009882489 -0.09793208
0.04242425 -0.09541432 0.0009446673 0.0018730427 -0.028427962 -0.027768914 -0.019623982 -0.0060430197
0.011020612 -0.046699792 0.025931345 -0.06350725 0.029685073 0.0288203 0.044722002 -0.041530732
-0.03402611 0.1255206 -0.014043835 -0.0018876329 -0.059091106 -0.07917511 -0.00908792 -0.021403063
-0.018782578 0.119282976 -0.010703475 0.013008813 -0.0055837026 -0.028608905 -0.014576503 0.017172216
-0.0052743196 0.11825062 -0.004707682 -0.009566289 -0.0087809395 -0.1483269 -0.0058047436 0.019770434
-0.014525301 0.01809406 0.02351376 0.005351008 -0.014692144 0.0020448365 0.0073145595 -0.031021198
0.03759513 0.058650054 0.051755503 0.0071431994 0.047874082 -0.022987096 -0.039628673 0.014357892
0.09577722 0.06968213 0.0004454434 -0.063820235 0.0024073015 -0.12343074 -0.0062435553 -0.040072195
0.03828579 -0.080241896 0.009231662 0.0287888 0.11982235 -0.064275585 -0.008965025 0.044150736
0.06320795 -0.0730719 0.0029147246 0.03239347 0.05679356 0.0054925214 -0.005961381 0.03104052
0.08395929 -0.07248948 0.043296464 0.045238357 -0.0382214 -0.039459135 -0.043794412 0.023170954
-0.045567103 0.054460067 -0.02659912 0.01766 0.029739965 0.040570837 0.033942197 -0.00033929545
-0.033008747 0.04808042 -0.007308927 0.042229973 0.01314198 -0.08625921 0.008298059 0.0038819946
0.01361385 -0.0069489796 -0.04576428 0.01708722 0.0039831665 -0.20350017 0.044344448 -0.068706155
0.030501742 0.08471142 0.0025878479 -0.015720068 0.07178446 -0.07453053 -0.02239593 -0.027736582
0.059047226 0.06908348 -0.013990505 -0.079483695 -0.011240086 -0.025972247 -0.026720816 0.0149935065
0.01731712 0.037897643 0.057914797 0.027811334 0.022077756 -0.022197716 0.039444398 0.016160028
0.03953271 0.018358847 -0.042404935 -0.0042102314 -0.06181277 -0.009706898 0.00042919198 0.012713659
0.06991833 0.03058135 -0.042031012 0.00787971 -0.04978559 -0.022656558 0.011397741 -0.03951867
-0.025417527 -0.030962734 0.0012636059 0.00052657217 -0.052157007 -0.055837516 -0.046990767 0.029206295
-0.019773057 0.017863797 -0.002235972 0.083914675 -0.061729323 0.05226713 0.04548506 0.09183751
-0.053682566 0.04912578 -0.055752933 0.047958635 -0.02718481 0.049643073 0.030470096 0.054138355
0.010478634 0.009683706 -0.036447532 0.0050317966 0.028649777 0.021214195 -0.041725617 0.013923859
-0.021217316 0.14466043 -0.013824127 0.016490724 0.0047526425 -0.07034712 0.017119564 0.036910035
-0.04504617 0.15169382 0.009441067 -0.05774565 0.012835903 -0.09462276 -0.00010488319 -0.055083904
00000000: 0bb9 2dbc 0db4 37bd 9034 3f3d a153 50bd
00000010: 085c bbbd 2547 18bd 9485 ee3b 7cba 78bd
00000020: 36a8 c63b d145 71bd 8b6d ce3a d706 9dbd
00000030: 0f05 823c e11b 223d 6a0d 9cbb 90f1 c3bc
00000040: c93a 563d 353f 3c3c ab6e aebc 19af 2dbd
00000050: 940f 92bc 6734 ae3d 4b1e 34bd 9e4b 9abc
00000060: 81ce c1bb 4425 21bd ab1c acbc c83f 8fbc
00000070: af30 833d cadb c83b 7103 10bd 21a6 cdbc
00000080: 6b36 7bbc 100e adbc 80ef 83bd d38d 68bc
00000090: f788 acbc 4b6a e33c 82db a13b 686b d63c
000000a0: 2699 5b3d 4a7c 99bd 2c6b d6bc fb52 b0bd
000000b0: 8b0a 4ebd 8f2c 1dbc e164 51bc d817 62bd
000000c0: a43b 133d 070c 69bd 0d25 823c ef1e 2fbd
000000d0: b087 e53b 7b9c 72bd 2aea 213c 9d90 c8bd
000000e0: 0dc5 2d3d 9568 c3bd 8da3 773a e280 f53a
000000f0: c2e1 e8bc a27b e3bc 79c2 a0bc 8604 c6bb
00000100: cc8f 343c 4848 3fbd f96d d43c 1710 82bd
00000110: 1c2e f33c 8d18 ec3c 6b2e 373d 211c 2abd
00000120: f65e 0bbd 7988 003e 1d18 66bc 736a f7ba
00000130: 8409 72bd 8f26 a2bd 80e5 14bc 7a55 afbc
00000140: ecdd 99bc a24a f43d a15d 2fbc eb22 553c
00000150: 7ef7 b6bb 395d eabc 49d2 6ebc bfac 8c3c
00000160: 33d4 acbb 622d f23d e642 9abb edbb 1cbc
00000170: eedd 0fbc 02e3 17be b835 bebb 9bf5 a13c
00000180: 87fb 6dbc fe39 943c ee9f c03c 8257 af3b
00000190: 51b7 70bc aa02 063b f9ae ef3b 2b20 febc
000001a0: 5afd 193d 0a3b 703d 94fd 533d 8011 ea3b
000001b0: 9d17 443d 6f4f bcbc ad51 22bd 5d3d 6b3c
000001c0: d926 c43d 81b5 8e3d 678a e939 2fb4 82bd
000001d0: d1c3 1d3b 41c9 fcbd bd96 ccbb be22 24bd
000001e0: 8fd1 1c3d dd55 a4bd 6640 173c 7dd6 eb3c
000001f0: 6c65 f53d eba2 83bd 0ae2 12bc 67d7 343d
00000200: 2b73 813d b8a6 95bd f704 3f3b 04af 043d
00000210: 5da0 683d 9cfa b33b b057 c3bb b048 fe3c
00000220: d9f2 ab3d 5d75 94bd a257 313d db4b 393d
00000230: 0b8e 1cbd e79f 21bd c561 33bd 03d1 bd3c
00000240: 92a4 3abd 8511 5f3d 66e6 d9bc b4ab 903c
00000250: 3aa1 f33c 9b2d 263d f906 0b3d 77e3 b1b9
00000260: 2e34 07bd f9ef 443d b97f efbb 56f9 2c3d
00000270: 7651 573c aba8 b0bd 95f4 073c 1069 7e3b
00000280: a00c 5f3c 44b4 e3bb 5373 3bbd 7ffa 8b3c
00000290: 3985 823b 5962 50be 86a2 353d d0b5 8cbd
000002a0: cade f93c 2e7d ad3d e298 293b 5fc7 80bc
000002b0: bb03 933d 76a3 98bd ab77 b7bc d437 e3bc
000002c0: 81db 713d a47b 8d3d 6e38 65bc 59c8 a2bd
000002d0: 5628 38bc c0c3 d4bc 9de5 dabc 53a7 753c
000002e0: a2dc 8d3c 8f3a 1b3d 1138 6d3d 98d4 e33c
000002f0: 69dc b43c fcd7 b5bc 7390 213d 0962 843c
00000300: 0ded 213d 4b65 963c ccb0 2dbd fbf5 89bb
00000310: 632f 7dbd ae09 1fbc 2c05 e139 f34c 503c
00000320: 5731 8f3d bd85 fa3c b628 2cbd e619 013c
00000330: faeb 4bbd 3f9a b9bc 97bd 3a3c 54de 21bd
00000340: 6b38 d0bc 8fa5 fdbc 949f a53a a909 0a3a
00000350: 96a2 55bd e1b5 64bd 6479 40bd 0a42 ef3c
00000360: 1bfb a1bc 1957 923c 6389 12bb 75db ab3d
00000370: e3d7 7cbd 0f16 563d 8b4e 3a3d 4e15 bc3d
00000380: 40e2 5bbd 1d38 493d 305d 64bd 4670 443d
00000390: aeb2 debc 8956 4b3d 6c9c f93c 2ec0 5d3d
000003a0: 94ae 2b3c 68a8 1e3c 024a 15bd c5e1 a43b
000003b0: f0b2 ea3c 64c9 ad3c 7be8 2abd e620 643c
000003c0: f0cf adbc dd21 143e 977e 62bc 8e17 873c
000003d0: 0ebc 9b3b 2712 90bd 543e 8c3c fa2e 173d
000003e0: 5582 38bd a055 1b3e b5ae 1a3c b486 6cbd
000003f0: ae4d 523c 94c9 c1bd bcf4 dbb8 a99f 61bd

fc1.bias f4 [400]
-0.1099106 -0.11341024 0.07655078 -0.21473436 -0.018761909 0.018592406 0.10065256 -0.22295482
-0.1076905 -0.050285537 0.12298721 0.096065395 -0.18998419 -0.24186717 0.10202573 0.00025655955
-0.076944 -0.24668625 -0.10568407 0.11218844 -0.0034614897 0.15670769 0.042446613 0.11268773
-0.15748815 -0.14161068 0.0765988 0.08571582 -0.19461785 -0.0097099645 -0.1901165 -0.05363368
0.046791535 0.104906306 -0.25403568 0.030385116 0.07928067 -0.045560446 -0.11230141 0.022586977
0.10485144 -0.09674159 -0.124647126 0.12827118 0.040905368 0.14635459 -0.17323986 0.09525212
-0.020959657 8.7888264e-05 -0.18620764 -0.19285889 -0.01891297 -0.1731757 -0.22564563 -0.27279156
-0.22080709 -0.2083754 0.032675758 -0.21433595 0.020566491 -0.16604517 0.119823836 0.08060084
-0.072432265 -0.20710339 -0.12416573 0.048815455 0.07435867 0.13014714 -0.20380026 -0.047001287
-0.20638026 -0.15716979 0.10887901 -0.11376699 0.20535736 0.19544521 -0.12745783 -0.10909263
0.026569348 -0.048878286 0.055351738 -0.29520774 -0.20985353 -0.07788455 0.105511695 -0.15562546
0.15665023 -0.19633076 -0.05261795 0.038160138 -0.26959264 0.14948684 -0.08809762 0.06658787
-0.0050244816 -0.14895986 -0.20111647 -0.023806011 0.09091468 -0.06491893 0.27257285 0.023152819
-0.2369987 -0.18897979 -0.05094753 -0.03712078 0.08479163 0.0629551 0.08261695 -0.02021198
-0.046337806 -0.15311055 0.17131439 -0.041123684 -0.108108826 -0.036267996 -0.08392678 0.04963767
0.028823987 -0.04059346 0.030412586 -0.09564044 -0.12596406 0.028544804 -0.04239727 0.13950291
-0.13725585 -0.14635563 -0.019381234 0.19479607 -0.16448231 -0.059120532 -0.054659635 -0.17407705
-0.02012704 -0.046617933 0.106721655 -0.12938154 -0.17464031 -0.07538855 -0.28763765 -0.17210275
-0.08921507 -0.19848947 0.080426805 -0.05744181 0.041035254 -0.109599255 -0.17184177 0.10909783
0.10999759 -0.07540492 0.03471583 -0.09057549 -0.16962446 -0.012278237 -0.14484273 0.09617883
0.082818344 -0.15275395 -0.10796246 -0.06810457 0.093707934 -0.035071466 -0.0566109 -0.034172267
0.15666455 -0.30931768 -0.03198953 -0.15107763 -0.1361352 0.02880729 0.103823364 0.14842099
0.1501857 -0.15321316 -0.17780517 0.00030629616 0.07876435 0.044573914 -0.11977008 -0.02772163
-0.24440894 -0.19405559 -0.16196863 -0.025345184 0.013713378 -0.18083163 -0.057845477 0.08138027
-0.1489714 -0.12365483 -0.101606175 0.11358682 0.020570375 -0.264874 -0.11546641 0.19187453
0.10789727 -0.15784511 0.11349522 -0.18455116 -0.22283886 -0.07470798 -0.15543228 -0.14680241
0.15872294 -0.17931414 0.21709457 0.088276535 0.018238835 -0.07847963 -0.25393525 -0.113236636
-0.033432286 -0.26327342 -0.070793636 -0.2504478 -0.029448431 -0.11498102 0.12036396 0.035966642
-0.17631473 -0.10223267 -0.21831967 -0.017575294 -0.13591687 -0.024734206 -0.16302705 0.11323538
-0.07363118 0.014214299 0.014353294 -0.01054311 0.01788796 0.12871018 0.15421107 -0.102623284
-0.05620427 0.10297639 0.013817111 -0.2517964 0.12864766 0.040209297 0.11707363 -0.062830724
-0.31876642 -0.030373484 0.08154461 0.08747694 -0.08068543 -0.20213895 -0.07292185 0.088448524
00000000: cf18 e1bd a143 e8bd a8c6 9c3d 53e3 5bbe
00000010: 93b2 99bc 1a4f 983c ee22 ce3d 454e 64be
00000020: d68c dcbd 35f8 4dbd b8e0 fb3d efbd c43d
00000030: 378b 42be 07ac 77be def2 d03d d782 8639
00000040: d194 9dbd 529b 7cbe e470 d8bd 0ec3 e53d
00000050: 29da 62bb fb77 203e 80dc 2d3d d3c8 e63d
00000060: 9344 21be 6402 11be d5df 9c3d c78b af3d
00000070: e749 47be 8b16 1fbc e6ad 42be fdae 5bbd
00000080: 7ba8 3f3d 1ed9 d63d f710 82be 35ea f83c
00000090: e75d a23d 979d 3abd 48fe e5bd 5308 b93c
000000a0: 5abc d63d 7420 c6bd fe46 ffbd 8559 033e
000000b0: 638c 273d fadd 153e ca65 31be 8b13 c33d
000000c0: 96b3 abbc a750 b838 37ad 3ebe cd7c 45be
000000d0: 5fef 9abc f854 31be a60f 67be 56ab 8bbe
000000e0: 411b 62be 5c60 55be 04d7 053d e27a 5bbe
000000f0: 0f7b a83c bf07 2abe 3366 f53d 0e12 a53d
00000100: 5e57 94bd e912 54be 9a4a febd b7f2 473d
00000110: 5c49 983d 4b45 053e 04b1 50be 6c84 40bd
00000120: 5955 53be 1ef1 20be f5fb de3d abfe e8bd
00000130: 3349 523e ca22 483e 4e84 02be f56b dfbd
00000140: f6a7 d93c 9934 48bd 81b8 623d 7825 97be
00000150: d8e3 56be ef81 9fbd 8416 d83d 485c 1fbe
00000160: eb68 203e ee0a 49be eb85 57bd ce4d 1c3d
00000170: 0c08 8abe 1413 193e 866c b4bd 395f 883d
00000180: 68a4 a4bb ef88 18be 7af1 4dbe d304 c3bc
00000190: 7a31 ba3d 37f4 84bd ab8e 8b3e fbaa bd3c
000001a0: caaf 72be eb83 41be 5bae 50bd f60b 18bd
000001b0: 3ca7 ad3d 9aee 803d 1333 a93d 9893 a5bc
000001c0: b6cc 3dbd 03c9 1cbe 0a6d 2f3e 4f71 28bd
000001d0: 2968 ddbd c08d 14bd cee1 abbd df50 4b3d
000001e0: 4820 ec3c 5445 26bd d123 f93c 23df c3bd
000001f0: b9fc 00be cbd6 e93c c3a8 2dbd dad9 0e3e
00000200: cc8c 0cbe 40de 15be 65c5 9ebc 9f78 473e
00000210: 0d6e 28be 5f28 72bd c8e2 5fbd 4141 32be
00000220: 76e1 a4bc 72f2 3ebd e290 da3d 987c 04be
00000230: e9d4 32be 5065 9abd 3e45 93be b43b 30be
00000240: 64b6 b6bd d340 4bbe cfb6 a43d 1a48 6bbd
00000250: 9514 283d 9375 e0bd 4af7 2fbe af6e df3d
00000260: 6b46 e13d e56d 9abd 3032 0e3d a47f b9bd
00000270: 09b2 2dbe a92a 49bc a751 14be 68f9 c43d
00000280: aa9c a93d 886b 1cbe 6c1b ddbd 697a 8bbd
00000290: f2e9 bf3d 19a7 0fbd d5e0 67bd 38f8 0bbd
000002a0: ac6c 203e e35e 9ebe 7407 03bd 18b4 1abe
000002b0: 0767 0bbe 44fd eb3c 58a1 d43d acfb 173e
000002c0: 48ca 193e e9e3 1cbe 8f12 36be 6096 a039
000002d0: 344f a13d 2393 363d 044a f5bd 7918 e3bc
000002e0: 5646 7abe 82b6 46be 1bdb 25be b4a0 cfbc
000002f0: 14ae 603c ed2b 39be 61ef 6cbd b3aa a63d
00000300: f58b 18be be3e fdbd e616 d0bd 35a0 e83d
00000310: 3483 a83c 919d 87be a779 ecbd c27a 443e
00000320: 3ef9 dc3d 26a2 21be 2f70 e83d fbfa 3cbe
00000330: df2f 64be 7f00 99bd a429 1fbe 5f53 16be
00000340: 4488 223e 209e 37be 0a4e 5e3e 54ca b43d
00000350: 9c69 953c eeb9 a0bd cd03 82be 9ce8 e7bd
00000360: 4bf0 08bd c6cb 86be 41fc 90bd b23a 80be
00000370: d63d f1bc 2b7b ebbd 6181 f63d c251 133d
00000380: d98b 34be 5d5f d1bd 318f 5fbe 10fa 8fbc
00000390: cb2d 0bbe 649f cabc 90f0 26be f3e7 e73d
000003a0: f2cb 96bd 17e3 683c 142a 6b3c 02bd 2cbc
000003b0: c589 923c 9acc 033e 82e9 1d3e 282c d2bd
000003c0: 7336 66bd 49e5 d23d 2a61 623c 75eb 80be
000003d0: 36bc 033e 81b2 243d 4dc4 ef3d 65ad 80bd
000003e0: 5a35 a3be d0d1 f8bc dc00 a73d 1c27 b33d
000003f0: 673e a5bd 83fd 4ebe 0d58 95bd 8024 b53d

fc2.weight f4 [300, 400]
-0.079832576 -0.061158977 -0.0036132857 -0.021797888 -0.06769968 0.034135867 -0.057869427 0.05354776
-0.08113165 0.049887203 0.075024724 -0.06628461 0.08208304 0.015806578 0.045225907 -0.1454638
0.021613088 -0.016405985 -0.08405499 -0.010505266 -0.023716146 -0.024369286 0.07902814 -0.03870401
-0.03394524 0.013360261 -0.013505023 0.023159845 0.013202963 -0.0069863056 0.110691264 0.064785525
0.019986654 -0.0018355235 0.047022354 0.0035593186 -0.069123805 -0.08655879 0.011481749 -0.09913962
0.057079304 -0.01395272 0.059649237 0.071328364 -0.06864743 -0.04328298 -0.0385119 0.0014068049
-0.0056112227 -0.014773725 0.000895686 0.16307257 -0.0003285934 -0.01064246 0.014748272 -0.046248946
0.06848292 -0.096036 -0.03100846 0.0696546 0.04229013 -0.03161624 -0.056820754 0.0029842295
0.042145047 0.008075649 0.07509839 -0.07289999 0.029774573 -0.046076056 -0.053777374 -0.04541131
-0.051065985 0.02924743 -0.026215475 -0.04446786 -0.082716785 -0.046109986 -0.06181514 -0.037784785
0.012785037 -0.018977046 -0.0069480846 -0.03145132 -0.063737296 -0.060345527 -0.048337977 0.05945058
-0.04083787 -0.047863953 -0.07006853 -0.0462713 0.019456174 -0.011641813 -0.01860323 0.034189846
0.0071489755 0.054224264 0.08183543 -0.0042962856 0.047957312 0.0051267934 -0.036740925 0.04455936
0.0050835353 0.0311385 -0.003731288 0.0784087 -0.018963277 0.07908808 0.03548551 -0.05555902
-0.08727985 -0.028250074 -0.016052803 -0.04123562 0.028948247 -0.020547036 -0.02112249 0.04338748
-0.015551007 0.016725425 0.07428617 -0.034772765 -0.0032184331 -0.01320822 -0.0082507795 -0.00349849
0.06184097 0.12941772 0.0079118945 0.04037579 -0.02652789 -0.011951936 0.036604043 0.045451336
-0.07925228 -0.08677692 -0.04055583 0.031384207 0.05415168 -0.033863686 0.03435552 0.01238222
0.00029528208 0.07098318 0.038437076 0.108950004 0.022835875 -0.03096089 0.16637786 -0.024766557
-0.025870794 0.025395907 -0.028935643 -0.027061522 0.107789606 -0.0693063 -0.04726021 0.029459326
-0.06479525 0.037606057 -0.08488505 0.01745018 -0.0018945376 -0.08744163 0.0015496403 0.04954579
0.077936456 0.041175805 0.09033199 -0.008253531 0.058009047 0.0048679854 -0.08044492 -0.042722434
-0.060382485 0.085510865 -0.0382918 0.024898337 -0.11301251 0.07611559 -0.07263773 0.10098101
0.05736263 -0.033083644 0.011452808 -0.011745203 0.06295161 -0.019515302 -0.037422497 0.06321929
-0.060795918 0.05305809 0.027141538 0.076305084 0.03473979 0.053485416 -0.031610396 -0.0067692194
0.069703534 0.04733511 -0.024573538 0.040081173 -0.06979604 -0.03949575 0.106272966 -0.08036055
-0.022952015 0.016432738 -0.022549888 0.0902387 -0.025027419 0.018258125 0.05894681 0.008157929
0.07755809 0.011476138 -0.06572172 -0.094764456 -0.02469834 0.038274657 -0.020474823 -0.044524852
-0.060441248 -0.007216062 -0.0071840947 0.011797388 0.07993941 0.07982319 0.015295297 0.06291226
-0.089821085 -0.056598924 -0.007676014 0.029093847 -0.096801855 0.045319084 0.08097693 0.07948788
0.025267651 0.0067966804 -0.03919826 -0.05135104 -0.053842083 0.028315112 0.0098967105 0.025479233
0.0957075 -0.033197507 -0.004956599 -0.057744842 0.031360704 0.053922325 0.043457113 0.052156076
00000000: 437f a3bd d681 7abd e0cc 6cbb 7c91 b2bc
00000010: 21a6 8abd 0dd2 0b3d 7e08 6dbd e554 5b3d
00000020: 5a28 a6bd 8656 4c3d 90a6 993d 3ac0 87bd
00000030: 271b a83d cc7c 813c cd3e 393d 76f4 14be
00000040: ee0d b13c d865 86bc 0625 acbd 471e 2cbc
00000050: 5d48 c2bc 19a2 c7bc 81d9 a13d 1988 1ebd
00000060: 2a0a 0bbd ffe4 5a3c 2c44 5dbc b7b9 bd3c
00000070: 3e51 583c 61ed e4bb 1ab2 e23d 46ae 843d
00000080: 0dbb a33c f395 f0ba 839a 403d 7543 693b
00000090: c890 8dbd bc45 b1bd f21d 3c3c b709 cbbd
000000a0: fdcb 693d f399 64bc c252 743d 9b14 923d
000000b0: 0697 8cbd 7e49 31bd a7be 1dbd 8a64 b83a
000000c0: 59de b7bb 7e0d 72bc 78cc 6a3a 7ffc 263e
000000d0: 0f47 acb9 b65d 2ebc bca2 713c 896f 3dbd
000000e0: c640 8c3d 86ae c4bd 7405 febc 12a7 8e3d
000000f0: 6a38 2d3d 0880 01bd e1bc 68bd 1093 433b
00000100: 49a0 2c3d ba4f 043c 2fcd 993d 974c 95bd
00000110: cee9 f33c 3fba 3cbd aa45 5cbd 3601 3abd
00000120: 912a 51bd 4e98 ef3c d6c1 d6bc ee23 36bd
00000130: 6b67 a9bd d3dd 3cbd df31 7dbd 38c4 1abd
00000140: 5578 513c c075 9bbc c2ac e3bb 19d3 00bd
00000150: b388 82bd df2c 77bd 0bfe 45bd 7482 733d
00000160: 9c45 27bd fe0c 44bd 1780 8fbd fa86 3dbd
00000170: 8e62 9f3c 4ebd 3ebc cd65 98bc a70a 0c3d
00000180: f441 ea3b 431a 5e3d 5599 a73d dbc7 8cbb
00000190: e36e 443d a9fe a73b a77d 16bd e083 363d
000001a0: c993 a63b 2b16 ff3c a088 74bb be94 a03d
000001b0: e058 9bbc eef8 a13d 4159 113d db91 63bd
000001c0: c7bf b2bd b36c e7bc 2b81 83bc aee6 28bd
000001d0: e024 ed3c 4252 a8bc 1209 adbc 12b7 313d
000001e0: a7c9 7ebc c203 893c 5923 983d e36d 0ebd
000001f0: 59ec 52bb 4a67 58bc 472e 07bc ec46 65bb
00000200: f54c 7d3d 1486 043e e4a0 013c 1661 253d
00000210: 0451 d9bc 0ed2 43bc 1fee 153d 2e2b 3a3d
00000220: 054f a2bd 19b8 b1bd df1d 26bd ba8c 003d
00000230: 27ce 5d3d a6b4 0abd 60b8 0c3d cbde 4a3c
00000240: 17d0 9a39 a15f 913d 3270 1d3d 2e21 df3d
00000250: 4d12 bb3c b1a1 fdbc f55e 2a3e 3ce3 cabc
00000260: fdee d3bc 140b d03c 710a edbc 20b0 ddbc
00000270: ccc0 dc3d 76f0 8dbd ec93 41bd af54 f13c
00000280: 5fb3 84bd cf08 1a3d 37d8 adbd aef3 8e3c
00000290: 2252 f8ba 9914 b3bd 4d1d cb3a 87f0 4a3d
000002a0: 269d 9f3d f6a7 283d faff b83d d139 07bc
000002b0: e59a 6d3d 9f83 9f3b 4ec0 a4bd b8fd 2ebd
000002c0: a053 77bd 5220 af3d ddd7 1cbd 99f7 cb3c
000002d0: 1a73 e7bd 7ee2 9b3d 17c3 94bd 22cf ce3d
000002e0: 14f5 6a3d b782 07bd 8fa4 3b3c f46e 40bc
000002f0: c6ec 803d 8ede 9fbc 5548 19bd 1d79 813d
00000300: 2405 79bd 7153 593d ee57 de3c d745 9c3d
00000310: 4f4b 0e3d 8613 5b3d e779 01bd 54d0 ddbb
00000320: bac0 8e3d 76e2 413d 724e c9bc 282c 243d
00000330: 3af1 8ebd 4cc6 21bd a4a5 d93d 1294 a4bd
00000340: dd05 bcbc f39d 863c 8bba b8bc 11cf b83d
00000350: 4d06 cdbc 1092 953c 3672 713d d6a8 053c
00000360: c7d6 9e3d 6906 3c3c 1c99 86bd de13 c2bd
00000370: 2c54 cabc e3c5 1c3d d1ba a7bc b15f 36bd
00000380: 3e91 77bd b774 ecbb 8e68 ebbb d549 413c
00000390: 46b7 a33d 577a a33d 2099 7a3c 25d8 803d
000003a0: 1ef4 b7bd 46d4 67bd 1387 fbbb 3856 ee3c
000003b0: 0d40 c6bd 81a0 393d 3cd7 a53d 8bca a23d
000003c0: 1bfe ce3c b0b6 de3b 5b8e 20bd 7855 52bd
000003d0: 8489 5cbd 18f5 e73c d025 223c d3b9 d03c
000003e0: 4b02 c43d 1cfa 07bd f76a a2bb db85 6cbd
000003f0: 1574 003d a8dd 5c3d 1600 323d 9ca1 553d

fc2.bias f4 [300]
0.033820804 -0.03436593 0.012070587 0.12016486 0.030018007 0.040710457 0.09608987 0.0051084706
0.09632793 0.030868515 0.0317013 0.07962756 0.042853553 0.057338327 0.052671116 0.07458716
0.060057644 0.060703866 0.070881136 0.043839157 0.06626444 0.075556345 -0.009310181 0.05854791
0.018477507 0.010455798 -0.05612781 0.066286765 0.037152298 0.05638208 0.025181616 0.00038064906
0.1104947 0.070540465 0.090093605 0.051849015 0.0875594 0.03654707 0.030859532 0.072772354
0.018795507 -0.0044735656 0.04863822 -0.0083528 0.0040608635 0.054193858 0.083198786 0.0625163
0.04901619 0.0699332 -0.015428565 0.0027758614 0.0612721 0.031504944 0.049436778 -0.022067938
0.08064639 0.05116907 -0.020894842 0.069886625 0.04117502 0.08966093 -0.0046774345 0.08454375
0.1306051 0.06921125 -0.0076412493 0.04509116 0.06665916 0.15155071 0.06139245 -0.028304841
0.06854941 0.070160106 0.03935756 0.07095972 -0.02186616 -0.032168273 0.061317194 0.01529141
-0.0070428713 0.06398442 0.044728696 0.018852537 0.021949563 0.07759071 0.0033039097 0.09860008
0.03778254 0.06345314 0.06063772 0.024792247 0.007910978 0.01888035 0.04199391 0.0077232323
0.12894368 0.057858527 0.079994716 -0.055123962 0.06669626 0.034169357 0.011259563 0.054743454
-3.6370297e-05 -0.007622492 0.10815603 0.12664445 0.071586914 -0.045941822 0.09360764 0.0051896707
-0.030016597 0.0614197 0.06465912 0.033927936 0.013368016 0.07895816 0.086410396 0.04469452
-0.0034040485 0.047449015 0.062298615 0.0655613 0.00040700682 0.053121135 0.039936688 0.07146072
0.10081606 0.052478123 0.12322501 0.032113075 -0.00079175254 0.06566233 0.023939416 0.09371813
0.0730215 0.053202026 0.014892448 -0.005809449 0.084441185 0.04185012 0.016188318 0.092036046
0.0458874 -0.031876326 0.0502616 0.096964456 0.0586914 0.020289473 -0.025906635 0.06584509
0.025147758 0.052882377 0.018331107 -0.015025133 0.020552957 -0.021692365 0.08156047 0.10436867
0.10487598 0.08103103 0.06114475 0.017649215 0.10538148 0.044352695 0.078181766 0.062127158
0.0075896624 0.060965076 0.03801245 -0.034443673 0.050033893 0.09680078 0.044566207 0.03405846
0.04604838 -0.008573362 0.07442759 0.022805545 0.046475455 0.06741248 -0.0008819466 0.0039180145
0.04066787 0.12623805 -0.0036804858 0.06729003 0.06842526 0.042851668 0.038702313 -0.021072762
0.03167277 0.020496156 0.04562354 0.09815567 0.046807524 0.08549582 -0.035781257 0.13657193
0.054151986 0.107411236 -0.0047620595 0.013780246 0.061720897 0.04907498 0.0047273855 0.055290796
0.021695979 0.047742378 0.02815913 -0.022956055 0.03181259 0.055788774 0.04911094 0.077685654
-0.010295693 0.040243156 0.012184039 0.080754064 0.056633305 0.068527974 -0.0012176189 0.07614907
0.06754931 0.009165517 -0.020675758 0.06856854 0.05013839 0.08249728 0.09185835 0.047783207
0.09473971 0.059746757 0.04971026 0.03198184 -0.0045565567 0.06929157 0.036065977 0.087541595
0.05484748 0.0051604323 0.0731596 0.05340271 -0.026234949 -0.021764038 -0.057679165 0.030230721
0.08419648 0.01742196 0.06139907 0.033966947 0.06672325 0.09859663 0.067995496 0.04334785
00000000: af87 0a3d 4ac3 0cbd b6c3 453c fe18 f63d
00000010: 53e8 f53c 02c0 263d c4ca c43d f564 a73b
00000020: 9447 c53d f8df fc3c 39d9 013d c613 a33d
00000030: 3587 2f3d 98db 6a3d abbd 573d 27c1 983d
00000040: 01ff 753d 9ea4 783d 212a 913d b090 333d
00000050: a7b5 873d 49bd 9a3d bb89 18bc efcf 6f3d
00000060: 245e 973c cc4e 2b3c 46e6 65bd 5bc1 873d
00000070: 022d 183d e5f0 663d ad49 ce3c da91 c739
00000080: 0c4b e23d 8577 903d ff82 b83d a25f 543d
00000090: 5852 b33d 61b2 153d 21cd fc3c ac09 953d
000000a0: 09f9 993c fd96 92bb df38 473d 2fda 08bc
000000b0: fe10 853b 61fa 5d3d 2064 aa3d 8c08 803d
000000c0: 33c5 483d 2339 8f3d 18c8 7cbc 3aeb 353b
000000d0: 74f8 7a3d 540b 013d 387e 4a3d d2c7 b4bc
000000e0: ef29 a53d a996 513d a92b abbc b820 8f3d
000000f0: 23a7 283d 26a0 b73d 2a45 99bb 4625 ad3d
00000100: 58bd 053e a1be 8d3d 7263 fabb 82b1 383d
00000110: 9984 883d 1c30 1b3e a676 7b3d 8edf e7bc
00000120: a263 8c3d 1ab0 8f3d 6535 213d 5453 913d
00000130: a920 b3bc e1c2 03bd bd27 7b3d d288 7a3c
00000140: e3c7 e6bb 430a 833d 7035 373d a370 9a3c
00000150: 92cf b33c e1e7 9e3d 6886 583b d7ee c93d
00000160: ddc1 1a3d b8f3 813d 425f 783d 1c19 cb3c
00000170: 0c9d 013c f7aa 9a3c ce01 2c3d 2b13 fd3b
00000180: d009 043e 10fd 6c3d 45d4 a33d aac9 61bd
00000190: 0c98 883d 2bf5 0b3d 087a 383c ac3a 603d
000001a0: 4f8c 18b8 19c6 f9bb e980 dd3d 15af 013e
000001b0: 299c 923d 7e2d 3cbd 5db5 bf3d 1d0e aa3b
000001c0: 5ee5 f5bc 3993 7b3d 006c 843d 05f8 0a3d
000001d0: 8605 5b3c d1b4 a13d eff7 b03d 9a11 373d
000001e0: 7516 5fbb e659 423d d52c 7f3d 0145 863d
000001f0: 8863 d539 8c95 593d a794 233d ff59 923d
00000200: a778 ce3d 4df3 563d 655d fc3d 0089 033d
00000210: 9d8d 4fba f979 863d 981c c43c 4aef bf3d
00000220: 4c8c 953d 5eea 593d 74ff 733c 315d bebb
00000230: 80ef ac3d 086b 2b3d 5d9d 843c 657d bc3d
00000240: 6df4 3b3d c090 02bd 1cdf 4d3d 4d95 c63d
00000250: 6566 703d 1c36 a63c 273a d4bc cad9 863d
00000260: ac02 ce3c 319b 583d 1e2b 963c fa2b 76bc
00000270: ad5e a83c 30b4 b1bc 2d09 a73d 3ebf d53d
00000280: 38c9 d63d 99f3 a53d eb72 7a3d 1695 903c
00000290: 3fd2 d73d 2cab 353d c31d a03d 0c79 7e3d
000002a0: b4b2 f83b 84b6 793d f1b2 1b3d cf14 0dbd
000002b0: 57f0 4c3d 7d3f c63d 0e8b 363d e280 0b3d
000002c0: 3a9d 3c3d 4977 0cbc 7e6d 983d b2d2 ba3c
000002d0: 0c5d 3e3d 8e0f 8a3d 6f32 67ba b062 803b
000002e0: 5a93 263d 8c44 013e 4e34 71bb 5bcf 893d
000002f0: 8b22 8c3d 3b85 2f3d 5186 1e3d c9a0 acbc
00000300: 4ebb 013d 8ee7 a73c c0df 3a3d d705 c93d
00000310: 3fb9 3f3d 6f18 af3d 5e8f 12bd 83d9 0b3e
00000320: 79ce 5d3d 6cfa db3d 0d0b 9cbb 8ac6 613c
00000330: 0dcf 7c3d d902 493d 2fe8 9a3b 9a78 623d
00000340: c4bb b13c 838d 433d faad e63c 560e bcbc
00000350: eb4d 023d c582 643d 8e28 493d a819 9f3d
00000360: 44af 28bc 02d6 243d 909f 473c 6362 a53d
00000370: 53f8 673d 6558 8c3d 8398 9fba 0bf4 9b3d
00000380: 4b57 8a3d f72a 163c 3560 a9bc aa6d 8c3d
00000390: ea5d 4d3d 55f4 a83d 3b20 bc3d 53b8 433d
000003a0: e506 c23d 04b9 743d fc9c 4b3d 64ff 023d
000003b0: 2b4f 95bb bde8 8d3d ebb9 133d 0249 b33d
000003c0: c0a7 603d d818 a93b b3d4 953d cdbc 5a3d
000003d0: adea d6bc 7f4a b2bc fd40 6cbd 6ba6 f73c
000003e0: 346f ac3d 80b8 8e3c 977d 7b3d ed20 0b3d
000003f0: 33a6 883d 08ed c93d 3941 8b3d 848d 313d

fc3.weight f4 [2, 300]
-0.07485528 -0.13629286 -0.09013064 -0.10670735 -0.022790797 0.0335783 0.052275177 0.07592701
0.08388782 0.06299138 0.1057283 0.14558586 -0.17330885 -0.121245354 0.12564799 -0.14544888
0.0023860082 0.08222236 0.024560597 -0.10493355 -0.081372604 -0.020768687 -0.11635277 -0.14520763
-0.06470962 0.07056862 -0.11113333 0.060592644 0.09845169 -0.1410603 -0.09061996 0.09096246
-0.03615234 -0.013964468 -0.13271612 -0.12163117 0.03641113 -0.13334548 0.028228465 -0.041358046
0.16894825 -0.104000345 -0.04602955 0.12770984 -0.16320132 0.00988641 0.13658819 0.09333723
-0.11279096 0.16273428 0.13098353 -0.17631468 -0.15064545 0.09345962 -0.13639832 -0.11600607
0.09918515 -0.09239307 -0.1708834 0.0361104 0.0057142396 -0.007649217 -0.12367589 0.06986766
0.060545962 -0.089765735 0.082559556 0.09329773 0.08506027 0.046857055 -0.06965663 -0.14151661
-0.10906089 -0.14007534 0.1189418 0.064496614 -0.08122946 -0.13878217 0.15632647 -0.07366311
-0.09669903 -0.07022216 -0.05166497 0.16347498 -0.1308432 0.11164429 -0.07093389 0.13247097
0.07552283 0.0051698727 0.04143325 0.1570343 0.03799158 -0.1183694 -0.11637863 -0.14944568
0.18966083 -0.16681601 -0.117044024 0.08338537 0.21712995 -0.07227423 0.06745527 -0.038705118
-0.048850358 -0.090159915 0.12443005 -0.14028114 0.08569213 -0.0942415 -0.07590558 -0.09580766
-0.083779275 0.1771689 -0.13250089 -0.06794234 -0.103872016 -0.059132207 -0.08089136 0.17161894
-0.11004227 -0.15186718 -0.16355225 0.09374312 0.047880735 0.009144525 0.09384593 -0.13774192
0.099501535 0.14075838 0.08179026 -0.114453554 0.029841075 0.21335289 0.18720289 0.22062103
-0.05623079 0.14205937 0.19779123 -0.15858777 -0.0008085941 -0.10479747 -0.11070158 -0.10564663
0.12791774 -0.11575434 0.09454123 -0.022962894 0.14199 0.08294769 0.049634945 -0.10889463
-0.15093511 0.13458905 0.09921246 0.076682925 0.06958098 -0.18550968 -0.011024756 0.10162256
0.14146473 0.13858189 -0.0008174865 -0.11175303 -0.106841594 0.21773691 0.08695159 0.11317073
0.018594027 -0.09600379 0.10196578 -0.1205088 0.09169406 0.11380735 0.02837149 -0.057802297
0.14385103 -0.013253219 -0.10650217 -0.12996191 -0.015560159 -0.09341339 0.10210502 -0.08616572
-0.039840415 -0.034987036 -0.15484086 -0.11532316 -0.15884633 0.052490808 -0.119457915 0.12266125
-0.06540809 0.19924659 0.029755618 -0.010189638 -0.0063354014 -0.17065059 -0.16669501 -0.107070886
0.034680948 0.113624215 0.12036738 -0.12575904 0.17044368 -0.14931272 -0.028991729 -0.10845992
0.19441593 -0.114012055 -0.1243546 0.023308892 -0.08161754 -0.120519936 -0.07953511 0.17396137
-0.11918333 0.023090651 -0.15827496 -0.06704388 -0.08925223 0.14977878 -0.057856083 0.08766153
0.22688584 -0.14498276 -0.120924376 -0.121672176 0.1578016 0.18177053 -0.1835225 -0.15610465
-0.030973932 -0.07212039 0.032175507 0.15018952 0.040436488 0.08129648 -0.08112952 0.18669808
0.14075474 0.10947507 0.15938924 -0.0820875 0.1113419 0.04404433 -0.13319637 -0.085748866
-0.12772195 -0.14722744 0.1362306 -0.15988082 -0.09630807 -0.075678244 -0.0892665 -0.12332611
00000000: ba4d 99bd 5b90 0bbe 6a96 b8bd 6289 dabd
00000010: c4b3 babc 6689 093d 7f1e 563d 9f7f 9b3d
00000020: 61cd ab3d a001 813d 1488 d83d 7614 153e
00000030: e077 31be 7c4f f8bd dea9 003e 8df0 14be
00000040: 935e 1c3b 3264 a83d 4e33 c93c 67e7 d6bd
00000050: aea6 a6bd 1823 aabc 5c4a eebd 4fb1 14be
00000060: 7a86 84bd 4886 903d df99 e3bd fe2f 783d
00000070: 0aa1 c93d 1c72 10be f596 b9bd 874a ba3d
00000080: 7a14 14bd 39cb 64bc bce6 07be c319 f9bd
00000090: d623 153d b88b 08be 623f e73c 0e67 29bd
000000a0: c500 2d3e 22fe d4bd 7b89 3cbd 5ec6 023e
000000b0: 3f1e 27be 9cfa 213c c6dd 0b3e 9727 bf3d
000000c0: f2fe e6bd d1a3 263e 8c20 063e d68b 34be
000000d0: cd42 1abe c267 bf3d 00ac 0bbe 9794 edbd
000000e0: 9521 cb3d 9438 bdbd 0ffc 2ebe 80e8 133d
000000f0: 843e bb3b 48a6 fabb c949 fdbd c716 8f3d
00000100: 0bff 773d 19d7 b7bd fc14 a93d e112 bf3d
00000110: 1434 ae3d 2fed 3f3d 23a8 8ebd bbe9 10be
00000120: 515b dfbd e96f 0fbe c297 f33d cd16 843d
00000130: a25b a6bd ea1c 0ebe 0c14 203e afdc 96bd
00000140: 240a c6bd a3d0 8fbd a69e 53bd fc65 273e
00000150: c3fb 05be c3a5 e43d ca45 91bd 78a6 073e
00000160: b7ab 9a3d 0968 a93b e9b5 293d 99cd 203e
00000170: 0f9d 1b3d a86b f2bd eb57 eebd 4a08 19be
00000180: 7336 423e d1d1 2abe c7b4 efbd f3c5 aa3d
00000190: 5057 5e3e 8304 94bd fd25 8a3d 4289 1ebd
000001a0: 5017 48bd c3a5 b8bd 2fd5 fe3d dca5 0fbe
000001b0: 5b7f af3d b001 c1bd 6274 9bbd ce36 c4bd
000001c0: 7894 abbd c46b 353e 50ae 07be 5b25 8bbd
000001d0: daba d4bd 9d34 72bd 5faa a5bd e0bc 2f3e
000001e0: d75d e1bd 1283 1bbe 3e7a 27be 65fc bf3d
000001f0: 971e 443d ebd2 153c 4c32 c03d 380c 0dbe
00000200: 76c7 cb3d f722 103e a781 a73d a066 eabd
00000210: 4575 f43c 2e79 5a3e 1db2 3f3e 7bea 613e
00000220: 4252 66bd 0378 113e c989 4a3e d564 22be
00000230: d5f7 53ba 0ea0 d6bd 83b7 e2bd 435d d8bd
00000240: defc 023e 9d10 edbd d59e c13d ae1c bcbc
00000250: d465 113e 7ae0 a93d 034e 4b3d 2604 dfbd
00000260: bc8e 1abe b6d1 093e e72f cb3d f00b 9d3d
00000270: 7980 8e3d 40f6 3dbe 2ea1 34bc 7d1f d03d
00000280: 21dc 103e 69e8 0d3e 974c 56ba c6de e4bd
00000290: c4cf dabd 6df6 5e3e ad13 b23d 0ec6 e73d
000002a0: 8052 983c a39d c4bd 6fd3 d03d 51cd f6bd
000002b0: 18ca bb3d d413 e93d 546b e83c 1ac2 6cbd
000002c0: af4d 133e 0824 59bc cf1d dabd bc14 05be
000002d0: 0af0 7ebc 854f bfbd 701c d13d a777 b0bd
000002e0: b42f 23bd 914e 0fbd 9a8e 1ebe 8d2e ecbd
000002f0: 9da8 22be 9a00 573d 5aa6 f4bd d235 fb3d
00000300: adf4 85bd 4c07 4c3e 0ec2 f33c 70f2 26bc
00000310: 3399 cfbb 07bf 2ebe 19b2 2abe fb47 dbbd
00000320: 9c0d 0e3d d0b3 e83d 2c83 f63d fac6 00be
00000330: ca88 2e3e 6fe5 18be 1080 edbc 3c20 debd
00000340: f814 473e 277f e9bd a0ad febd 4af2 be3c
00000350: 1927 a7bd 28d3 f6bd 4ee3 a2bd ee22 323e
00000360: 6416 f4bd 9b28 bd3c d512 22be 4d4e 89bd
00000370: e0c9 b6bd 9c5f 193e 80fa 6cbd e387 b33d
00000380: c354 683e 5c76 14be 33a7 f7bd 432f f9bd
00000390: be96 213e 0e22 3a3e 52ed 3bbe e6d9 1fbe
000003a0: 0bbd fdbc dbb3 93bd 77ca 033d 48cb 193e
000003b0: bba0 253d c57e a63d 3c27 a6bd c82d 3f3e
000003c0: 0322 103e 7734 e03d ef36 233e 7e1d a8bd
000003d0: 3907 e43d d467 343d a164 08be 1a9d afbd
000003e0: 8bc9 02be cac2 16be 0980 0b3e ccb7 23be
000003f0: 2a3d c5bd 32fd 9abd 5bd1 b6bd 6692 fcbd

fc3.bias f4 [2]
-0.055562496 0.02485853
00000000: 8095 63bd 1ea4 cb3c

bn1.weight f4 [400]
0.73397815 0.9814843 0.52047336 0.739888 0.4719351 0.589691 0.58272845 0.20272614
0.51656455 0.69672346 0.10317151 0.59670585 0.6236351 0.3153701 0.35367098 0.61065614
1.0140254 0.6177139 0.19818081 0.26764983 0.29232344 0.7797008 0.28819084 0.6993432
0.5908191 0.0429443 0.4268489 0.971028 0.7206392 0.9167326 0.21689916 0.6265805
0.50153136 0.09783078 0.38485134 0.89932054 0.93696994 0.40211317 1.0105293 0.35917273
0.47511482 0.19123425 0.7291309 0.25990826 0.4306741 0.590461 0.24944277 0.6300825
0.63513106 0.7122043 0.99136496 0.64786416 0.87271214 0.17218132 0.40043753 0.34093782
0.66007525 0.18741272 0.66936225 1.0457672 0.6552784 1.072483 0.47937098 0.3065597
0.9187556 0.55337113 0.06885242 0.848035 0.71304935 0.10294427 1.131473 0.24374327
0.9637103 0.92266154 1.0266815 1.1212305 0.855609 0.77836585 1.123106 0.89776546
0.5525677 0.41177785 0.44819692 0.5787495 0.30932584 0.5689439 0.49772668 0.46755448
0.28063414 0.49714026 0.8964633 0.9815808 0.2943881 0.91633624 0.9120756 0.19230312
0.7678642 0.50155616 0.97369254 0.7201714 0.113311365 0.47047287 0.15406989 0.831457
0.19190691 0.69752085 0.6515285 0.72205245 0.2651688 0.20019475 1.0045457 0.5105784
1.0037385 0.7869539 0.39747402 0.33875725 0.47965643 0.8762447 0.49450365 0.20929077
0.20305064 0.93406403 0.5610906 0.39135548 0.4051107 0.23587076 0.37517312 0.32864368
0.4085479 0.24352504 0.3947857 0.021120772 0.9072346 0.6392736 0.08567009 0.20425148
0.84543437 0.66330063 0.1401062 1.0262802 0.8037966 0.24092658 0.30844238 0.9857813
0.7769794 0.2541499 0.83731055 0.36843312 0.88029665 0.72967017 0.7095476 0.23711728
0.67999744 0.8643102 0.83705664 0.15077433 0.3326191 0.3663266 0.5198062 0.64770967
0.4456418 1.0846603 0.66442263 0.88501346 0.53225315 0.25847024 0.5406199 0.8877469
0.13389556 0.76947933 0.7327109 0.8383365 0.42168316 0.8711765 0.17288871 0.84095544
0.18599993 0.8249501 0.7773455 0.7627844 0.30235216 0.7377283 0.49943596 0.9550296
1.012704 0.9099078 0.5278989 0.7627766 0.6874182 0.5507492 0.15162952 0.5705147
0.65349364 0.8238735 0.90415204 0.64272743 0.051981587 1.0551019 0.32409048 1.0889398
0.7069995 0.67793083 0.8497844 0.60515916 0.5585142 0.7506275 0.2519685 0.9257819
0.704828 0.5418566 0.49152765 0.39847636 0.8117572 0.446066 0.81250817 1.145892
0.4572168 1.0816764 1.0182918 0.92749 0.6707123 0.55894357 0.49283433 0.68966097
0.24707037 0.38549137 0.54345286 0.8395781 0.25279218 0.527885 1.0182195 0.37841347
0.9673404 0.51236886 0.80899704 0.39044493 0.6876413 1.0544331 0.35761613 0.27777824
0.5798018 0.38018206 0.24288954 0.21995713 0.85485744 0.24351986 0.8380832 0.76875347
0.9865112 0.19942364 0.33033985 1.2087497 0.2569401 0.9621478 0.40865812 1.0121243
00000000: fee5 3b3f 8e42 7b3f be3d 053f 4d69 3d3f
00000010: 7aa1 f13e fdf5 163f b12d 153f 7197 4f3e
00000020: 933d 043f 785c 323f 964b d33d b7c1 183f
00000030: 8da6 1f3f 3178 a13e 5d14 b53e f653 1c3f
00000040: 96cb 813f 8022 1e3f e9ef 4a3e 6609 893e
00000050: 6bab 953e 799a 473f c08d 933e 2808 333f
00000060: ec3f 173f 5de6 2f3d f08b da3e 4a95 783f
00000070: d07b 383f fdae 6a3f d01a 5e3e 9467 203f
00000080: 5c64 003f 815b c83d 3c0b c53e df39 663f
00000090: 43dd 6f3f c7e1 cd3e 0659 813f 7de5 b73e
000000a0: 4042 f33e e9d2 433e 53a8 3a3f b212 853e
000000b0: 5181 dc3e 7428 173f ed6d 7f3e 164d 213f
000000c0: f397 223f 0553 363f 18ca 7d3f 6dda 253f
000000d0: 106a 5f3f 4d50 303e 2606 cd3e 678f ae3e
000000e0: b1fa 283f 1fe9 3f3e 535b 2b3f b3db 853f
000000f0: 53c0 273f 1f47 893f 1d70 f53e 65f5 9c3e
00000100: 9133 6b3f bba9 0d3f 7f02 8d3d d218 593f
00000110: 678a 363f 72d4 d23d 1bd4 903f d697 793e
00000120: b8b5 763f 8c33 6c3f 4d6a 833f 7b84 8f3f
00000130: 3109 5b3f fc42 473f f0c1 8f3f f5d3 653f
00000140: 1475 0d3f 8cd4 d23e 117a e53e ed28 143f
00000150: f55f 9e3e 4fa6 113f 08d6 fe3e 4d63 ef3e
00000160: 47af 8f3e 2b89 fe3e 9e7e 653f e148 7b3f
00000170: 09ba 963e 0395 6a3f c97d 693f 1ceb 443e
00000180: c092 443f fc65 003f ea43 793f 275d 383f
00000190: ca0f e83d d2e1 f03e 7fc4 1d3e 5eda 543f
000001a0: 3f83 443e ba90 323f 92ca 263f 6ed8 383f
000001b0: 34c4 873e daff 4c3e f494 803f 44b5 023f
000001c0: 817a 803f d075 493f b781 cb3e 9771 ad3e
000001d0: 8795 f53e 9351 603f 952f fd3e 5250 563e
000001e0: 82ec 4f3e d21e 6f3f a2a3 0f3f bf5f c83e
000001f0: ab6a cf3e 1b88 713e b116 c03e fc43 a83e
00000200: 312d d13e a15e 793e 5a21 ca3e 7805 ad3c
00000210: 8740 683f 6fa7 233f cd73 af3d 4d27 513e
00000220: 636e 583f 12ce 293f 0078 0f3e 265d 833f
00000230: 9dc5 4d3f 75b5 763e 29ec 9d3e 2a5c 7c3f
00000240: 1fe8 463f f01f 823e fc59 563f 44a3 bc3e
00000250: 1f5b 613f aacb 3a3f e9a4 353f dfce 723e
00000260: 5014 2e3f 6f43 5d3f 5849 563f 9664 1a3e
00000270: 0d4d aa3e 298f bb3e 0512 053f 4dd0 253f
00000280: 292b e43e 26d6 8a3f 9a17 2a3f 3e90 623f
00000290: be41 083f 3656 843e 1166 0a3f 6143 633f
000002a0: eb1b 093e 99fc 443f f192 3b3f 399d 563f
000002b0: dbe6 d73e 6c05 5f3f bd09 313e db48 573f
000002c0: c476 3e3e ee2f 533f 1d00 473f d745 433f
000002d0: e7cd 9a3e c3db 3c3f 12b6 ff3e d27c 743f
000002e0: 49a0 813f b8ef 683f 6224 073f 5445 433f
000002f0: a4fa 2f3f e6fd 0c3f c544 1b3e 400d 123f
00000300: 5c4b 273f 60e9 523f 8276 673f c989 243f
00000310: a5ea 543d 940d 873f 30ef a53e 6162 8b3f
00000320: ebfd 343f e08c 2d3f 788b 593f b6eb 1a3f
00000330: c9fa 0e3f 2029 403f 0402 813e 0b00 6d3f
00000340: 9c6f 343f 1db7 0a3f 83a9 fb3e 1805 cc3e
00000350: 52cf 4f3f c362 e43e 8900 503f 97ac 923f
00000360: 5218 ea3e 5f74 8a3f 6357 823f fc6f 6d3f
00000370: cdb3 2b3f ed16 0f3f c854 fc3e 9f8d 303f
00000380: 0400 7d3e 205f c53e ba1f 0b3f 97ee 563f
00000390: fa6d 813e 7923 073f 0455 823f 69bf c13e
000003a0: 9fa3 773f 9b2a 033f 6e1a 4f3f 66e8 c73e
000003b0: 4309 303f aaf7 863f 7619 b73e f338 8e3e
000003c0: e46d 143f 39a7 c23e 09b8 783e 713c 613e
000003d0: f0d7 5a3f 455d 793e 9f8c 563f 07cd 443f
000003e0: ff8b 7c3f b635 4c3e 4e22 a93e 4fb8 9a3f
000003f0: a78d 833e 514f 763f a33b d13e 4a8d 813f

bn1.bias f4 [400]
0.03507375 0.03254387 0.018802036 0.010547122 -0.03325355 -0.09880581 0.007361017 0.022515774
-0.009344502 0.0006614836 -0.0681506 0.01813507 -0.023452396 -0.0597692 -0.021800146 0.0018582664
0.01278553 0.01267885 -0.10528314 -0.02416234 -0.039771482 -0.034477208 0.054555956 -0.020541403
0.01567022 0.14073673 0.045691416 -0.023347305 0.023693752 0.04498053 -0.056537185 -0.027658403
0.04781241 -0.08754031 0.035659622 -0.019015407 0.05351147 -0.013791545 -0.03300693 -0.045415763
-0.032641757 -0.048828233 -0.007211673 -0.055281304 0.03648403 -0.033471562 0.06133277 -0.0022285818
-0.042491164 -0.004488425 0.053033527 -0.08228958 0.018882502 -0.040345203 -0.014887172 -0.02548227
-0.0008224315 0.0147788795 0.006499234 -0.015743544 -0.018691234 -0.010251784 -0.017814394 -0.068109214
0.01796736 -0.012539114 0.110705055 -0.06839324 -0.015513224 -0.0588665 -0.05462127 -0.06719175
-0.020796241 -0.020980673 -0.017539075 -0.022566192 -0.056617375 -0.0620053 -0.048410974 -0.028144205
0.00025172747 0.006576347 -0.019878885 -0.026123429 -0.049123164 -0.031357363 -0.031421836 -0.005846884
-0.07342485 -0.010049021 -0.011974596 0.023655962 0.019274373 0.03463056 -0.052541066 -6.6938344e-05
-0.00925005 0.008082433 0.02773077 -0.008905717 -0.120604664 -0.04125086 -0.10331089 0.026399245
0.025021087 0.008602847 -0.032253277 -0.010573069 0.035606578 -0.021492552 -0.03176594 0.080576785
-0.018931964 -0.03425794 0.003801108 -0.014602159 -0.048416328 0.031862475 -0.013153433 -0.04730257
0.018837638 0.023342574 -0.024188006 -0.014116279 0.054328904 -0.070404015 -0.043583866 -0.009430217
-0.01717585 -0.032289203 0.02071592 0.08388299 -0.01939987 0.012597052 0.19195244 0.05755584
-0.019616483 -0.032549616 0.02050877 0.006215757 0.02695644 0.10005678 -0.003431931 -0.054681618
-0.0140405595 0.060614333 -0.031477556 -0.08145282 0.04240794 -0.046770148 0.011714896 0.11936471
-0.015250211 -0.04297187 -0.026477939 -0.11401288 -0.05555074 -0.07330933 -0.0008608281 0.026828274
-0.01623864 -0.030613419 0.012077997 0.030367592 0.050742075 -0.029133348 0.01626658 -0.02982012
0.19145463 0.027091637 0.004427578 -0.007268143 0.03893081 -0.020503502 -0.0074604843 -0.0031310585
0.005446214 0.008531668 0.0013060636 0.05133373 -0.019705627 -0.018247578 -0.024182161 -0.007932614
0.010581228 0.022811014 -0.026309982 -0.039285388 -0.0597857 -0.022977313 -0.060299896 0.015821565
-0.09390523 -0.06149177 -0.021875437 0.04079357 0.17311215 -0.017959751 0.00554275 -0.022691287
0.049865767 -0.0013861546 -0.018452676 0.0021865289 0.015084444 -0.02450958 0.16798134 -0.0038607146
-0.029351896 -0.019084278 -0.019094272 -0.03270988 0.042204197 0.016173488 -0.031281743 0.0025809186
0.015938 -0.042776126 0.038715586 -0.013620489 -0.03177481 0.018925853 -0.06429065 -0.0640397
0.010174464 0.016522326 -0.00078227656 0.03075446 0.043218713 -0.037700158 -0.015889147 0.01101561
-0.041890904 -0.08283618 -0.014322015 -0.053862706 0.025604367 0.029395647 -0.011565152 -0.0048768166
-0.0051687416 0.051554736 -0.061388172 -0.008140198 0.009670326 -0.057670258 0.0011659329 -0.032497123
-0.0326103 -0.0006712775 0.0035179397 -0.010725306 -0.020325327 -0.06738544 0.03331543 -0.013220816
00000000: 7ea9 0f3d b94c 053d ba06 9a3c d6cd 2c3c
00000010: e034 08bd b35a cabd b034 f13b 0073 b83c
00000020: af19 19bc 6a67 2d3a 8b92 8bbd 0090 943c
00000030: 3d1f c0bc 8cd0 74bd 3896 b2bc 1391 f33a
00000040: 667a 513c f4ba 4f3c b09e d7bd 1af0 c5bc
00000050: 6ce7 22bd f937 0dbd 1176 5f3d 7246 a8bc
00000060: d55e 803c 4a1d 103e ec26 3b3d d942 bfbc
00000070: 6619 c23c 813d 383d 8993 67bd e093 e2bc
00000080: f2d6 433d 5648 b3bd d30f 123d 33c6 9bbc
00000090: d82e 5b3d eff5 61bc 4632 07bd e105 3abd
000000a0: 5db3 05bd 1d00 48bd e64f ecbb a66e 62bd
000000b0: 4770 153d 7a19 09bd 1238 7b3d 660d 12bb
000000c0: 370b 2ebd a313 93bb af39 593d 7087 a8bd
000000d0: 7aaf 9a3c 0341 25bd 53e9 73bc 32c0 d0bc
000000e0: 7298 57ba 1d23 723c 87f7 d43b 9bf8 80bc
000000f0: 5c1e 99bc 19f7 27bc 7eef 91bc d87c 8bbd
00000100: 4930 933c db70 4dbc 55b9 e23d c111 8cbd
00000110: 2d2b 7ebc 001e 71bd 8eba 5fbd d49b 89bd
00000120: e15c aabc a9df abbc 1bae 8fbc bcdc b8bc
00000130: 9fe7 67bd 45f9 7dbd 964a 46bd ad8e e6bc
00000140: 4afa 8339 667e d73b 0bd9 a2bc cd00 d6bc
00000150: 5f35 49bd 9470 00bd 2fb4 00bd 3897 bfbb
00000160: c55f 96bd a6a4 24bc 1931 44bc 26ca c13c
00000170: 4ae5 9d3c c6d8 0d3d 4d35 57bd 4061 8cb8
00000180: 868d 17bc 2e6c 043c a42b e33c 49e9 11bc
00000190: 94ff f6bd a9f6 28bd a994 d3bd 3b43 d83c
000001a0: 06f9 cc3c f5f2 0c3c 031c 04bd aa3a 2dbc
000001b0: 34d8 113d 2611 b0bc 011d 02bd 7105 a53d
000001c0: 3517 9bbc 0e52 0cbd 031c 793b e53d 6fbc
000001d0: 3350 46bd 3a82 023d 7f81 57bc 57c0 41bd
000001e0: 6451 9a3c ed38 bf3c ed25 c6bc f747 67bc
000001f0: fc87 5e3d fb2f 90bd ff84 32bd 3281 1abc
00000200: 5eb4 8cbc af41 04bd 6fb4 a93c d8ca ab3d
00000210: 7aec 9ebc de63 4e3c 2e8f 443e acbf 6b3d
00000220: bfb2 a0bc bf52 05bd 0202 a83c 8dad cb3b
00000230: c1d3 dc3c 92ea cc3d 3fea 60bb d5f9 5fbd
00000240: 600a 66bc bc46 783d 9cee 00bd bcd0 a6bd
00000250: f3b3 2d3d 0e92 3fbd d6ef 3f3c 7c75 f43d
00000260: 05dc 79bc 4603 30bd 43e8 d8bc 967f e9bd
00000270: 2c89 63bd 3423 96bd 32a9 61ba f8c6 db3c
00000280: e506 85bc fec8 fabc cbe2 453c 75c5 f83c
00000290: ecd6 4f3d 0fa9 eebc 7e41 853c 5349 f4bc
000002a0: af0c 443e 48ef dd3c 3715 913b 9a29 eebb
000002b0: ea75 1f3d f6f6 a7bc 1477 f4bb 7232 4dbb
000002c0: 2876 b23b 69c8 0b3c 3930 ab3a 5143 523d
000002d0: b26d a1bc f27b 95bc ab19 c6bc cbf7 01bc
000002e0: e35c 2d3c 2ade ba3c 0888 d7bc b7e9 20bd
000002f0: dae1 74bd eb3a bcbc 06fd 76bd 3a9c 813c
00000300: 6351 c0bd cbde 7bbd 1e34 b3bc 2917 273d
00000310: 5044 313e 5420 93bc f59f b53b 14e3 b9bc
00000320: 0c40 4c3d a1af b5ba 112a 97bc de4b 0f3b
00000330: be24 773c 51c8 c8bc 4d03 2c3e 0b04 7dbb
00000340: 6373 f0bc a256 9cbc 976b 9cbc ccfa 05bd
00000350: 4fde 2c3d 437e 843c 4921 00bd a124 293b
00000360: 6990 823c 0536 2fbd 3c94 1e3d 7928 5fbc
00000370: 4e26 02bd 640a 9b3c d1aa 83bd 3f27 83bd
00000380: ccb2 263c d459 873c b111 4dba c7f0 fb3c
00000390: 1b06 313d 7b6b 1abd f529 82bc d17a 343c
000003a0: cc95 2bbd 04a6 a9bd e3a6 6abc 249f 5cbd
000003b0: 40c0 d13c 24cf f03c c37b 3dbc b4cd 9fbb
000003c0: 8c5e a9bb 0f2b 533d 2a72 7bbd 775e 05bc
000003d0: 4970 1e3c a637 6cbd 37d2 983a b41b 05bd
000003e0: 6192 05bd acf8 2fba 3c8d 663b 32b9 2fbc
000003f0: 4d81 a6bc 6101 8abd c375 083d 1f9c 58bc

bn1.running_mean f4 [400]
0.6322801 0.42869747 1.0785557 0.09287173 0.22234362 0.13152888 0.09598358 0.38495106
0.25369078 0.9824061 0.31074378 1.3569077 1.2677453 0.6532672 1.2192861 0.2068214
0.19360049 0.596473 0.06856943 1.1262257 0.050749782 0.10392173 2.0684187 0.45993608
0.022170981 0.55161464 0.19274868 0.20088176 0.46076232 0.38180333 0.029600637 0.020836296
0.26961288 0.9282983 0.7640475 0.1320222 0.5644788 0.3877663 0.29146948 0.08903625
0.70044047 0.20744671 0.38021666 0.2245227 0.25027984 1.6543617 0.2670741 1.699187
1.8391821 0.08427936 0.7465222 0.030676154 0.2697242 0.56696373 0.60743594 0.039299324
0.006627269 0.14403684 2.9883966 0.030734722 0.27182963 0.10137911 0.34750277 0.41054654
0.096053444 0.70540625 0.83884054 0.022638371 0.054958664 0.0067225425 0.2194715 1.7069387
0.38753086 0.7623153 1.5075704 0.0120523255 0.9932632 0.4181582 0.08446297 0.3180387
0.03168246 0.4436213 0.1145678 0.059604965 0.69661283 0.00682502 0.5559251 0.38062602
0.18679293 0.7268012 0.21715386 0.7339214 0.0062588365 2.1392274 0.7504692 1.1906123
0.61401767 1.5560095 0.22194733 0.42144915 0.48432034 0.14098662 1.2869729 1.8700958
1.149408 8.762986e-06 0.3000759 0.053180423 1.2033218 0.5201424 0.10182003 0.27772397
0.12276087 0.601457 1.832946 0.5538289 0.28926027 0.03501427 0.056082003 0.23579465
0.38117352 0.017451355 2.4239137 0.33611062 0.21231776 0.5618657 0.010830698 0.10093633
0.019613367 0.012351039 0.6282292 0.9761729 0.06539344 0.06398416 1.4257485 0.97790045
0.37821445 0.07787482 0.22646484 0.44220823 1.0044441 0.052111052 0.070381396 0.19304411
0.20720078 0.11645364 0.2727401 0.15517 0.85765034 1.0538794 0.11368963 0.022001596
0.2777872 0.8167025 0.9690177 1.0550761 0.15650332 0.14856651 0.5936579 1.664093
1.1456094 0.13448827 0.102332555 0.016748426 0.8958154 0.12249821 0.75558025 0.18544619
2.7329764 0.30217025 0.015598239 0.14708501 0.50703305 0.99411666 0.020750875 2.8963795
0.5038579 1.0263269 0.69469523 2.6748252 0.32869187 0.22457385 0.7956932 0.019076822
0.16553934 1.6545053 1.2994103 0.071964584 0.04174811 0.2500884 0.1429819 0.24807388
0.02237753 0.015717126 0.34198132 2.2987115 1.1729586 0.026471566 0.0217108 0.45688227
1.354498 0.3216922 0.28220657 0.52480906 0.46350914 0.39703006 0.2372884 0.47970662
0.5133093 0.40051523 0.39069623 0.6028551 0.4530004 0.12397017 0.40274012 0.09144864
0.61215925 0.46173918 0.24593869 0.34447968 0.32191962 0.023480896 0.8507043 0.08286364
0.054662842 0.1257946 0.11443411 0.6678139 2.003134 0.30878755 0.46720487 0.47744536
0.11587177 0.057202417 0.1648541 0.055908293 1.085352 0.44686052 0.33189398 0.12793338
1.0404502 0.91017413 0.2070953 0.89448506 0.051943913 0.05007726 0.59413767 0.36294425
0.34300032 0.048951153 0.40895483 0.24683627 1.1515796 0.3518403 2.149358 0.8726346
00000000: 1cdd 213f 3c7e db3e 1d0e 8a3f 8933 be3d
00000010: 0cae 633e 82af 063e 0a93 c43d 4e18 c53e
00000020: c2e3 813e f77e 7b3f cf19 9f3e 27af ad3f
00000030: 7a45 a23f 853c 273f 9111 9c3f fdc8 533e
00000040: 353f 463e 74b2 183f 216e 8c3d 2a28 903f
00000050: 01df 4f3d ead4 d43d f960 0440 be7c eb3e
00000060: eb9f b53c 9e36 0d3f e95f 453e f3b3 4d3e
00000070: 0ae9 eb3e ba7b c33e 097d f23c e1b0 aa3c
00000080: b30a 8a3e f5a4 6d3f 9e98 433f d430 073e
00000090: af81 103f 4e89 c63e 7d3b 953e a358 b63d
000000a0: 1150 333f e96c 543e c2ab c23e 47e9 653e
000000b0: ae24 803e 20c2 d33f f0bd 883e f67e d93f
000000c0: 526a eb3f a89a ac3d 141c 3f3f 8f4c fb3c
000000d0: 4a19 8a3e 8924 113f ec80 1b3f 54f8 203d
000000e0: 9029 d93b 657e 133e e441 3f40 62c7 fb3c
000000f0: 412d 8b3e da9f cf3d e2eb b13e 2833 d23e
00000100: abb7 c43d 8195 343f 41be 563f 1b74 b93c
00000110: 561c 613d c648 dc3b 23bd 603e f87c da3f
00000120: 726a c63e 1827 433f 11f8 c03f 1e77 453c
00000130: 7f46 7e3f d518 d63e ecfa ac3d f8d5 a23e
00000140: 78c5 013d 5522 e33e 86a2 ea3d 5624 743d
00000150: 3855 323f 6ba4 df3b 1b51 0e3f 6ae1 c23e
00000160: a546 3f3e a50f 3a3f 955d 5e3e 46e2 3b3f
00000170: ed16 cd3b 1ae9 0840 c01e 403f fc65 983f
00000180: 4330 1d3f 522b c73f 2946 633e 2fc8 d73e
00000190: d6f8 f73e cc5e 103e 87bb a43f 4d5f ef3f
000001a0: cd1f 933f bd04 1337 8ca3 993e b7d3 593d
000001b0: 7306 9a3f 0d28 053f 0587 d03d d631 8e3e
000001c0: 0d6a fb3d 16f9 193f f99d ea3f bbc7 0d3f
000001d0: ec19 943e 206b 0f3d 3eb6 653d 2774 713e
000001e0: 2d29 c33e 25f6 8e3c 6721 1b40 b116 ac3e
000001f0: d469 593e 6ed6 0f3f 3d73 313c b5b7 ce3d
00000200: 36ac a03c 035c 4a3c a1d3 203f 78e6 793f
00000210: ffec 853d 210a 833d ed7e b63f af57 7a3f
00000220: 53a5 c13e d57c 9f3d 66e6 673e 1e69 e23e
00000230: a091 803f 6672 553d 1f24 903d 5bad 453e
00000240: 712c 543e 3f7f ee3d 97a4 8b3e e2e4 1e3e
00000250: f98e 5b3f 85e5 863f 1cd6 e83d b13c b43c
00000260: 203a 8e3e 6a13 513f 8b11 783f bc0c 873f
00000270: 6842 203e d221 183e f7f9 173f 0001 d53f
00000280: 54a3 923f 4bb7 093e bb93 d13d ff33 893c
00000290: 2854 653f 57e0 fa3d b56d 413f 9be5 3d3e
000002a0: 16e9 2e40 0fb6 9a3e c28f 7f3c 749d 163e
000002b0: ebcc 013f 6e7e 7e3f bdfd a93c 485e 3940
000002c0: d5fc 003f ae5e 833f 8cd7 313f 5630 2b40
000002d0: 4d4a a83e b0f6 653e 8db2 4b3f ff46 9c3c
000002e0: 2583 293e d4c6 d33f 1453 a63f 2b62 933d
000002f0: 1100 2b3d 960b 803e d969 123e 1407 7e3e
00000300: 1551 b73c 34c1 803c 2d18 af3e 171e 1340
00000310: 8223 963f e6da d83c d9da b13c 79ec e93e
00000320: 3160 ad3f d7b4 a43e 617d 903e e359 063f
00000330: 1251 ed3e 8647 cb3e bbfb 723e 1b9c f53e
00000340: 3d68 033f 5510 cd3e 5609 c83e b654 1a3f
00000350: abef e73e 13e4 fd3d f433 ce3e 6d49 bb3d
00000360: 78b6 1c3f 1469 ec3e 5ad7 7b3e a45f b03e
00000370: a6d2 a43e 025b c03c c2c7 593f 69b4 a93d
00000380: 25e6 5f3d 4dd0 003e 6e5c ea3d daf5 2a3f
00000390: 5933 0040 6719 9e3e 7a35 ef3e b873 f43e
000003a0: 2e4e ed3d 154d 6a3d 83cf 283e 1800 653d
000003b0: d0ec 8a3f e7ca e43e 02ee a93e f800 033e
000003c0: 792d 853f 2c01 693f ca10 543e f9fc 643f
000003d0: 24c3 543d d01d 4d3d 6819 183f d4d3 b93e
000003e0: bd9d af3e 0181 483d 8762 d13e a6c2 7c3e
000003f0: f666 933f 6924 b43e 158f 0940 fb64 5f3f
