weight1/checkpoint_actor_local_1.pth (torch_old, 531550 bytes, 10 tensors)

fc1.weight f4 [400, 24]
-0.009050209 -0.04371711 0.042979613 -0.052844923 -0.089726076 -0.037723966 0.0035782843 -0.062708594
0.007467518 -0.0575536 0.0002597303 -0.07752199 0.017777938 0.038534172 -0.006077449 -0.024768498
0.0526457 0.012685572 -0.024409581 -0.04257241 -0.01593053 0.08389657 -0.047090422 -0.01900425
-0.0031067443 -0.03692698 -0.020215105 -0.017368713 0.06702344 0.0053595966 -0.034364752 -0.024985783
-0.01364028 -0.019435637 -0.06602957 -0.01295781 -0.01920897 0.028299173 0.0033306486 0.027409935
0.05516837 -0.072974585 -0.026491525 -0.08571879 -0.048929725 -0.009134163 -0.013097901 -0.054822095
0.034473844 -0.058382448 0.015533687 -0.042352695 0.007264462 -0.057315692 0.009529424 -0.097529985
0.041576084 -0.09665541 0.0012802941 0.0020989825 -0.02769539 -0.02729813 -0.019288078 -0.0058169635
0.01216439 -0.046671443 0.027780866 -0.06346655 0.02951617 0.028908385 0.04657126 -0.04149031
-0.035434242 0.1254029 -0.014521501 0.0008507028 -0.05914437 -0.07767584 -0.009565645 -0.018664505
-0.020709608 0.12024587 -0.012030148 0.015631506 -0.0063589425 -0.0275617 -0.015903125 0.01979486
-0.0072246254 0.11970633 -0.003557295 -0.008607805 -0.010087482 -0.14796112 -0.0046543456 0.020728597
-0.013715416 0.016922282 0.022269709 0.0049942336 -0.013906559 0.0020021538 0.0060707103 -0.031377498
0.041445006 0.057843357 0.052939028 0.008035501 0.048167896 -0.022687232 -0.038444005 0.015250113
0.09789165 0.06907234 -0.0012428043 -0.06341177 0.00302685 -0.12470225 -0.007931723 -0.03966399
0.03957607 -0.079111844 0.009379831 0.029499346 0.12255926 -0.061129827 -0.008816623 0.044861034
0.064651825 -0.07228483 0.0040977406 0.03170683 0.05924309 0.00925142 -0.0047782557 0.03035381
0.08561341 -0.07155155 0.044475246 0.044387054 -0.037151087 -0.03304622 -0.04261447 0.022319917
-0.047653235 0.055399418 -0.026260775 0.016711036 0.029874185 0.04352503 0.034279745 -0.0012880022
-0.034998853 0.048837937 -0.006818061 0.041468345 0.013085306 -0.08343602 0.008788723 0.0031208473
0.011671519 -0.0065059583 -0.04479191 0.01562953 0.004154156 -0.2031066 0.045315728 -0.07016265
0.030519575 0.08984559 0.0039023026 -0.014393975 0.07266518 -0.07529244 -0.02108117 -0.026410341
0.059078418 0.07386586 -0.012427261 -0.078451216 -0.0109069925 -0.025541017 -0.02515742 0.016024617
0.017111495 0.043194927 0.05897643 0.028480949 0.022347677 -0.021176057 0.04050625 0.01682979
0.03849093 0.017367052 -0.04414272 -0.0029804679 -0.060817033 -0.007992433 -0.0013091853 0.013943211
0.06952628 0.03037631 -0.04076011 0.006894328 -0.04883247 -0.022820804 0.012667949 -0.04050352
-0.026544394 -0.03236976 -0.00012110984 -3.6392805e-05 -0.052411497 -0.055745397 -0.04837486 0.028642956
-0.022586776 0.015696265 -0.0007995414 0.08567605 -0.061273035 0.051929645 0.04692085 0.09359887
-0.055033505 0.048583157 -0.054429386 0.050432347 -0.025653554 0.047597494 0.03179255 0.056611974
0.009154157 0.008457297 -0.035223998 0.0057531027 0.03151345 0.01986659 -0.040502045 0.014645071
-0.023172611 0.14481357 -0.013317907 0.015829915 0.0052736034 -0.068358734 0.0176254 0.036248934
-0.04676688 0.15114364 0.012730562 -0.05924395 0.013448982 -0.09124016 0.0031847153 -0.056582212
00000000: 5447 14bc b610 33bd 640b 303d eb73 58bd
00000010: 4ec2 b7bd 7284 1abd a681 6a3b 5d6d 80bd
00000020: 15b2 f43b 53bd 6bbd 692c 8839 d9c3 9ebd
00000030: 0aa3 913c 02d6 1d3d 5625 c7bb 4ee7 cabc
00000040: 04a3 573d 25d7 4f3c 9af6 c7bc 6860 2ebd
00000050: be80 82bc f7d1 ab3d e3e1 40bd cdae 9bbc
00000060: 859a 4bbb bf40 17bd 269a a5bc d548 8ebc
00000070: 9643 893d 8e9f af3b 0ec2 0cbd fcae ccbc
00000080: 7b7b 5fbc 7c37 9fbc 833a 87bd ff4c 54bc
00000090: 215c 9dbc abd3 e73c 0347 5a3b cd8a e03c
000000a0: 3bf8 613d b373 95bd c104 d9bc 558d afbd
000000b0: 896a 48bd 75a7 15bc 9498 56bc 228d 60bd
000000c0: 7234 0d3d 6f22 6fbd 0181 7e3c 057a 2dbd
000000d0: b90a ee3b dcc3 6abd 4d21 1c3c cdbd c7bd
000000e0: af4b 2a3d 46f3 c5bd 8bcf a73a 158f 093b
000000f0: 71e1 e2bc 54a0 dfbc 0802 9ebc 3a9c bebb
00000100: 264d 473c 8e2a 3fbd b394 e33c c0fa 81bd
00000110: e5cb f13c 47d1 ec3c 81c1 3e3d bef1 29bd
00000120: 7f23 11bd 9e69 003e 97eb 6dbc b301 5f3a
00000130: 5e41 72bd 8314 9fbd 39b9 1cbc 4ee6 98bc
00000140: 32a7 a9bc 7743 f63d 191a 45bc a50d 803c
00000150: ad5e d0bb 13c9 e1bc 4547 82bc d528 a23c
00000160: 8dbc ecbb 9828 f53d 8221 69bb c007 0dbc
00000170: f745 25bc 1f83 17be 7b83 98bb 05cf a93c
00000180: a0b6 60bc 99a0 8a3c f76e b63c aba6 a33b
00000190: 56d8 63bc 9136 033b cfec c63b b185 00bd
000001a0: 3dc2 293d 28ed 6c3d 98d6 583d 56a7 033c
000001b0: b34b 453d 93da b9bc 7677 1dbd 9cdb 793c
000001c0: 6b7b c83d cd75 8d3d 98e5 a2ba 08de 81bd
000001d0: 1e5e 463b e563 ffbd 0ff4 01bc b576 22bd
000001e0: 841a 223d 6405 a2bd ddad 193c 9da8 f13c
000001f0: 5900 fb3d 4563 7abd 9973 10bc 34c0 373d
00000200: 2d68 843d 120a 94bd 5746 863b 05df 013d
00000210: e2a8 723d 4593 173c ea92 9cbb 8ea8 f83c
00000220: 1556 af3d 9e89 92bd ad2b 363d 33cf 353d
00000230: bd2b 18bd 795b 07bd 838c 2ebd 42d8 b63c
00000240: 0a30 43bd 80ea 623d d620 d7bc 95e5 883c
00000250: b5ba f43c 4d47 323d eb68 0c3d 2fd2 a8ba
00000260: f55a 0fbd 4a0a 483d 0b6a dfbb b6da 293d
00000270: c063 563c 81e0 aabd 93fe 0f3c 2187 4c3b
00000280: e639 3f3c ef2f d5bb b977 37bd 8009 803c
00000290: 961f 883b 2dfb 4fbe fc9c 393d 6fb1 8fbd
000002a0: 3004 fa3c f700 b83d c6bd 7f3b b5d4 6bbc
000002b0: 7bd1 943d ec32 9abd 6bb2 acbc 805a d8bc
000002c0: 36fc 713d fc46 973d b69b 4bbc 08ab a0bd
000002d0: 3eb3 32bc 653b d1bc ef16 cebc 0f46 833c
000002e0: 682d 8c3c 2aed 303d 4591 713d e150 e93c
000002f0: 7a12 b73c 6979 adbc e2e9 253d a1de 893c
00000300: aaa8 1d3d 5945 8e3c ffce 34bd f453 43bb
00000310: 481b 79bd b2f2 02bc f898 abba 1172 643c
00000320: cb63 8e3d bdd7 f83c 13f4 26bd d1e9 e13b
00000330: 8e04 48bd b2f2 babc 3b8d 4f3c 05e7 25bd
00000340: a173 d9bc 2796 04bd 5afc fdb8 7aa4 18b8
00000350: 70ad 56bd 4955 64bd b824 46bd a2a4 ea3c
00000360: e707 b9bc 7495 803c 5198 51ba ed76 af3d
00000370: 6ff9 7abd 2eb4 543d 1430 403d c4b0 bf3d
00000380: d06a 61bd 22ff 463d 59f1 5ebd 2692 4e3d
00000390: 6727 d2bc 97f5 423d e838 023d f5e1 673d
000003a0: 51fb 153c 7a90 0a3c 0a47 10bd 8684 bc3b
000003b0: 3f14 013d 42bf a23c 79e5 25bd e1f1 6f3c
000003c0: 7dd4 bdbc 024a 143e 5a33 5abc bdad 813c
000003d0: 31ce ac3b aaff 8bbd 2563 903c c379 143d
000003e0: a18e 3fbd 66c5 1a3e d993 503c c9a9 72bd
000003f0: 1e59 5c3c 1fdc babd a8b6 503b c0c2 67bd

fc1.bias f4 [400]
-0.1120892 -0.11437939 0.07885511 -0.21327516 -0.021101585 0.020801961 0.102883354 -0.22228952
-0.10666338 -0.049449377 0.12718628 0.09664359 -0.1929148 -0.2428099 0.10072593 0.0005280993
-0.076574035 -0.24471326 -0.10651811 0.11196134 -0.005192794 0.15625589 0.03688054 0.11117191
-0.15723263 -0.14061858 0.0756101 0.08334233 -0.19607043 -0.0086742975 -0.18953869 -0.051821
0.046225812 0.10512506 -0.2566855 0.030397465 0.07818215 -0.044151183 -0.113205954 0.023200741
0.10329662 -0.096090086 -0.123570755 0.12970455 0.041416865 0.14397676 -0.17475718 0.092770375
-0.021595467 0.0024334681 -0.18720092 -0.19292781 -0.01840373 -0.17181991 -0.22758596 -0.27664134
-0.22358315 -0.20984669 0.029598054 -0.2158557 0.01742018 -0.16512209 0.11799177 0.08086844
-0.07116726 -0.20641753 -0.12723514 0.04679971 0.072446354 0.13022092 -0.20617762 -0.045883738
-0.20693716 -0.15770583 0.11076273 -0.11549409 0.20679457 0.19482592 -0.12897861 -0.11040655
0.026170405 -0.04679629 0.056803938 -0.29872927 -0.20916045 -0.07989081 0.10315445 -0.15743122
0.15685228 -0.19514525 -0.053596877 0.0404735 -0.27106974 0.14879416 -0.08583895 0.06907571
-0.006492226 -0.14623836 -0.20093456 -0.023825351 0.09056334 -0.065136425 0.27452272 0.02368887
-0.23576541 -0.18985482 -0.051926903 -0.037921626 0.08809907 0.06487337 0.08480192 -0.019829996
-0.045829233 -0.15331194 0.16791515 -0.040794846 -0.11032307 -0.03599866 -0.08636373 0.052170698
0.024667451 -0.040056527 0.024417443 -0.096257724 -0.12423564 0.02622509 -0.04171775 0.13984455
-0.1384023 -0.1475527 -0.019483862 0.19230534 -0.16581938 -0.060842436 -0.05529499 -0.17412737
-0.016791854 -0.046293166 0.10647862 -0.12942287 -0.17308097 -0.07548864 -0.2868132 -0.1719603
-0.09077113 -0.20059371 0.07902938 -0.06101339 0.038087647 -0.10892053 -0.17443247 0.107229866
0.11118317 -0.07614178 0.032257747 -0.088464424 -0.17467195 -0.01273329 -0.14346105 0.09748622
0.084714495 -0.15198469 -0.10953606 -0.06711171 0.092710905 -0.03533485 -0.05497601 -0.033250757
0.1558633 -0.3107236 -0.031169476 -0.15153499 -0.13708268 0.030382274 0.104810886 0.14822
0.14963664 -0.1548328 -0.17574516 -0.00030968577 0.07866325 0.044257797 -0.11998152 -0.028492387
-0.24400744 -0.19220145 -0.15765847 -0.025048792 0.011733169 -0.18060182 -0.059011992 0.081124626
-0.15250325 -0.12272202 -0.10430609 0.110667296 0.017067261 -0.26720074 -0.11806056 0.19218497
0.11081815 -0.16072406 0.11356536 -0.18147433 -0.22452892 -0.074781016 -0.15561803 -0.14713366
0.15765895 -0.17785108 0.22159222 0.09069803 0.018901305 -0.07771633 -0.25392526 -0.11596225
-0.03314088 -0.25976786 -0.06897972 -0.2506544 -0.030451842 -0.11486052 0.1182283 0.035514552
-0.17521982 -0.10283031 -0.21809644 -0.019185636 -0.13406147 -0.022710651 -0.16166008 0.11374223
-0.07209971 0.012888034 0.014315459 -0.013110247 0.01819358 0.1271898 0.15323228 -0.10085431
-0.05540157 0.10433079 0.0125214625 -0.25237298 0.13022722 0.039137557 0.11787693 -0.061262045
-0.31808966 -0.031157168 0.08022198 0.08637088 -0.07863053 -0.20190886 -0.07302836 0.0918745
00000000: 068f e5bd be3f eabd ca7e a13d ce64 5abe
00000010: 3bdd acbc e068 aa3c 82b4 d23d dd9f 63be
00000020: 5572 dabd 6e8b 4abd 1f3d 023e 13ed c53d
00000030: 758b 45be 29a3 78be 6549 ce3d 2570 0a3a
00000040: d9d2 9cbd 1d96 7abe 2b26 dabd fd4b e53d
00000050: 5028 aabb 8b01 203e 0d10 173d 19ae e33d
00000060: 9701 21be 51fe 0fbe 78d9 9a3d 62af aa3d
00000070: b0c6 48be a41e 0ebc 6e16 42be 4242 54bd
00000080: 4757 3d3d cf4b d73d 486c 83be 1b04 f93c
00000090: f71d a03d dfd7 34bd 86d8 e7bd 7b0f be3c
000000a0: 2e8d d33d e1ca c4bd aa12 fdbd 45d1 043e
000000b0: bba4 293d a56e 133e 8cf3 32be 65fe bd3d
000000c0: fae8 b0bc d27a 1f3b 99b1 3fbe de8e 45be
000000d0: 6bc3 96bc 8ff1 2fbe 4b0c 69be efa3 8dbe
000000e0: fbf2 64be 0de2 56be 9e77 f23c 4709 5dbe
000000f0: c4b4 8e3c c415 29be aba5 f13d 5a9e a53d
00000100: 24c0 91bd 1e5f 53be ee49 02be 0db1 3f3d
00000110: c15e 943d a258 053e 3a20 53be 96f0 3bbd
00000120: 56e7 53be a37d 21be 92d7 e23d 2a88 ecbd
00000130: f5c1 533e 7280 473e f812 04be d41c e2bd
00000140: 5163 d63c 77ad 3fbd 3fab 683d 0bf3 98be
00000150: 282e 56be cb9d a3bd a442 d33d a635 21be
00000160: e29d 203e 28d4 47be 6688 5bbd 8ac7 253d
00000170: a7c9 8abe 7f5d 183e 55cc afbd 9177 8d3d
00000180: bdbc d4bb 82bf 15be cac1 4dbe 622d c3bc
00000190: 4679 b93d 3f66 85bd 3e8e 8c3e 290f c23c
000001a0: 7d6c 71be 4d69 42be 4eb1 54bd b553 1bbd
000001b0: 496d b43d 54dc 843d a1ac ad3d 8472 a2bc
000001c0: 6fb7 3bbd cefd 1cbe f3f1 2b3e 7f18 27bd
000001d0: 10f1 e1bd 5573 13bd 78df b0bd f1b0 553d
000001e0: 6513 ca3c 5012 24bd 1707 c83c c522 c5bd
000001f0: 416f febd 00d6 d63c 3be0 2abd 6933 0f3e
00000200: 55b9 0dbe 0e18 17be 9f9c 9fbc b1eb 443e
00000210: 8ecc 29be eb35 79bd 007d 62bd 724e 32be
00000220: 128f 89bc e79d 3dbd 7611 da3d 6e87 04be
00000230: 233c 31be ca99 9abd 2ed9 92be 5c16 30be
00000240: 37e6 b9bd 7068 4dbe 28da a13d 2de9 79bd
00000250: cb01 1c3d ba11 dfbd 6d9e 32be 559b db3d
00000260: 00b4 e33d 39f0 9bbd b320 043d d62c b5bd
00000270: 34dd 32be 4a9f 50bc 74e7 12be dba6 c73d
00000280: cb7e ad3d e0a1 1bbe 7154 e0bd dd71 89bd
00000290: 37df bd3d 47bb 10bd 862e 61bd f231 08bd
000002a0: a19a 1f3e 2a17 9fbe 2157 ffbc fd2b 1bbe
000002b0: 675f 0cbe 3fe4 f83c 17a7 d63d fcc6 173e
000002c0: 593a 193e 7d8c 1ebe 8af6 33be 525d a2b9
000002d0: 331a a13d aa47 353d dfb8 f5bd de68 e9bc
000002e0: 16dd 79be 75d0 44be 3971 21be 2033 cdbc
000002f0: 7a3c 403c afef 38be 8fb6 71bd ab24 a63d
00000300: d029 1cbe af55 fbbd 6e9e d5bd 89a5 e23d
00000310: a4d0 8b3c 89ce 88be bcc9 f1bd 23cc 443e
00000320: a0f4 e23d d994 24be f594 e83d 68d4 39be
00000330: e9ea 65be ca26 99bd 555a 1fbe 35aa 16be
00000340: 5971 213e 981e 36be 12e9 623e e4bf b93d
00000350: e9d6 9a3c bd29 9fbd 7e02 82be 9e7d edbd
00000360: bbbe 07bd 4b00 85be 3d45 8dbd c655 80be
00000370: 2476 f9bc fe3b ebbd ae21 f23d b577 113d
00000380: d36c 33be b398 d2bd ac54 5fbe 322b 9dbc
00000390: 6947 09be b00b babc 388a 25be b0f1 e83d
000003a0: 03a9 93bd 5528 533c 638b 6a3c 5dcc 56bc
000003b0: b40a 953c 0b3e 023e ece8 1c3e b48c cebd
000003c0: c2ec 62bd 62ab d53d d226 4d3c 0837 81be
000003d0: 495a 053e b44e 203d 7669 f13d e9ed 7abd
000003e0: a6dc a2be 513d ffbc 6c4b a43d 37e3 b03d
000003f0: 0b09 a1bd 32c1 4ebe e58f 95bd b328 bc3d

fc2.weight f4 [300, 400]
-0.08003006 -0.061706897 -0.00735853 -0.018982027 -0.069857195 0.035752274 -0.06195986 0.052308567
-0.079868816 0.050236978 0.07475965 -0.0686795 0.08186651 0.015697472 0.04445215 -0.14656107
0.019911163 -0.01664943 -0.08186008 -0.010301866 -0.023333669 -0.023642812 0.07898023 -0.039239135
-0.03863227 0.014028425 -0.013301088 0.02063142 0.015379037 -0.007123559 0.10918895 0.06417239
0.017782839 -0.00023443572 0.049146906 0.0059387265 -0.068186045 -0.08577905 0.013518658 -0.100221336
0.054832246 -0.014145359 0.05850431 0.0680996 -0.06758993 -0.045507934 -0.037841544 -0.00016932213
-0.0039219004 -0.015232662 -0.002755704 0.16463597 -0.0012449962 -0.011492978 0.015125584 -0.044913612
0.06919979 -0.09789089 -0.032692254 0.0675654 0.04401207 -0.033745408 -0.057641916 0.0032699949
0.042681206 0.010039551 0.075725146 -0.07205899 0.027879564 -0.045753002 -0.053912908 -0.047197692
-0.051259484 0.028745888 -0.027761286 -0.0453006 -0.081282705 -0.043821696 -0.06234334 -0.03969351
0.0129724005 -0.02165462 -0.0035149455 -0.03247401 -0.061911967 -0.059236366 -0.047593612 0.06146081
-0.04159437 -0.046883464 -0.06880409 -0.044591777 0.018705852 -0.013205921 -0.01791235 0.03434156
0.007765519 0.053462595 0.08181041 -0.0034642054 0.049383156 0.0058885138 -0.03597728 0.043343715
0.0067003504 0.030814035 -0.002451834 0.07965655 -0.019237816 0.07965908 0.03548477 -0.055823393
-0.087218106 -0.028825808 -0.014278379 -0.040685844 0.028321259 -0.018543918 -0.019287493 0.03909742
-0.014659927 0.014970053 0.07478407 -0.03715591 -0.004161349 -0.013682707 -0.010639605 -0.005816617
0.0625748 0.13270669 0.00976975 0.04029283 -0.02494416 -0.012982893 0.036256883 0.04445831
-0.07846127 -0.08524005 -0.040397234 0.03244653 0.052320696 -0.03439644 0.03805229 0.012175873
0.0008857941 0.06911652 0.03900017 0.11082654 0.023580479 -0.033060163 0.1683426 -0.023450341
-0.02402548 0.025445962 -0.027714342 -0.02647915 0.10948098 -0.069909245 -0.0463486 0.027995134
-0.06722665 0.039467275 -0.08268964 0.016623808 -0.0024681801 -0.08703555 0.0015256775 0.052206617
0.07739805 0.04417982 0.086842895 -0.008598618 0.059782274 0.0032790764 -0.08167232 -0.04532396
-0.062159542 0.08686545 -0.03711883 0.024908464 -0.114051394 0.07803247 -0.07380975 0.09871626
0.057601836 -0.035542868 0.0099404575 -0.010451868 0.058550134 -0.018631257 -0.038551558 0.062242337
-0.062134217 0.050825577 0.029476317 0.07661888 0.034213707 0.053504106 -0.032850973 -0.009540911
0.07096787 0.04903195 -0.024024596 0.04099596 -0.06850344 -0.038605217 0.10679905 -0.07901957
-0.022866914 0.015396584 -0.02174582 0.089295596 -0.025717936 0.016722491 0.058992546 0.0064606173
0.077932626 0.011199302 -0.065796725 -0.09329431 -0.024460426 0.04038274 -0.019878948 -0.045588255
-0.06010004 -0.0044950712 -0.004618896 0.012724337 0.07920922 0.0800765 0.016420819 0.064868145
-0.091200344 -0.059222326 -0.009807561 0.029093957 -0.098808266 0.046578426 0.08087261 0.07879267
0.023120647 0.007930618 -0.03781685 -0.051136218 -0.0573613 0.029579606 0.0117918765 0.026293747
0.095755875 -0.034057986 -0.005342519 -0.06342246 0.02965806 0.054662686 0.039911058 0.05165385
00000000: cde6 a3bd 5fc0 7cbd d31f f1bb 3280 9bbc
00000010: 4a11 8fbd fa70 123d 9fc9 7dbd 8241 563d
00000020: 4392 a3bd 4ac5 4d3d 961b 993d d6a7 8cbd
00000030: a1a9 a73d fc97 803c 7513 363d 1b14 16be
00000040: bc1c a33c 6364 88bc 42a6 a7bd 28c9 28bc
00000050: 4026 bfbc 92ae c1bc 63c0 a13d 37b9 20bd
00000060: df3c 1ebd 7bd7 653c ceec 59bc 3903 a93c
00000070: 5bf8 7b3c be6c e9bb 759e df3d d06c 833d
00000080: 51ad 913c dcd2 75b9 444e 493d a699 c23b
00000090: 20a5 8bbd edac afbd 5c7d 5d3c d840 cdbd
000000a0: c797 603d f0c1 67bc 37a2 6f3d ce77 8b3d
000000b0: 976c 8abd 8766 3abd bcff 1abd 108c 31b9
000000c0: 4983 80bb 6a92 79bc 0b99 34bb 5596 283e
000000d0: 242f a3ba 0b4d 3cbc 4cd1 773c 56f7 37bd
000000e0: 9fb8 8d3d 057b c8bd 50e8 05bd ba5f 8a3d
000000f0: 0046 343d a038 0abd ee19 6cbd 694d 563b
00000100: 7dd2 2e3d ee7c 243c c915 9b3d aa93 93bd
00000110: af63 e43c 8067 3bbd c8d3 5cbd 5e52 41bd
00000120: 77f5 51bd 7f7c eb3c a36b e3bc 1f8d 39bd
00000130: 8c77 a6bd 617e 33bd bb5b 7fbd a995 22bd
00000140: 318a 543c 0865 b1bc 005b 66bb 7803 05bd
00000150: 6797 7dbd d5a1 72bd 85f1 42bd 55be 7b3d
00000160: dc5e 2abd e008 40bd 29e9 8cbd dea5 36bd
00000170: 043d 993c a65d 58bc ecbc 92bc bca9 0c3d
00000180: e575 fe3b 98fb 5a3d 378c a73d b907 63bb
00000190: fe45 4a3d 6ff4 c03b ea5c 13bd 2e89 313d
000001a0: 9d8e db3b b76d fc3c f3ae 20bb f922 a33d
000001b0: a098 9dbc 4d24 a33d 7a58 113d 12a7 64bd
000001c0: 689f b2bd 1a24 ecbc ddef 69bc 33a6 26bd
000001d0: fc01 e83c 6ae9 97bc ce00 9ebc 9e24 203d
000001e0: 3130 70bc f444 753c 6428 993d cc30 18bd
000001f0: ed5b 88bb 6f2d 60bc bd51 2ebc 5299 bebb
00000200: 3727 803d 43e4 073e 4d11 203c 180a 253d
00000210: b257 ccbc 33b6 54bc 1982 143d eb19 363d
00000220: 4db0 a0bd 5692 aebd 9277 25bd a7e6 043d
00000230: 3a4e 563d 48e3 0cbd b8dc 1b3d 507d 473c
00000240: a334 683a f68c 8d3d a4be 1f3d 06f9 e23d
00000250: d92b c13c 186a 07bd 0162 2c3e ee1a c0bc
00000260: 15d1 c4bc 0d74 d03c 3009 e3bc cdea d8bc
00000270: 9037 e03d 942c 8fbd 08d8 3dbd 0d56 e53c
00000280: 20ae 89bd 70a8 213d 3059 a9bd a72e 883c
00000290: 31c1 21bb b23f b2bd 3ef9 c73a 9bd6 553d
000002a0: de82 9e3d e6f5 343d b0da b13d 38e1 0cbc
000002b0: 42de 743d c6e5 563b d143 a7bd 9ea5 39bd
000002c0: 019b 7ebd 83e6 b13d ea09 18bd d60c cc3c
000002d0: c793 e9bd 7dcf 9f3d 9129 97bd c02b ca3d
000002e0: e7ef 6b3d 6695 11bd 4ddd 223c 503e 2bbc
000002f0: 44d2 6f3d 94a0 98bc 3de8 1dbd d2f1 7e3d
00000300: 7380 7ebd 7b2e 503d 5178 f13c 5cea 9c3d
00000310: ac23 0c3d 1f27 5b3d be8e 06bd 7b51 1cbc
00000320: 9a57 913d bad5 483d 3bcf c4bc 61eb 273d
00000330: 884b 8cbd 8120 1ebd 76b9 da3d 03d5 a1bd
00000340: 6553 bbbc f441 7c3c 4a24 b2bc 9ce0 b63d
00000350: 6cae d2bc 9bfd 883c 2ba2 713d 96b3 d33b
00000360: 249b 9f3d 477d 373c 6fc0 86bd 1611 bfbd
00000370: 3b61 c8bc 5f68 253d 2dd9 a2bc c0ba 3abd
00000380: 762b 76bd 644b 93bb 1c5a 97bb bd79 503c
00000390: 7238 a23d 26ff a33d f484 863c 97d9 843d
000003a0: 3fc7 babd 1c93 72bd e4af 20bc 7356 ee3c
000003b0: fd5b cabd 05c9 3e3d 8aa0 a53d 0d5e a13d
000003c0: 8367 bd3c 6cef 013c d7e5 1abd 3674 51bd
000003d0: aff3 6abd ee50 f23c b732 413c fc65 d73c
000003e0: a81b c43d 6380 0bbd 4c10 afbb a2e3 81bd
000003f0: 76f5 f23c fbe5 5f3d c779 233d fd92 533d

fc2.bias f4 [300]
0.034087744 -0.037682954 0.011078893 0.11983694 0.02990304 0.039641473 0.0988961 0.0074800574
0.09824768 0.029451326 0.030938951 0.0819423 0.04151835 0.05736934 0.055362113 0.075055204
0.059300967 0.059970703 0.073897205 0.043268234 0.06637869 0.07599168 -0.013343905 0.05605203
0.018686106 0.012581165 -0.056021485 0.06426079 0.035630852 0.05268817 0.027125997 -0.0001409929
0.11209307 0.07273923 0.08897396 0.052044734 0.08876325 0.03632279 0.03109878 0.074492745
0.019915067 -0.0044710254 0.04851106 -0.009834794 0.00259718 0.05579444 0.08076997 0.06122525
0.049059544 0.072755106 -0.016325237 0.0027524347 0.060249563 0.02954707 0.04822363 -0.025300875
0.08242452 0.04955577 -0.019546695 0.071112104 0.041768588 0.08861373 -0.0057628285 0.08641891
0.13320442 0.066685475 -0.009351202 0.044721983 0.06853042 0.15169862 0.059718885 -0.02662753
0.06784345 0.07110191 0.04025956 0.06963948 -0.021419901 -0.03344208 0.06354821 0.014368242
-0.006086351 0.065677874 0.04797906 0.016697248 0.022921784 0.079415806 0.0048316605 0.09869204
0.03940658 0.064688765 0.05975849 0.027369015 0.008256163 0.015629567 0.039876025 0.005579294
0.12705147 0.056136996 0.078386046 -0.05789065 0.067097954 0.03435541 0.0111648915 0.055577844
-0.0019688855 -0.008313099 0.10709779 0.12607802 0.07168315 -0.044353135 0.093882166 0.005058591
-0.027464123 0.06047477 0.0628917 0.033246018 0.010247147 0.07848603 0.08591962 0.045775857
-0.004988696 0.04717545 0.062128298 0.066063955 -0.0026019712 0.054062873 0.03992341 0.07105314
0.10100665 0.050940692 0.121721104 0.03092833 -0.0019426779 0.06698758 0.023259087 0.09503367
0.07318957 0.053914547 0.015048386 -0.0065457253 0.08447075 0.03854423 0.0124913715 0.08852521
0.04880693 -0.031714417 0.04968975 0.09949697 0.059808794 0.017837573 -0.030352952 0.06420179
0.026208932 0.054357238 0.016639102 -0.018656433 0.019830229 -0.021512192 0.082405224 0.10484505
0.1033044 0.081543654 0.059911016 0.017143907 0.10235622 0.046099488 0.07612395 0.06461892
0.008553737 0.06268323 0.037982516 -0.037248727 0.04855887 0.097035825 0.043846074 0.035819504
0.048540566 -0.00655103 0.07248862 0.022712339 0.048463907 0.0690895 0.00043554595 0.004442721
0.03994564 0.12821981 -0.003250728 0.06761735 0.066921845 0.03923168 0.036710534 -0.02139191
0.031107835 0.02035376 0.04700968 0.09874192 0.046095442 0.082763106 -0.039081905 0.13523498
0.05481876 0.10636603 -0.0050507993 0.012175419 0.060471818 0.048936237 0.0053693377 0.052428838
0.022944577 0.047351327 0.026949944 -0.02412505 0.02823273 0.053932134 0.05096918 0.07640632
-0.008933732 0.042683464 0.011442265 0.08196 0.05566208 0.07173059 -0.0011189347 0.074731804
0.0683469 0.010054906 -0.022322858 0.067543 0.05078225 0.08279137 0.0920003 0.04821163
0.09512672 0.060213447 0.04980018 0.031749673 -0.0071594673 0.07116919 0.037556402 0.087216064
0.057360575 0.0035710793 0.071851715 0.05413083 -0.027085312 -0.020563247 -0.059038874 0.030598268
0.08416884 0.013237421 0.059304208 0.03189664 0.06511199 0.096366115 0.06618636 0.040233225
00000000: 979f 0b3d 7159 1abd 3f84 353c 126d f53d
00000010: 38f7 f43c 195f 223d 0a8a ca3d 451b f53b
00000020: 1436 c93d e843 f13c af73 fd3c 5dd1 a73d
00000030: 250f 2a3d 1dfc 6a3d 62c3 623d 8bb6 993d
00000040: 92e5 723d d7a3 753d 6b57 973d 083a 313d
00000050: 8df1 873d 87a1 9b3d 65a0 5abc d096 653d
00000060: 9b13 993c 3b21 4e3c c976 65bd 299b 833d
00000070: a8f1 113d 8dcf 573d 5737 de3c 7ed7 13b9
00000080: 0d91 e53d 4ef8 943d fb37 b63d dc2c 553d
00000090: 82c9 b53d 35c7 143d dec2 fe3c a78f 983d
000000a0: ec24 a33c ae81 92bb 89b3 463d 1e22 21bc
000000b0: 7335 2a3b b688 643d ba6a a53d 54c7 7a3d
000000c0: a9f2 483d a100 953d 81bc 85bc 3162 343b
000000d0: 3fc8 763d b20c f23c 2486 453d c843 cfbc
000000e0: 30ce a83d fefa 4a3d 6420 a0bc 39a3 913d
000000f0: 8a15 2b3d 1e7b b53d 1cd6 bcbb 66fc b03d
00000100: bd66 083e 6592 883d c935 19bc 662e 373d
00000110: ad59 8c3d e256 1b3e ca9b 743d fa21 dabc
00000120: 82f1 8a3d e19d 913d 35e7 243d 259f 8e3d
00000130: ca78 afbc 90fa 08bd 9025 823d c668 6b3c
00000140: 0370 c7bb 1f82 863d b185 443d abc8 883c
00000150: 77c6 bb3c c1a4 a23d e852 9e3b 0d1f ca3d
00000160: cb68 213d 8b7b 843d 52c5 743d fc34 e03c
00000170: dc44 073c 9409 803c 0b55 233d 83d2 b63b
00000180: c819 023e e8ef 653d dd88 a03d bf1e 6dbd
00000190: a76a 893d 42b8 0c3d f3ec 363c 98a5 633d
000001a0: 6b08 01bb aa33 08bc 1656 db3d 991a 013e
000001b0: 9ece 923d a2ab 35bd 4b45 c03d 89c2 a53b
000001c0: 71fc e0bc 64b4 773d 5dcd 803d fa2c 083d
000001d0: a6e3 273c 49bd a03d a0f6 af3d 777f 3b3d
000001e0: 3778 a3bb 0b3b 413d 3e7a 7e3d 8a4c 873d
000001f0: d585 2abb 0871 5d3d bb86 233d 4f84 913d
00000200: 93dc ce3d 30a7 503d ea48 f93d 695d fd3c
00000210: 74a1 feba c930 893d d789 be3c 03a1 c23d
00000220: 6ae4 953d 80d5 5c3d 818d 763c 867d d6bb
00000230: 00ff ac3d 8ee0 1d3d 9ca8 4c3c b54c b53d
00000240: c7e9 473d fae6 01bd 7b87 4b3d 11c5 cb3d
00000250: 11fa 743d 1a20 923c c1a6 f8bc 3a7c 833d
00000260: 1db4 d63c b2a5 5e3d ba4e 883c 60d5 98bc
00000270: 0173 a23c 563a b0bc 12c4 a83d 00b9 d63d
00000280: 4291 d33d 5c00 a73d 4165 753d 6171 8c3c
00000290: 23a0 d13d d1d2 3c3d e0e6 9b3d ed56 843d
000002a0: f924 0c3c 1160 803d 8e93 1b3d 1f92 18bd
000002b0: aae5 463d b8ba c63d f197 333d 79b7 123d
000002c0: 79d2 463d 06aa d6bb ea74 943d 3a0f ba3c
000002d0: 1782 463d cc7e 8d3d fd59 e439 3f94 913b
000002e0: 0a9e 233d 0e4c 033e 2a0a 55bb f77a 8a3d
000002f0: 520e 893d 66b1 203d c95d 163d 163e afbc
00000300: dcd5 fe3c eebc a63c 398d 403d 3439 ca3d
00000310: 93ce 3c3d b47f a93d 5914 20bd 0a7b 0a3e
00000320: a389 603d 6fd6 d93d 2d81 a5bb 697b 473c
00000330: 4cb1 773d 5d71 483d 45f1 af3b 9fbf 563d
00000340: 44f6 bb3c 77f3 413d 21c6 dc3c e6a1 c5bc
00000350: 5448 e73c f1e7 5c3d 0fc5 503d eb7a 9c3d
00000360: ca5e 12bc dbd4 2e3d 5678 3b3c a5da a73d
00000370: ecfd 633d 7de7 923d 38a9 92ba fd0c 993d
00000380: 76f9 8b3d 55bd 243c 6dde b6bc fc53 8a3d
00000390: 0c01 503d 868e a93d a76a bc3d 8f79 453d
000003a0: ccd1 c23d 60a2 763d 46fb 4b3d f20b 023d
000003b0: f799 eabb 27c1 913d bed4 193d 569e b23d
000003c0: ecf2 6a3d c508 6a3b fe26 933d 4ab8 5d3d
000003d0: 04e2 ddbc 4174 a8bc bfd2 71bd 38a9 fa3c
000003e0: b660 ac3d c5e1 583c f8e8 723d 0da6 023d
000003f0: 6f59 853d 995b c53d b78c 873d 98cb 243d

fc3.weight f4 [2, 300]
-0.076692574 -0.13474828 -0.09160792 -0.10639137 -0.02117127 0.03327964 0.05531033 0.07775395
0.08737346 0.061912227 0.10719316 0.14755052 -0.17163385 -0.121387236 0.12612094 -0.1450435
0.005801301 0.08195043 0.026583618 -0.10607082 -0.08017563 -0.02249807 -0.11206638 -0.14216742
-0.0648643 0.073561616 -0.11159332 0.05837343 0.099493615 -0.14035499 -0.089047976 0.08940612
-0.03458174 -0.011457429 -0.13443062 -0.12140242 0.03540548 -0.13406542 0.026423404 -0.039609708
0.17071903 -0.1052068 -0.04451929 0.12734741 -0.16269845 0.007987319 0.13890824 0.092903405
-0.1137109 0.16574982 0.13166113 -0.17566767 -0.15163566 0.0927833 -0.13358408 -0.11592158
0.10205135 -0.09188108 -0.16934644 0.03951683 0.006981511 -0.010713338 -0.122909695 0.06939511
0.059202548 -0.086538546 0.082251966 0.092470676 0.08602442 0.050285857 -0.06880202 -0.14182511
-0.11250329 -0.14022224 0.122509934 0.06296903 -0.084581055 -0.136877 0.15724644 -0.072972305
-0.09763864 -0.07305904 -0.04921309 0.16594815 -0.13224834 0.11192878 -0.07266022 0.13219029
0.073910125 0.0070161326 0.040268943 0.15780313 0.038576033 -0.11761434 -0.11464747 -0.14845823
0.19115663 -0.16723078 -0.11574192 0.087517194 0.21923661 -0.07320881 0.06778712 -0.0361662
-0.04645282 -0.08983435 0.12567647 -0.14056872 0.088650875 -0.095615335 -0.077076666 -0.09670023
-0.08462826 0.17969806 -0.13206433 -0.06747907 -0.10298181 -0.0621364 -0.078556545 0.17294326
-0.11189378 -0.15131289 -0.16210897 0.0938931 0.04607192 0.008194737 0.09572396 -0.1367265
0.09989655 0.14298703 0.08100448 -0.11425315 0.028347094 0.21629594 0.18950075 0.22324215
-0.054053213 0.142938 0.19966403 -0.15807605 -0.00067239 -0.10314343 -0.10926481 -0.10519417
0.12765428 -0.1150192 0.09396635 -0.022149347 0.14470853 0.081695035 0.04931346 -0.10803856
-0.15097104 0.1356188 0.099289015 0.0759246 0.07069751 -0.18832344 -0.012495336 0.10263013
0.14203197 0.14186697 -0.0033445228 -0.11015002 -0.110980116 0.22080566 0.086295575 0.11264144
0.021880807 -0.09886425 0.10275849 -0.1180089 0.09158053 0.11584291 0.02577504 -0.06004442
0.14510816 -0.011768038 -0.104555786 -0.12802854 -0.0123124635 -0.09289474 0.10547819 -0.086046934
-0.043339264 -0.036829535 -0.15334198 -0.11324531 -0.1604089 0.05159939 -0.11846801 0.12344044
-0.06582042 0.20265079 0.033459406 -0.012230254 -0.009685885 -0.1719803 -0.16634825 -0.10681978
0.03728396 0.1130017 0.12194857 -0.12482168 0.17276752 -0.14886925 -0.0315976 -0.10802515
0.19477299 -0.115198165 -0.12258715 0.022612652 -0.08029043 -0.118397586 -0.079523526 0.1747703
-0.12009302 0.025824202 -0.15858337 -0.06661365 -0.08791217 0.15174009 -0.055923305 0.08705987
0.22903815 -0.14341955 -0.12135711 -0.12182451 0.16026293 0.18294813 -0.18347542 -0.15625393
-0.032809827 -0.06871573 0.0316312 0.15103966 0.039196506 0.08499787 -0.08387511 0.18925215
0.14291157 0.109842755 0.16001889 -0.08253256 0.11203503 0.04382745 -0.13183299 -0.08723237
-0.1306882 -0.14579225 0.13784559 -0.1605232 -0.09495386 -0.07302253 -0.08721993 -0.12127254
00000000: ff10 9dbd 74fb 09be ef9c bbbd b8e3 d9bd
00000010: 5f6f adbc 3b50 083d 168d 623d 773d 9f3d
00000020: dbf0 b23d ad97 7d3d 1688 db3d 7c17 173e
00000030: c9c0 2fbe df99 f8bd d925 013e 4986 14be
00000040: d718 be3b a1d5 a73d e3c5 d93c a83b d9bd
00000050: 1f33 a4bd df4d b8bc 0f83 e5bd 5694 11be
00000060: 93d7 84bd 79a7 963d 0a8b e4bd fa18 6f3d
00000070: 4fc3 cb3d 38b9 0fbe c95e b6bd 8e1a b73d
00000080: 95a5 0dbd f1b7 3bbc 2ea8 09be d5a1 f8bd
00000090: 5605 113d 7248 09be e575 d83c ca3d 22bd
000000a0: f8d0 2e3e aa76 d7bd dc59 36bd 5c67 023e
000000b0: 6c9a 26be 3edd 023c f63d 0e3e 2444 be3d
000000c0: 43e1 e8bd 52ba 293e 2dd2 063e 3ae2 33be
000000d0: 6146 1bbe 2c05 be3d 44ca 08be 4b68 edbd
000000e0: 4c00 d13d 262c bcbd 2769 2dbe 66dc 213d
000000f0: 29c5 e43b ff86 2fbc 14b8 fbbd 061f 8e3d
00000100: 5f7e 723d 1f3b b1bd b873 a83d 4461 bd3d
00000110: 922d b03d 8bf8 4d3d 13e8 8cbd 9a3a 11be
00000120: 2068 e6bd 6b96 0fbe 7de6 fa3d e8f5 803d
00000130: d538 adbd 7c29 0cbe 3605 213e 8172 95bd
00000140: c4f6 c7bd fa9f 95bd aa93 49bd 50ee 293e
00000150: 1c6c 07be eb3a e53d e2ce 94bd e45c 073e
00000160: 315e 973d 96e7 e53b 0cf1 243d 2597 213e
00000170: e701 1e3d c9df f0bd 4bcc eabd 6f05 18be
00000180: 90be 433e 8c3e 2bbe 1a0a edbd 373c b33d
00000190: 907f 603e 80ee 95bd f9d3 8a3d 0223 14bd
000001a0: 5045 3ebd 12fb b7bd 55b1 003e 3ff1 0fbe
000001b0: 978e b53d f9d1 c3bd 5fda 9dbd c50a c6bd
000001c0: 9551 adbd c502 383e df3b 07be 7732 8abd
000001d0: 21e8 d2bd bd82 7ebd 41e2 a0bd 0a18 313e
000001e0: 9128 e5bd c4f1 1abe e5ff 25be 074b c03d
000001f0: e9b5 3c3d 3843 063c ec0a c43d 0802 0cbe
00000200: 9096 cc3d 316b 123e ade5 a53d 8efd e9bd
00000210: 2a38 e83c af7c 5d3e 7c0c 423e 9799 643e
00000220: e766 5dbd 575e 123e ba74 4c3e b0de 21be
00000230: 5443 30ba dd3c d3bd 3bc6 dfbd 0a70 d7bd
00000240: ceb7 023e 308f ebbd 6e71 c03d 8c72 b5bc
00000250: 792e 143e ba4f a73d e9fc 493d 5243 ddbd
00000260: 2798 1abe a8df 0a3e 0a58 cb3d 5b7e 9b3d
00000270: dbc9 903d dcd7 40be 3db9 4cbc bf2f d23d
00000280: d470 113e 9345 113e c82f 5bbb 5596 e1bd
00000290: 8b49 e3bd e11a 623e bcbb b03d 8eb0 e63d
000002a0: 613f b33c 5779 cabd 0b73 d23d a6ae f1bd
000002b0: 938e bb3d 0c3f ed3d 2d26 d33c 23f1 75bd
000002c0: 3c97 143e bbce 40bc 5821 d6bd ea19 03be
000002d0: 37ba 49bc 993f bebd f304 d83d 6039 b0bd
000002e0: 8384 31bd 91da 16bd ae05 1dbe 28ed e7bd
000002f0: 3b42 24be e259 533d 5b9f f2bd 57ce fc3d
00000300: dbcc 86bd b083 4f3e bb0c 093d 6761 48bc
00000310: 8cb1 1ebc 9b1b 30be 3257 2abe 54c4 dabd
00000320: 11b7 183d 6f6d e73d 2cc0 f93d 82a2 ffbd
00000330: f8e9 303e 2e71 18be 7c6c 01bd 4a3c ddbd
00000340: 9272 473e 04ed ebbd f90e fbbd 2b3e b93c
00000350: 4f6f a4bd 6f7a f2bd 3bdd a2bd fcf6 323e
00000360: 54f3 f5bd 478d d33c ae63 22be bd6c 88bd
00000370: 4c0b b4bd c161 1b3e d60f 65bd 724c b23d
00000380: fa88 6a3e 93dc 12be 148a f8bd 217f f9bd
00000390: f71b 243e c156 3b3e fbe0 3bbe 0801 20be
000003a0: 9963 06bd d5ba 8cbd b88f 013d 24aa 1a3e
000003b0: 848c 203d 5d13 ae3d b7c6 abbd 51cb 413e
000003c0: 6957 123e 3df5 e03d fedb 233e d506 a9bd
000003d0: 9f72 e53d 6a84 333d 3aff 06be e3a6 b2bd
000003e0: 21d3 05be 904a 15be 6527 0d3e 3260 24be
000003f0: 2b77 c2bd d68c 95bd 5da0 b2bd bd5d f8bd

fc3.bias f4 [2]
-0.055628773 0.025479581
00000000: ffda 63bd 8eba d03c

bn1.weight f4 [400]
0.73310804 0.9804995 0.5198125 0.7388941 0.47281075 0.5902283 0.58658767 0.2037322
0.5167844 0.6981726 0.10422574 0.5969788 0.6254756 0.31533793 0.3534308 0.6089867
1.0156999 0.6171001 0.19814974 0.26786923 0.29371494 0.77854913 0.28814006 0.6991501
0.59032965 0.042100847 0.4259246 0.97445977 0.72129583 0.9167674 0.21692558 0.6249075
0.50077146 0.099710226 0.38558948 0.8983556 0.93755245 0.4026603 1.0097449 0.35720956
0.47577664 0.19139624 0.73236495 0.25885287 0.4311216 0.5897699 0.24876715 0.62998444
0.63587075 0.7114985 0.9924614 0.6501707 0.8740959 0.170272 0.40093958 0.34076354
0.66086966 0.18832535 0.67116684 1.04666 0.6542134 1.0737896 0.47891435 0.30729294
0.9221925 0.55436856 0.068938665 0.85112673 0.71209955 0.104727715 1.1347053 0.24472673
0.9645012 0.92527074 1.0261933 1.1225015 0.85359544 0.78025466 1.1246864 0.89860314
0.55208296 0.41087592 0.44763437 0.58175075 0.31004876 0.5671293 0.49845025 0.46605253
0.2812308 0.496828 0.8981508 0.98151916 0.28787014 0.91545707 0.91328275 0.19303599
0.76701945 0.5004632 0.97155154 0.7207921 0.11400426 0.471113 0.1570576 0.8308691
0.1948195 0.69735736 0.6510371 0.7228596 0.26592633 0.20010157 1.0058018 0.51095057
1.0067494 0.78681064 0.39720204 0.33819598 0.48071393 0.8740256 0.49451485 0.21003377
0.20644319 0.93398124 0.5618182 0.39189243 0.40449294 0.23627757 0.3764031 0.32779953
0.41019183 0.24771902 0.39552495 0.023546908 0.90432733 0.6383956 0.08720889 0.20427032
0.84612554 0.6629625 0.1407491 1.0260271 0.8024673 0.24151666 0.3102062 0.98703784
0.7745484 0.25623092 0.83800626 0.36836094 0.88016444 0.72784716 0.7068143 0.23760995
0.680321 0.86532927 0.8377169 0.15285517 0.33575186 0.36716795 0.519896 0.64843225
0.44715503 1.0857682 0.66297126 0.8804342 0.53157395 0.25994635 0.541567 0.8878323
0.13403973 0.7697067 0.7329872 0.83892226 0.42165357 0.87232155 0.17234087 0.8399663
0.18769073 0.82621557 0.77876496 0.76173586 0.3021177 0.7360122 0.49936056 0.9548436
1.0134106 0.9099792 0.52847034 0.760839 0.6883945 0.5515961 0.15358427 0.5723162
0.65409434 0.8247074 0.90329015 0.64297336 0.052415814 1.0572084 0.32410097 1.0901567
0.7084051 0.67929226 0.84992284 0.6039506 0.5595837 0.75004715 0.25231987 0.92709035
0.7030098 0.5419674 0.49001643 0.39932585 0.81188023 0.44432047 0.81194264 1.1479505
0.45866734 1.0833435 1.0186532 0.9291156 0.6694423 0.55930394 0.4933283 0.6900834
0.25046316 0.38436103 0.5447642 0.8397734 0.25182435 0.52900547 1.0180405 0.37763718
0.96761113 0.5142416 0.8123235 0.3913728 0.6892684 1.0546873 0.35885644 0.27959335
0.5792681 0.37889102 0.24499053 0.22005239 0.8571366 0.24428697 0.83906543 0.7678031
0.98663336 0.19673723 0.33018968 1.2112361 0.25561747 0.96044636 0.40558568 1.0118654
00000000: f8ac 3b3f 0402 7b3f 6f12 053f 2a28 3d3f
00000010: 4014 f23e 3419 173f 9c2a 163f 2d9f 503e
00000020: fc4b 043f 71bb 323f 4e74 d53d 9ad3 183f
00000030: 2b1f 203f f973 a13e e2f4 b43e 8de6 1b3f
00000040: 7402 823f 46fa 1d3f c4e7 4a3e 2826 893e
00000050: ce61 963e ff4e 473f 1887 933e 80fb 323f
00000060: d81f 173f f071 2c3d ca12 da3e 3276 793f
00000070: d8a6 383f 45b1 6a3f bd21 5e3e f0f9 1f3f
00000080: 8f32 003f e034 cc3d fc6b c53e a2fa 653f
00000090: 7003 703f 7e29 ce3e 523f 813f 2ce4 b63e
000000a0: ff98 f33e 60fd 433e 457c 3b3f 5d88 843e
000000b0: f8bb dc3e 29fb 163f d1bc 7e3e a946 213f
000000c0: 6dc8 223f c424 363f f311 7e3f 9671 263f
000000d0: c0c4 5f3f c85b 2e3e f447 cd3e 8f78 ae3e
000000e0: c12e 293f 5cd8 403e 97d1 2b3f f4f8 853f
000000f0: 887a 273f f071 893f 4334 f53e 8055 9d3e
00000100: cf14 6c3f 19eb 0d3f b72f 8d3d 71e3 593f
00000110: 284c 363f 7c7b d63d 063e 913f a599 7a3e
00000120: 8de9 763f 8bde 6c3f 4d5a 833f 21ae 8f3f
00000130: 3b85 5a3f c5be 473f b9f5 8f3f db0a 663f
00000140: 4f55 0d3f 545e d23e 5530 e53e 9eed 143f
00000150: b6be 9e3e 632f 113f df34 ff3e 709e ee3e
00000160: 7cfd 8f3e 3d60 fe3e 36ed 653f d744 7b3f
00000170: b763 933e 655b 6a3f e6cc 693f 3aab 453e
00000180: 635b 443f 5b1e 003f 9ab7 783f d585 383f
00000190: 117b e93d b935 f13e b5d3 203e d6b3 543f
000001a0: c37e 473e 0386 323f 5eaa 263f 540d 393f
000001b0: 7f27 883e 6de7 4c3e 1dbe 803f a8cd 023f
000001c0: 2add 803f 6c6c 493f 115e cb3e 0628 ad3e
000001d0: 2320 f63e 24c0 5f3f 0d31 fd3e 1813 573e
000001e0: d865 533e 6519 6f3f 51d3 0f3f 20a6 c83e
000001f0: b319 cf3e bff2 713e e8b7 c03e 57d5 a73e
00000200: aa04 d23e 0eaa 7d3e 3f82 ca3e 72e5 c03c
00000210: ff81 673f e56d 233f 939a b23d 3d2c 513e
00000220: af9b 583f e9b7 293f 8820 103e db54 833f
00000230: 7f6e 4d3f 2550 773e 59d3 9e3e 83ae 7c3f
00000240: ce48 463f b330 833e 9487 563f ce99 bc3e
00000250: 7552 613f 3154 3a3f c8f1 343f 0650 733e
00000260: 8429 2e3f 3886 5d3f 9d74 563f 1186 1c3e
00000270: abe7 ab3e 70fd bb3e e717 053f a8ff 253f
00000280: 81f1 e43e 74fa 8a3f 7cb8 293f 2364 613f
00000290: 3b15 083f b017 853e 23a4 0a3f fa48 633f
000002a0: b641 093e 800b 453f 0da5 3b3f 9cc3 563f
000002b0: fae2 d73e 7750 5f3f 207a 303e 0808 573f
000002c0: 0032 403e dd82 533f 245d 473f 1f01 433f
000002d0: 2caf 9a3e 4c6b 3c3f 30ac ff3e a170 743f
000002e0: 70b7 813f 66f4 683f d549 073f 58c6 423f
000002f0: 9f3a 303f 6735 0d3f 3245 1d3e 5183 123f
00000300: ba72 273f 0620 533f 063e 673f e799 243f
00000310: f7b1 563d 9b52 873f 90f0 a53e 418a 8b3f
00000320: 095a 353f 19e6 2d3f 8b94 593f 829c 1a3f
00000330: e140 0f3f 1703 403f 1230 813e cb55 6d3f
00000340: 73f8 333f 60be 0a3f 6fe3 fa3e 7074 cc3e
00000350: 62d7 4f3f f97d e33e 79db 4f3f 0bf0 923f
00000360: 72d6 ea3e 00ab 8a3f 3a63 823f 85da 6d3f
00000370: 9260 2b3f 8b2e 0f3f 8795 fc3e 4ea9 303f
00000380: b53c 803e f8ca c43e ab75 0b3f 64fb 563f
00000390: 1fef 803e e76c 073f 274f 823f a959 c13e
000003a0: 5db5 773f 56a5 033f 6ff4 4f3f 0462 c83e
000003b0: e573 303f feff 863f 08bc b73e dc26 8f3e
000003c0: ea4a 143f 01fe c13e ccde 7a3e 6a55 613e
000003d0: 4e6d 5b3f 5d26 7a3e fecc 563f be8e 443f
000003e0: 0194 7c3f 7c75 493e 9f0e a93e c909 9b3f
000003f0: 4be0 823e d0df 753f eda8 cf3e ce84 813f

bn1.bias f4 [400]
0.03758369 0.034042455 0.01799131 0.009816129 -0.034273185 -0.099447414 0.0074678566 0.023087269
-0.008866356 0.0019479421 -0.070685536 0.020220514 -0.022121476 -0.058149915 -0.02145303 0.0017599269
0.013019903 0.012560011 -0.10708257 -0.024604945 -0.040678684 -0.03388748 0.057243172 -0.019978438
0.015759528 0.14136197 0.043916587 -0.023022588 0.024386318 0.04476033 -0.057055164 -0.026797019
0.047545552 -0.08777726 0.03781416 -0.017756484 0.056814313 -0.013910116 -0.033720415 -0.045611635
-0.03181776 -0.04880239 -0.006465028 -0.054657955 0.03774777 -0.03229274 0.061813653 -0.0038773306
-0.041436035 -0.0031545155 0.054717723 -0.08262149 0.019776635 -0.03995062 -0.014813286 -0.024484526
-0.0017937471 0.014434081 0.0069883033 -0.015978968 -0.01922716 -0.01186956 -0.016266184 -0.06609327
0.018567763 -0.012679744 0.11206485 -0.06663168 -0.016529456 -0.059389822 -0.05403834 -0.06649825
-0.020048184 -0.018753964 -0.017258938 -0.023452802 -0.055387385 -0.061300103 -0.049743503 -0.027774934
-0.00065793697 0.007642093 -0.019156499 -0.025894979 -0.049668074 -0.030312292 -0.032155916 -0.0052173533
-0.074404486 -0.009376171 -0.011510897 0.024519224 0.018535571 0.034396023 -0.05007234 0.0014098651
-0.008536988 0.009140665 0.027329907 -0.010110631 -0.12142809 -0.040312033 -0.10351622 0.02631392
0.025991289 0.007928131 -0.032682665 -0.011737282 0.036971036 -0.021989798 -0.03314294 0.08144202
-0.018961035 -0.034072828 0.002803697 -0.014586797 -0.048637103 0.032057118 -0.0133000035 -0.04709886
0.021526566 0.024104634 -0.021533022 -0.0134484405 0.05483199 -0.07089843 -0.043786887 -0.010591566
-0.017839625 -0.033159565 0.019979402 0.083736405 -0.018572338 0.01222032 0.19305992 0.059079576
-0.019070689 -0.03161223 0.020867217 0.007095262 0.026920034 0.09959104 -0.0015509549 -0.05457746
-0.013741807 0.060145505 -0.032636836 -0.081619136 0.04362868 -0.04729296 0.012342784 0.119550206
-0.014887912 -0.046276815 -0.026545605 -0.11443914 -0.05696214 -0.07375986 -0.00016461327 0.027464591
-0.015599256 -0.030427527 0.013171916 0.030787209 0.050787907 -0.029078273 0.01627438 -0.03090376
0.19184309 0.028603831 0.006524121 -0.007461463 0.03876994 -0.018920992 -0.007351891 -0.0024608308
0.005673447 0.007693169 0.0040133377 0.052889567 -0.01942024 -0.017555045 -0.024796812 -0.008799795
0.009843701 0.021653362 -0.02438712 -0.039288018 -0.06029539 -0.023877636 -0.060688347 0.015307517
-0.09423182 -0.059974313 -0.023583634 0.042705636 0.17373414 -0.020064155 0.005697978 -0.02192801
0.051029567 -0.0015153912 -0.018568587 0.003616469 0.015384761 -0.02487688 0.16869703 -0.00167544
-0.0292681 -0.019234281 -0.019155614 -0.033626333 0.042084463 0.016311718 -0.029750451 0.0026482095
0.016596535 -0.0406333 0.0393634 -0.012149499 -0.030572772 0.018780578 -0.06398208 -0.064258054
0.013690945 0.015862664 0.00065264193 0.029807156 0.04459002 -0.039817646 -0.015642222 0.011072617
-0.040917005 -0.08057547 -0.013619506 -0.055060584 0.024309771 0.029603735 -0.014398342 -0.0048466343
-0.0043413495 0.05286322 -0.060603935 -0.0059879734 0.010434887 -0.05833386 0.0010166264 -0.032691255
-0.03258439 -0.00048234075 0.0040952256 -0.009257388 -0.01923901 -0.06810401 0.03480346 -0.01330276
00000000: 5bf1 193d 1a70 0b3d 8362 933c d4d3 203c
00000010: 0a62 0cbd 16ab cbbd ecb4 f43b 8321 bd3c
00000020: 3144 11bc 1752 ff3a 94c3 90bd 7ea5 a53c
00000030: 1938 b5bc 9b2e 6ebd 44be afbc 59ad e63a
00000040: 6e51 553c 81c8 4d3c 1b4e dbbd 4f90 c9bc
00000050: b19e 26bd 99cd 0abd d177 6a3d d2a9 a3bc
00000060: 201a 813c 31c1 103e e1e1 333d de99 bcbc
00000070: d1c5 c73c 9c56 373d adb2 69bd 6c85 dbbc
00000080: 20bf 423d 90c4 b3bd 05e3 1a3d 0c76 91bc
00000090: 20b6 683d 41e7 63bc 6b1e 0abd 44d3 3abd
000000a0: 5753 02bd 04e5 47bd 96d8 d3bb 05e1 5fbd
000000b0: 689d 1a3d 6445 04bd 5030 7d3d d01a 7ebb
000000c0: d5b8 29bd fdbb 4ebb b11f 603d 7535 a9bd
000000d0: 9c02 a23c 43a3 23bd 6db3 72bc c693 c8bc
000000e0: 2a1c ebba ec7c 6c3c 23fe e43b 53e6 82bc
000000f0: 4782 9dbc 8b78 42bc a940 85bc e95b 87bd
00000100: 6c1b 983c b3be 4fbc 4282 e53d 3176 88bd
00000110: c868 87bc be42 73bd 4e57 5dbd 3c30 88bd
00000120: 173c a4bc eaa1 99bc 9e62 8dbc 1720 c0bc
00000130: e2dd 62bd d115 7bbd d8bf 4bbd 4288 e3bc
00000140: 6779 2cba 866a fa3b 17ee 9cbc b521 d4bc
00000150: c070 4bbd 7c51 f8bc ecb5 03bd 55f6 aabb
00000160: 6161 98bd 839e 19bc 3498 3cbc 8adc c83c
00000170: e9d7 973c d8e2 0c3d a718 4dbd 39cb b83a
00000180: b9de 0bbc bac2 153c f8e2 df3c 0fa7 25bc
00000190: 4aaf f8bd 3b1e 25bd 5000 d4bd 4a90 d73c
000001a0: afeb d43c fee4 013c 42de 05bd bb4d 40bc
000001b0: f16e 173d f323 b4bc e4c0 07bd 13cb a63d
000001c0: 2c54 9bbc f38f 0bbd 3bbe 373b 76fd 6ebc
000001d0: b337 47bd 534e 033d 42e8 59bc bcea 40bd
000001e0: 7b58 b03c 1577 c53c 0566 b0bc d956 5cbc
000001f0: 8297 603d 3233 91bd e159 33bd 3f88 2dbc
00000200: 6824 92bc 53d2 07bd d8ab a33c fe7d ab3d
00000210: 0425 98bc bd37 483c 80b1 453e 6dfd 713d
00000220: 223a 9cbc d37b 01bd baf1 aa3c 5f7f e83b
00000230: 6787 dc3c 63f6 cb3d 6949 cbba 9d8c 5fbd
00000240: 5125 61bc 225b 763d 34ae 05bd ef27 a7bd
00000250: fdb3 323d 43b6 41bd 6339 4a3c bdd6 f43d
00000260: 6eec 73bc c28c 3dbd 2b76 d9bc 115f eabd
00000270: 2251 69bd 690f 97bd 0a9c 2cb9 6cfd e03c
00000280: 0694 7fbc 2643 f9bc 05cf 573c 7535 fc3c
00000290: fb06 503d 8f35 eebc d951 853c e229 fdbc
000002a0: 8472 443e 9552 ea3c 4bc8 d53b 4a7f f4bb
000002b0: 3bcd 1e3d 3200 9bbc 22e8 f0bb e445 21bb
000002c0: 53e8 b93b fb16 fc3b 5182 833b bba2 583d
000002d0: 3217 9fbc 99cf 8fbc af22 cbbc 042d 10bc
000002e0: 7947 213c 6462 b13c 7fc7 c7bc 79ec 20bd
000002f0: 4df8 76bd 089b c3bc 5894 78bd 61cc 7a3c
00000300: 9dfc c0bd a0a7 75bd 7732 c1bc 1bec 2e3d
00000310: 5de7 313e 955d a4bc 1bb6 ba3b 5fa2 b3bc
00000320: 6104 513d 17a0 c6ba 261d 98bc 4802 6d3b
00000330: 5d10 7c3c 99ca cbbc eabe 2c3e 709a dbba
00000340: a8c3 efbc 3691 9dbc 3cec 9cbc c4bb 09bd
00000350: c260 2c3d 27a0 853c 38b7 f3bc 958d 2d3b
00000360: 75f5 873c 1a6f 26bd 843b 213d b10e 47bc
00000370: c073 fabc bad9 993c 0909 83bd ba99 83bd
00000380: fc4f 603c 6bf2 813c 0f16 2b3a 232e f43c
00000390: 06a4 363d d417 23bd 1e24 80bc ec69 353c
000003a0: 9798 27bd c104 a5bd 5924 5fbc 3587 61bd
000003b0: 4925 c73c 8883 f23c 06e7 6bbc 84d0 9ebb
000003c0: e141 8ebb 1b87 583d d53b 78bd c336 c4bb
000003d0: 17f7 2a3c 7cef 6ebd 5240 853a 44e7 05bd
000003e0: 3677 05bd aee2 fcb9 3e31 863b 4dac 17bc
000003f0: 219b 9dbc 1d7a 8bbd 138e 0e3d d2f3 59bc

bn1.running_mean f4 [400]
0.56439596 0.4233506 1.136504 0.12007427 0.19899301 0.16662477 0.121540956 0.44309974
0.26901534 0.9918597 0.36944765 1.3681953 1.2480719 0.65587854 1.2255921 0.21820645
0.18373196 0.618484 0.08120932 1.1164472 0.03982325 0.09449617 2.1051636 0.4471297
0.026995061 0.5691774 0.18775953 0.18452737 0.46323356 0.40043068 0.037912846 0.026574586
0.30349678 0.9782683 0.74453187 0.15297326 0.57434785 0.3891434 0.2838869 0.11096596
0.7082876 0.2432022 0.39888462 0.31943938 0.24819554 1.7016374 0.24470319 1.6954685
1.8526691 0.09568617 0.7351328 0.028543882 0.25936544 0.6217103 0.601456 0.026802683
0.004053739 0.15357816 2.9666948 0.022355977 0.26110864 0.114772744 0.34534943 0.4263968
0.11204253 0.70944846 0.840667 0.014859086 0.0443043 0.006639936 0.21016979 1.7833064
0.3754192 0.74525756 1.5432435 0.013403547 1.0064778 0.41851482 0.08273081 0.32801253
0.046444744 0.4638978 0.13929553 0.05342518 0.70286566 0.0056287497 0.54877055 0.36430916
0.18872139 0.7760706 0.20360582 0.76936877 0.0038349458 2.1488998 0.8251921 1.2372248
0.5998746 1.7145269 0.22647749 0.42594856 0.50965446 0.12648405 1.3463554 1.9255476
1.1781818 5.4666098e-06 0.27840003 0.06004979 1.2803748 0.5507986 0.14081378 0.2954246
0.123202726 0.6037279 1.7982237 0.5632862 0.31182364 0.040355034 0.050211344 0.25815743
0.2962594 0.02079197 2.4189792 0.33328447 0.24033287 0.52561295 0.024063393 0.11452101
0.019943258 0.012267667 0.62081414 0.8646645 0.066868365 0.058496386 1.3688719 1.0445547
0.42083353 0.072254665 0.21811445 0.43050137 1.0347327 0.062161773 0.075664856 0.1912409
0.21021226 0.11060289 0.25902623 0.12099333 0.8804929 1.0106113 0.106499314 0.018126888
0.26620695 0.82768774 0.94462997 1.0908334 0.09978393 0.12830362 0.60873413 1.6372529
1.2460018 0.1523614 0.10550782 0.018965816 0.96443546 0.13666715 0.7756729 0.20463358
2.7124274 0.26969272 0.020661 0.14954636 0.49723962 1.0974036 0.026976625 2.79966
0.45457664 1.0415108 0.6898755 2.6949651 0.3203297 0.2333732 0.789997 0.019135816
0.18049408 1.7356791 1.3353449 0.07206016 0.032191064 0.29166844 0.13949752 0.28153127
0.017188702 0.030894177 0.32419622 2.2956574 1.1224968 0.019909156 0.014123479 0.47310263
1.4418639 0.2854215 0.24531272 0.60640585 0.42890915 0.40698034 0.23228994 0.48501417
0.49915045 0.41133925 0.43042132 0.59522617 0.47744912 0.15090151 0.40739638 0.07412083
0.6395081 0.5496236 0.25295964 0.35613185 0.29926434 0.02212847 0.8147232 0.08820268
0.056789275 0.13732877 0.13283093 0.65021175 2.0171607 0.3634304 0.47616223 0.4850742
0.14162147 0.0659297 0.20896564 0.036487676 1.1011907 0.44693846 0.28371486 0.14584257
1.0969791 0.9798299 0.20641297 0.94069654 0.07011828 0.04238225 0.60404956 0.38629448
0.34184238 0.064693674 0.40015984 0.21616483 1.168593 0.36774573 2.214665 0.87914526
00000000: 417c 103f 69c1 d83e f778 913f 80e9 f53d
00000010: d3c4 4b3e af9f 2a3e 77ea f83d f8dd e23e
00000020: 61bc 893e 84ea 7d3f 3e28 bd3e 0621 af3f
00000030: d2c0 9f3f a8e7 273f 34e0 9c3f 8371 5f3e
00000040: 3b24 3c3e f854 1e3f 1251 a63d bee7 8e3f
00000050: b41d 233d 3587 c13d 00bb 0640 2fee e43e
00000060: bf24 dd3c 9cb5 113f 0944 403e bef4 3c3e
00000070: f32c ed3e 4005 cd3e 804a 1b3d f2b2 d93c
00000080: ee63 9b3e cb6f 7a3f a499 3e3f 06a5 1c3e
00000090: 7608 133f ce3d c73e a059 913e 1f42 e33d
000000a0: 5652 353f ff09 793e 9b3a cc3e 8f8d a33e
000000b0: f926 7e3e 41cf d93f 7993 7a3e 1d05 d93f
000000c0: 4324 ed3f 1cf7 c33d aa31 3c3f dcd4 e93c
000000d0: 8ccb 843e 6828 1f3f 05f9 193f 4d91 db3c
000000e0: 3ad5 843b 9843 1d3e 54de 3d40 e223 b73c
000000f0: 08b0 853e f90d eb3d a4d1 b03e ae50 da3e
00000100: 8e76 e53d 6a9e 353f f435 573f 8673 733c
00000110: 6d78 353d d293 d93b c036 573e 6243 e43f
00000120: f236 c03e 33c9 3e3f 0189 c53f 8d9a 5b3c
00000130: 44d4 803f 9347 d63e c56e a93d 42f1 a73e
00000140: d83c 3e3d 0384 ed3e 7da3 0e3e 5dd4 5a3d
00000150: 01ef 333f 6071 b83b 3a7c 0c3f bb86 ba3e
00000160: 2e40 413e 90ac 463f 0b7e 503e 5af5 443f
00000170: b753 7b3b 9387 0940 ca3f 533f 625d 9e3f
00000180: 6291 193f 9e75 db3f b7e9 673e ee15 da3e
00000190: b778 023f 0985 013e 6055 ac3f 5878 f63f
000001a0: a9ce 963f d26d b736 738a 8e3e c5f6 753d
000001b0: 52e3 a33f 2301 0d3f 7d31 103e e541 973e
000001c0: b651 fc3d e98d 1a3f 322c e63f 8633 103f
000001d0: 59a7 9f3e 524b 253d 69aa 4d3d 362d 843e
000001e0: 50af 973e ec53 aa3c 8ed0 1a40 43a4 aa3e
000001f0: d219 763e 928e 063f 9820 c53c fe89 ea3d
00000200: 0b60 a33c 53fe 483c aded 1e3f a75a 5d3f
00000210: 48f2 883d e899 6f3d 3237 af3f f8b3 853f
00000220: 7e77 d73e 41fa 933d 6559 5f3e ad6a dc3e
00000230: 1f72 843f 589d 7e3d 2df6 9a3d a8d4 433e
00000240: e241 573e c583 e23d 169f 843e 5acb f73d
00000250: fc67 613f b65b 813f 501c da3d d77e 943c
00000260: 474c 883e 58e3 533f 45d3 713f 6ea0 8b3f
00000270: 845b cc3d 0662 033e 00d6 1b3f 8191 d13f
00000280: fd7c 9f3f a004 1c3e 7c14 d83d 335e 9b3c
00000290: 3ee5 763f 79f2 0b3e 8092 463f 778b 513e
000002a0: 6998 2d40 2a15 8a3e 4241 a93c ae22 193e
000002b0: 3196 fe3e b977 8c3f 15fe dc3c a12d 3340
000002c0: 45be e83e 3a50 853f ae9b 303f 4f7a 2c40
000002d0: 4102 a43e 62f9 6e3e 3e3d 4a3f b7c2 9c3c
000002e0: 71d3 383e bc2a de3f 95ec aa3f 4794 933d
000002f0: c7da 033d 9155 953e 70d8 0e3e de24 903e
00000300: 52cf 8c3c c915 fd3c 0cfd a53e 0dec 1240
00000310: faad 8f3f 8718 a33c 2a66 673c 823a f23e
00000320: ff8e b83f c422 923e 4233 7b3e 6a3d 1b3f
00000330: fb99 db3e ba5f d03e 6add 6d3e c753 f83e
00000340: a690 ff3e 0f9b d23e 2f60 dc3e be60 183f
00000350: 3674 f43e ed85 1a3e 4296 d03e a9cc 973d
00000360: ceb6 233f 22b4 0c3f ed83 813e ea56 b63e
00000370: 2d39 993e c446 b53c b391 503f 9ba3 b43d
00000380: df9b 683d ea9f 0c3e d504 083e 4774 263f
00000390: 2919 0140 8d13 ba3e 89cb f33e a55b f83e
000003a0: 3805 113e 2706 873d 17fb 553e 1a74 153d
000003b0: d1f3 8c3f 1ed5 e43e 1343 913e c157 153e
000003c0: d069 8c3f 22d6 7a3f ec5d 533e 7dd1 703f
000003d0: 2c9a 8f3d 0399 2d3d fea2 1a3f 64c8 c53e
000003e0: f705 af3e 1e7e 843d c0e1 cc3e 505a 5d3e
000003f0: 7594 953f 2b49 bc3e 12bd 0d40 aa0f 613f
