weight1/checkpoint_critic_local_1.pth (torch_old, 575149 bytes, 9 tensors)

fcs1.weight f4 [400, 52]
0	0x3e088b19	0.13334312
1	0xbf1a9646	-0.6038555
2	0x3cb7de98	0.022445008
3	0x3cddcab6	0.0270742
4	0xbdca2022	-0.0986941
5	0xbf12ea8b	-0.57389134
6	0x3cd9013c	0.026489846
7	0x3cfe22dc	0.031022482
8	0x3df2d5a5	0.11857156
9	0xbeab84be	-0.33499712
10	0xbe051827	-0.12997495
11	0x3eda7d7e	0.42673868
12	0xbe268d3d	-0.16264816
13	0xbeb2f1ee	-0.34950203
14	0xbdc19115	-0.094515
15	0x3ef1362a	0.47111636
16	0x3df39bd8	0.11894959
17	0xbe346109	-0.17615141
18	0xbd691236	-0.056902133
19	0x3f016d40	0.5055733
20	0xbe3dc4f3	-0.18532161
21	0xbcb7395c	-0.022366218
22	0xbc815a64	-0.015790172
23	0x3ee2e4b6	0.44315118
24	0x3f27cd10	0.65547276
25	0xbf7abaae	-0.979411
26	0xbddc2437	-0.10749095
27	0xbd62328c	-0.055223987
28	0x3db76f4d	0.08956776
29	0xbf174201	-0.5908509
30	0xbd85053c	-0.06495139
31	0xbd3cf695	-0.046133596
32	0x3ef5e03d	0.48022643
33	0xbf6a951e	-0.91633785
34	0xbd31ff9c	-0.04345666
35	0x3e4a6496	0.19764933
36	0x3e12df7e	0.14343068
37	0xbeb70a34	-0.35749972
38	0x3cac1bb8	0.021009311
39	0x3e46c9c9	0.19412912
40	0x3eff6cca	0.49887687
41	0xbf6e192c	-0.9300716
42	0x3d47f113	0.04881389
43	0x3e2cc40c	0.16871661
44	0x3e5fa81c	0.21841472
45	0xbd1c88b6	-0.038216315
46	0x3b3cd037	0.002881063
47	0x3e16d213	0.14728574
48	0x3e9a994d	0.30195084
49	0x3e2835fa	0.1642684
50	0xbf1fc4ba	-0.62409556
51	0xbe9857e5	-0.29754558
52	0x3d4f6c9f	0.0506407
53	0x3e983cd6	0.29733914
54	0xbc199d00	-0.009375811
55	0x3d91f4b9	0.07126755
56	0xbe2b3cdc	-0.16722435
57	0xbf03a083	-0.51416796
58	0xbcb38fa2	-0.021919075
59	0x3c9be8d9	0.019031929
60	0x3dabf742	0.0839677
61	0x3e9feed6	0.31236905
62	0x3e44c470	0.1921556
63	0xbe0ebf7d	-0.13940234
64	0xbe3a7ced	-0.18211718
65	0xbeebf9ba	-0.46088964
66	0x3e198ade	0.1499438
67	0xbdc0d7d4	-0.09416166
68	0xbb8370ee	-0.004011265
69	0x3e07593a	0.13217631
70	0xbe3b7f51	-0.18310286
71	0xbdf15cfa	-0.11785312
72	0xbea7b497	-0.32754967
73	0xbe37b87e	-0.17941472
74	0xbe001b64	-0.12510449
75	0xbe2ad1dc	-0.16681617
76	0x3baa2063	0.005191849
77	0xbf3b41aa	-0.7314707
78	0x3d91aa6e	0.07112585
79	0xbe696b28	-0.22794783
80	0x3e2f1e30	0.1710136
81	0xbf189881	-0.596077
82	0x3dca50dd	0.09878705
83	0xbe0486b8	-0.12942016
84	0x3dabe398	0.083930194
85	0xbf467b8a	-0.77532256
86	0xbda2db15	-0.07951943
87	0xbf0e9a35	-0.5570405
88	0x3e396450	0.18104672
89	0xbf04771b	-0.5174424
90	0xbc6012af	-0.0136763295
91	0xbf01e0ae	-0.5073346
92	0xbca887a5	-0.020572493
93	0xbf65fb2f	-0.898364
94	0xbc9f5368	-0.01944895
95	0x3ea887d2	0.32916123
96	0x3e97c843	0.29644975
97	0xbe383c91	-0.17991854
98	0xbd023a1a	-0.03179369
99	0x3e9fc3a4	0.3120395
100	0x3e547f67	0.20751725
101	0xbede76de	-0.43450063
102	0x3f82c249	1.0215541
103	0xbf4047e4	-0.75109696
104	0x3f0864a7	0.53278583
105	0x3f03bedb	0.514631
106	0xbceb26c2	-0.028705005
107	0xbdd17674	-0.10227671
108	0xbadbcc8d	-0.0016769335
109	0xbe0038e3	-0.125217
110	0xbd182b50	-0.03715068
111	0xbe19b659	-0.15010966
112	0x3ed3aed9	0.41344336
113	0x3f191bab	0.5980784
114	0x3c3339b1	0.010939048
115	0xbdb1832e	-0.08667599
116	0x3c6ee54c	0.014581036
117	0xbec66486	-0.38748568
118	0xbd56a02d	-0.05239885
119	0xbdf9117d	-0.12161539
120	0x3efe18c7	0.4962828
121	0x3f1dc891	0.61634165
122	0x3e016a62	0.12638238
123	0x3dc487ad	0.095961906
124	0xbba5a6a9	-0.005055268
125	0xbf37e904	-0.7183993
126	0x3e075ae2	0.13218263
127	0x3e02a9cd	0.12760086
128	0xbd8ec4a5	-0.06971101
129	0x3d3ddb2f	0.046351608
130	0x3cc96b44	0.024587281
131	0xbb5e4496	-0.0033915392
132	0x3c8f2574	0.017473914
133	0xbdfb91a4	-0.12283638
134	0x3bae8d85	0.005326929
135	0xbcd7ecca	-0.026358027
136	0xbdf234b9	-0.11826462
137	0xbd98eac8	-0.07466656
138	0xbc0a5183	-0.0084422855
139	0x3d9b27b7	0.075759344
140	0xbd0a74eb	-0.033802908
141	0xbecaaaef	-0.39583537
142	0xbd2c7caf	-0.042111095
143	0x3d4b89bf	0.04969191
144	0xbddd950d	-0.10819445
145	0xbcd10f83	-0.025520092
146	0xbcbd5c0e	-0.023115184
147	0x3e321ffd	0.17395015
148	0x3ba7b3b5	0.0051178583
149	0xbf2cfa78	-0.67569685
150	0xbc826a3b	-0.015919795
151	0x3e5b3950	0.21408582
152	0x3eb12614	0.34599364
153	0xbea72381	-0.32644275
154	0xc01fc695	-2.4964955
155	0x3e89e685	0.26933685
156	0x3e992eef	0.2991862
157	0x3f0166c8	0.50547457
158	0xbb2dd071	-0.0026521946
159	0xbea51401	-0.32241824
160	0xbeb8e970	-0.361156
161	0x3c1a01f4	0.00939988
162	0x3ca7f069	0.020500379
163	0xbe8cb1ae	-0.2747931
164	0x3ccde66d	0.02513429
165	0x3e2bf850	0.16793942
166	0xbd6c2a2e	-0.057657413
167	0xbedba5c8	-0.4289992
168	0xbe337e41	-0.17528631
169	0x3e5bedf6	0.21477494
170	0x3ccd52f7	0.025063975
171	0xbef5d4e4	-0.48013985
172	0x3e44d59a	0.19222108
173	0x3db8bb8c	0.09020147
174	0xbc8894d7	-0.016672535
175	0xbe82b6d8	-0.25530124
176	0xbde6845f	-0.112557165
177	0xbdf1aecf	-0.1180092
178	0xbce9cc15	-0.028539697
179	0xbe7d6c89	-0.24748434
180	0xbe4e38ad	-0.20138808
181	0xbf45fdb3	-0.7734024
182	0x3d129abb	0.035792094
183	0x3d745f68	0.0596613
184	0x3ec9de26	0.39427298
185	0x3cec7b23	0.02886731
186	0xbca091bb	-0.01960074
187	0x3dea18e5	0.114305295
188	0xbe64cf5e	-0.2234473
189	0xbf75ad79	-0.95967823
190	0x3d590221	0.052980546
191	0x3c91c615	0.017794648
192	0x3e50f3ed	0.2040555
193	0x3e584b71	0.21122529
194	0x3c7770a8	0.015102543
195	0x3ca02703	0.019549852
196	0xbeac7ce9	-0.3368905
197	0xbf6dba9b	-0.9286286
198	0xb8fb5464	-0.00011984332
199	0x3ea18a5e	0.31550878
200	0x3df99fb7	0.12188666
201	0xbe124e53	-0.14287691
202	0xbce562b9	-0.028001176
203	0x3ea9dfa4	0.33178437
204	0x3feeaa4e	1.8645723
205	0x3e4ea440	0.20179844
206	0xbf98d812	-1.194094
207	0x3f40b500	0.75276184
208	0xbd42e9e4	-0.047586337
209	0xbe47e919	-0.19522513
210	0xbe3671f2	-0.17816904
211	0xbe66bdda	-0.2253336
212	0x3d4060ac	0.046967193
213	0xbce4359e	-0.027857598
214	0xbe16c542	-0.14723685
215	0xbe806bc2	-0.25082213
216	0x3a3b385e	0.0007141883
217	0xbe76cb19	-0.24100913
218	0xbdea910f	-0.11453449
219	0x3d428172	0.04748673
220	0xbb953444	-0.0045533497
221	0x3e07b695	0.13253243
222	0xbe123cce	-0.14281008
223	0x3c9abfb2	0.018890236
224	0x3e0f47b4	0.13992196
225	0xbe28791b	-0.16452448
226	0x3aef6cf5	0.0018266725
227	0x3e0048bd	0.12527747
228	0x3dab84c4	0.083749324
229	0x3e007d25	0.12547739
230	0xbd6c68f5	-0.057717282
231	0x3e377903	0.17917256
232	0x3de377ac	0.1110681
233	0x3ee7a475	0.45242658
234	0xbe1c594e	-0.15268442
235	0x3e2c55c5	0.16829593
236	0xbda7ce30	-0.08193624
237	0xbcfb29c2	-0.03065956
238	0xbdf2c03f	-0.11853074
239	0x3dfc2971	0.12312592
240	0x3d717b17	0.05895528
241	0x3ec8b90f	0.39203689
242	0xbe6b362b	-0.22969882
243	0x3b558976	0.0032583154
244	0xbb0ce738	-0.0021500122
245	0x3df05ac2	0.11736061
246	0xbe295eda	-0.16540089
247	0xbc4559bf	-0.012045323
248	0xbcb62b49	-0.022237437
249	0x3f05af25	0.52220374
250	0xbe4b449d	-0.19850393
251	0x3e3cd5da	0.18440953
252	0xbd91cf60	-0.07119632
253	0x3e0b2bf3	0.13590984
254	0xbe68753d	-0.22700973
255	0x3e471319	0.19440879

fcs1.bias f4 [400]
0	0xbed3e6c3	-0.41386995
1	0xbdb51468	-0.08841783
2	0xbe833266	-0.25624388
3	0xbb6cad20	-0.0036113933
4	0xbe14587d	-0.1448688
5	0xbc40dd8f	-0.011771574
6	0xbd95fed2	-0.07323994
7	0xbc3fedc9	-0.011714407
8	0x3da0d26b	0.07852634
9	0xbeefd3c3	-0.4684125
10	0xbe47124f	-0.19440578
11	0xbe2b3812	-0.16720608
12	0xbeacd368	-0.3375504
13	0xbe6c342f	-0.23066781
14	0xbd3246a6	-0.043524407
15	0xbeba15ec	-0.3634485
16	0xbe06df2e	-0.13171074
17	0xbeb9bb06	-0.362755
18	0xbdb15ce8	-0.086602986
19	0xbf07b7c6	-0.5301479
20	0xbdbb6058	-0.091492355
21	0xbe5696cf	-0.20955966
22	0xbdc01e85	-0.09380821
23	0xbe443c00	-0.19163513
24	0xbe950cbf	-0.29111287
25	0xbe8f76ca	-0.28020316
26	0x3d415f87	0.047210243
27	0xbe9d0c9d	-0.30673686
28	0xbf2ff201	-0.68728644
29	0xbe06b184	-0.13153654
30	0xbeda53f9	-0.4264219
31	0x3e0286fd	0.12746806
32	0xbe57f6d5	-0.21090253
33	0xbe7ccc15	-0.24687226
34	0xbdd0157b	-0.10160347
35	0xbc8f7be4	-0.01751513
36	0x397f713d	0.0002436088
37	0x3d831138	0.063997686
38	0xbe25612d	-0.16150351
39	0xbd774da4	-0.06037678
40	0xbcdfae97	-0.02730493
41	0xbf6a902b	-0.9162623
42	0xbd85f290	-0.06540406
43	0xbdad6fa5	-0.0846856
44	0xbe94261e	-0.2893533
45	0x3da766bd	0.08173893
46	0xbf551080	-0.832283
47	0x3db516c2	0.08842231
48	0xbef53272	-0.4789005
49	0x3e3100c5	0.1728545
50	0xbe83e9eb	-0.25764403
51	0x3c912817	0.017719312
52	0xbc04a970	-0.008097038
53	0x3cdd7a1f	0.027035771
54	0xbebf64ae	-0.373815
55	0xbe83faec	-0.25777376
56	0xbe335b1e	-0.17515227
57	0xbea0dfe2	-0.3142081
58	0xbd21b7d1	-0.03948194
59	0x3d1f7fbd	0.03894018
60	0xbeb2468d	-0.3481945
61	0x3db67c46	0.08910422
62	0xbed44e36	-0.4146592
63	0x3c4abfb8	0.012374811
64	0xbe35007e	-0.17675969
65	0xbf0bf8d0	-0.5467653
66	0xbea6cd4a	-0.32578498
67	0xbd9afd2d	-0.07567821
68	0xbda792e9	-0.08182318
69	0xbd094d64	-0.03352107
70	0xbf2796f5	-0.6546472
71	0xbeb79bd7	-0.35861084
72	0xbdc2fbc9	-0.095206805
73	0xbe045f72	-0.12927034
74	0xbe8542ac	-0.2602743
75	0xbe136151	-0.14392592
76	0xbf0e9b16	-0.5570539
77	0xbdac8f1c	-0.084257334
78	0xbeb4cc30	-0.35312033
79	0xbe24308d	-0.16034146
80	0xbe3b7939	-0.18307962
81	0xbdb7da4d	-0.089771844
82	0x3c3fb05f	0.011699765
83	0xbe1dff3d	-0.15429397
84	0xbe6616b4	-0.22469598
85	0xbe29c3a7	-0.16578542
86	0xbe9eea5e	-0.31038183
87	0xbea81947	-0.32831785
88	0xbef02a81	-0.46907428
89	0x3e164de7	0.14678155
90	0xbe12c6b5	-0.14333613
91	0x3c7be381	0.015374065
92	0xbef83371	-0.48476747
93	0xbf2e6c8d	-0.68134385
94	0xbebaa401	-0.3645325
95	0xbedcc248	-0.43116975
96	0xbd1162f2	-0.035494752
97	0x3deefae7	0.116689496
98	0xbe2f6c36	-0.17131123
99	0xbdb1cf38	-0.08682102
100	0xbd8d16d5	-0.068891205
101	0xbf1d6b9d	-0.6149233
102	0xbe5f22d1	-0.21790625
103	0x3d5b6630	0.05356425
104	0xbef024a2	-0.4690295
105	0xbdc22ff5	-0.09481803
106	0xbf6bbb36	-0.92082536
107	0xbf16dcec	-0.5893085
108	0xbec31bb4	-0.38107073
109	0xbf3be8f5	-0.7340234
110	0x3db79c14	0.089653164
111	0x3d36e36d	0.044650484
112	0x3e026f3b	0.12737744
113	0xbe9e98e9	-0.30976036
114	0xbe4cc6e7	-0.1999775
115	0xbdbfb76c	-0.09361157
116	0xbd9f6f5e	-0.077849135
117	0x3d205ace	0.039149098
118	0xbeab40cb	-0.3344787
119	0xbc32a328	-0.010903157
120	0x3e241355	0.16023
121	0xbe4fe478	-0.20301998
122	0x3d1dc912	0.038521834
123	0xbef4307d	-0.47693244
124	0xbeb16c81	-0.34653094
125	0xbf2a15dc	-0.66439605
126	0xbea81f26	-0.32836264
127	0x3c81d9a4	0.01585085
128	0xbede329e	-0.43397993
129	0xbe037d6b	-0.12840812
130	0xbe6d670d	-0.23183842
131	0x3b8e227b	0.0043376065
132	0x3dba3a34	0.090931326
133	0xbe94b61f	-0.29045197
134	0xbd740891	-0.059578482
135	0xbede0124	-0.43360245
136	0xbe92b639	-0.2865465
137	0x3ca49b16	0.020093482
138	0xbd919fd6	-0.071105644
139	0xbe94b499	-0.29044035
140	0xbd62e682	-0.05539561
141	0xbca30c15	-0.019903222
142	0xbe82b41d	-0.2552804
143	0xbeaf20f3	-0.34204826
144	0xbeb63a62	-0.35591418
145	0x3d4ff487	0.05077031
146	0xbf0e7d52	-0.55659974
147	0xbe35b401	-0.17744447
148	0xbc2a7c76	-0.01040565
149	0xbecb0f92	-0.39660317
150	0xbdefbed4	-0.117063195
151	0xbe88d1c8	-0.2672255
152	0xbe6aa751	-0.22915389
153	0xbdae8638	-0.08521694
154	0xbf23bb54	-0.63957715
155	0xbe47f9a6	-0.19528827
156	0xbc94145c	-0.018076114
157	0xbd603aa3	-0.05474342
158	0xbc5c6b52	-0.0134533215
159	0xbe96f295	-0.2948195
160	0xbedb8c63	-0.42880544
161	0xbd11239e	-0.035434358
162	0x3d122ddd	0.03568827
163	0xbe15ac8e	-0.14616606
164	0xbead0841	-0.3379536
165	0xbdf79e79	-0.12090773
166	0xbebd0593	-0.36918315
167	0xbe84dd64	-0.25950158
168	0xbe92578f	-0.28582427
169	0xbe27cc31	-0.16386487
170	0xbe837d4c	-0.2568153
171	0xbe0a4ee1	-0.13506652
172	0xbebf43cd	-0.37356415
173	0xbe13b3d9	-0.14424075
174	0xbee7535d	-0.4518079
175	0xbe7f5aa4	-0.2493692
176	0xbe884599	-0.266156
177	0xbe49f6a8	-0.19722998
178	0x3deb49a8	0.11488658
179	0x3e174cbe	0.14775369
180	0xbe6ba62a	-0.23012605
181	0xbdb2fe78	-0.08739942
182	0xbea199cd	-0.31562653
183	0xbe2b1d9a	-0.16710511
184	0x3d107dc2	0.035276182
185	0x3e8d2198	0.27564692
186	0x3ddc5733	0.107588194
187	0xbf440ff3	-0.76586837
188	0xbed396a6	-0.41325873
189	0x3e62b889	0.22140707
190	0x3d19ea77	0.03757712
191	0xbe5946a1	-0.21218349
192	0xbe7095a0	-0.23494577
193	0xbd83d0ed	-0.06436334
194	0xbea92244	-0.33033955
195	0xbe38a96a	-0.18033376
196	0xbf3ab8d5	-0.7293828
197	0xbf2e150e	-0.68000877
198	0xbe767415	-0.2406772
199	0xbe83945b	-0.25699124
200	0xbcac8bd0	-0.021062762
201	0xbebe1323	-0.37123975
202	0xbe06ab0e	-0.1315119
203	0xbead74e3	-0.3387824
204	0x3e2dc45a	0.16969433
205	0xbe763653	-0.2404416
206	0xbd57cf2b	-0.052687805
207	0xbe58edce	-0.21184465
208	0x3e4db2cc	0.20087737
209	0xbea420b5	-0.32056203
210	0x3d841122	0.0644858
211	0xbef8a43b	-0.48562798
212	0xbe935913	-0.28778896
213	0xbe297e1f	-0.16552018
214	0xbed84755	-0.42241922
215	0xbd154aac	-0.036448166
216	0x3df09a5e	0.11748193
217	0x3e666918	0.22501028
218	0x3c3a96f2	0.011388527
219	0xbece02ad	-0.40236416
220	0xbc281859	-0.010259711
221	0xbf24b4ce	-0.64338386
222	0xbe0542ea	-0.13013807
223	0xbd8b9062	-0.06814648
224	0xbdbb7be3	-0.09154489
225	0xbe166f9e	-0.14691016
226	0xbd45090e	-0.04810434
227	0xbe8aa54f	-0.27079245
228	0xbe1d8573	-0.15382938
229	0xbedde21a	-0.43336564
230	0x3e6c5e51	0.23082854
231	0xbe48fbc1	-0.19627286
232	0xbf00130d	-0.5002907
233	0xbea81db8	-0.32835174
234	0xbd6cc2ec	-0.05780308
235	0x3dddc46d	0.10828481
236	0xbdc47cb1	-0.095940955
237	0xbf436646	-0.7632793
238	0xbd62128f	-0.05519348
239	0xbe4ef31f	-0.20209931
240	0xbd330251	-0.04370338
241	0xbf17b380	-0.5925827
242	0x3e700134	0.23437959
243	0xbe6ff115	-0.23431809
244	0xbd177cac	-0.03698413
245	0x3e25fb6b	0.1620919
246	0xbe352311	-0.17689158
247	0xbe048a96	-0.12943491
248	0x3e634d29	0.22197403
249	0xbd68fb55	-0.056880314
250	0x3e012584	0.12611967
251	0xbec69b3a	-0.38790303
252	0xbeb4ae61	-0.3528929
253	0xbe9d89f0	-0.307693
254	0x3e1cd288	0.15314686
255	0xbd9886d1	-0.07447589

fc2.weight f4 [300, 400]
0	0xbc77b15a	-0.0151179675
1	0xbcce4253	-0.02517811
2	0xbb931c20	-0.0044894367
3	0xbd2114be	-0.039326422
4	0xbcd5cba5	-0.026098082
5	0x3d1bfa8c	0.038080737
6	0x3d1e3a6c	0.038629934
7	0xbd4b04fa	-0.049565293
8	0xba2317d0	-0.0006221505
9	0x3db4de08	0.088314116
10	0x3d6e580a	0.05818943
11	0xbc1ca766	-0.009561395
12	0xbd2a557e	-0.041585438
13	0x3c162a57	0.009165368
14	0xbc84acd8	-0.0161957
15	0xbcee3ad2	-0.029080782
16	0xbcf96adf	-0.030446468
17	0xbc61ba61	-0.013777346
18	0x3cad988b	0.021190902
19	0xbba2f2b9	-0.0049727825
20	0xbe079a63	-0.13242488
21	0xbdac8104	-0.08423045
22	0x3d3194a0	0.04335463
23	0x3d074311	0.033022944
24	0xbc9b1a16	-0.018933337
25	0xbcaa642f	-0.020799724
26	0xbd07d941	-0.033166174
27	0x3d407da6	0.046994828
28	0xbd05e931	-0.03269309
29	0xbd5def09	-0.05418304
30	0xbd5e9b9f	-0.05434763
31	0x3acf604f	0.0015821549
32	0x3b704bcb	0.003666627
33	0xbd23ae64	-0.039961234
34	0xbd08a4ae	-0.033360176
35	0xbd45663b	-0.048193198
36	0xbce7b40b	-0.028284093
37	0xbc4a3464	-0.012341592
38	0xbd4a36b3	-0.04936857
39	0xbd1a918a	-0.037736453
40	0x3c547d09	0.012969264
41	0xbcaf66bc	-0.021411292
42	0x3ba85245	0.0051367604
43	0xbc9f94d9	-0.019480156
44	0xbd67878b	-0.05652575
45	0xbc085ec9	-0.00832338
46	0x3cac5dd0	0.021040827
47	0xbd583310	-0.052783072
48	0x3d085212	0.033281393
49	0x3c846e77	0.016165955
50	0x3b828e35	0.0039842376
51	0xbd23947b	-0.039936524
52	0xbd0bc1b8	-0.03412029
53	0x3d07c222	0.033144124
54	0x3d63f2f8	0.055651635
55	0xbd6256dc	-0.055258617
56	0xbd495ae0	-0.04915893
57	0x3c7f79fa	0.015593046
58	0x3cee5988	0.029095426
59	0xbdb40144	-0.08789304
60	0x3d3f1f07	0.04666045
61	0xbcf12ec2	-0.029441241
62	0xbd339b4b	-0.04384927
63	0xbc1a801e	-0.00942996
64	0xbd33eb34	-0.04392548
65	0x3c935424	0.017984457
66	0xbb2b7589	-0.0026162586
67	0x3d2123f3	0.039340924
68	0x3bd0097e	0.006348788
69	0xbcc8168d	-0.024424816
70	0xbd3bea89	-0.045877967
71	0x3d7e4ab2	0.062082954
72	0xbd5d8e52	-0.054090805
73	0x3d57a6d6	0.05264934
74	0xbd6ebd87	-0.058286216
75	0xbd31b7ca	-0.043388166
76	0xbcdaa6d9	-0.026690887
77	0xbda63333	-0.08115234
78	0x3d5a4112	0.053284712
79	0xbd023218	-0.031786054
80	0x3cb8ce14	0.022559203
81	0xbafa1f72	-0.0019082858
82	0x3b48cb0c	0.0030638603
83	0xbd7e4b31	-0.062083427
84	0xbca9e358	-0.020738289
85	0x3c736b4b	0.014857124
86	0x3c87ba0b	0.016568204
87	0xbd8c16eb	-0.06840309
88	0x3d721f2c	0.05911176
89	0x3c993bea	0.018705327
90	0x3c911e3a	0.017714608
91	0x3d838283	0.064213775
92	0x3cb58b20	0.022161067
93	0xbd1c92e4	-0.038226023
94	0x3cc284a8	0.023744896
95	0xb998edad	-0.00029168781
96	0x3d0693ac	0.032855675
97	0xbb561d2d	-0.0032671199
98	0x3d1a0264	0.037599936
99	0xbd114494	-0.03546579
100	0xbd1f8c83	-0.03895236
101	0xbaf1d145	-0.0018449208
102	0xbb333a8a	-0.0027348124
103	0x3be600c2	0.0070191333
104	0x3d8a1d47	0.067438655
105	0x3cbe2446	0.023210656
106	0xbc25798a	-0.010099778
107	0x3b2c5a1d	0.002629883
108	0x3ce40bb4	0.027837612
109	0xbd8c01a8	-0.068362534
110	0xbbb29e66	-0.0054510115
111	0x3cb87918	0.02251868
112	0xbd499ecc	-0.049223706
113	0xbe138c81	-0.14409067
114	0xbca338a0	-0.019924462
115	0xbd8c4dc3	-0.06850769
116	0xbcad4132	-0.021149252
117	0xb8de3f7d	-0.000105976105
118	0xbd62ba65	-0.05535354
119	0x3d9ce51d	0.076608874
120	0xbdb53f14	-0.08849922
121	0xbd62edb4	-0.055402473
122	0x3d77dd30	0.060513675
123	0xbcda3652	-0.02663723
124	0x3ce802b9	0.02832161
125	0xbd11259e	-0.035436265
126	0xbda90ab2	-0.08253993
127	0xbd11722b	-0.03550927
128	0x3cb1cfb4	0.021705486
129	0xbd4279cd	-0.04747944
130	0x3ce5cfec	0.028053246
131	0x3c1710f9	0.009220355
132	0xbca1a685	-0.019732723
133	0x3d6a9442	0.057270296
134	0xbd231e76	-0.03982397
135	0x3b1a3701	0.002353132
136	0x3d08054e	0.033208184
137	0xbcc95d75	-0.024580697
138	0x3ceba60c	0.0287657
139	0xbcc0c681	-0.023532154
140	0xbd253bbc	-0.04034017
141	0x3d3ae5eb	0.045629423
142	0xbd5e02dc	-0.054201946
143	0xbc4b60cc	-0.012413215
144	0xbcfe2b5c	-0.031026535
145	0x3cd3a3f6	0.025835019
146	0x3cd48920	0.025944293
147	0xbcc1e40b	-0.02366831
148	0x3c93c54a	0.01803841
149	0xbc62d8ea	-0.013845662
150	0x3d39764e	0.04527884
151	0xbe48605a	-0.19568005
152	0xbce58fd7	-0.02802269
153	0x3d213dab	0.03936545
154	0xbbe4568d	-0.0069683255
155	0x3d318a42	0.043344744
156	0xbd122d8e	-0.035687976
157	0x3c3936f3	0.011304605
158	0x3c0fc334	0.008774567
159	0x3d0a0226	0.033693455
160	0x3c80221a	0.01564126
161	0xbd0eb543	-0.034840833
162	0x3d20f0de	0.03929221
163	0x3c24f7df	0.010068863
164	0x3c2fc1b9	0.010727339
165	0x3cde3481	0.027124645
166	0xbce4677c	-0.027881376
167	0xbd23503c	-0.03987144
168	0xbd22aeb9	-0.03971741
169	0xbd600ce6	-0.0546998
170	0x3cb0f596	0.02160148
171	0x3c82434f	0.015901236
172	0x3bde015a	0.0067750635
173	0x3b255445	0.002522723
174	0xbccd0efe	-0.025031563
175	0x3d9403dc	0.072272986
176	0xbc8c7cd8	-0.017149374
177	0x3bd736e0	0.006567821
178	0xbc1db09e	-0.009624628
179	0x3c462d1b	0.012095715
180	0xbcbef87c	-0.023311846
181	0x3c0b5941	0.0085051665
182	0x3c59e2ac	0.013298672
183	0x3d901711	0.070356496
184	0xbcc415ce	-0.023936179
185	0xbc5c003e	-0.013427792
186	0x3c97a193	0.018509662
187	0x3c79deab	0.015250842
188	0x3d33c861	0.043892268
189	0x3d814b52	0.06313194
190	0x3c25f3ba	0.01012891
191	0xbce121b2	-0.027481887
192	0xbb32e0fc	-0.0027294746
193	0x3d2e74c9	0.042591844
194	0xbd377564	-0.044789687
195	0xbce0bfcc	-0.027435206
196	0xbc8d81dd	-0.017273838
197	0xbd0da144	-0.034577623
198	0xbd5a22d4	-0.05325587
199	0xbd6f0d4a	-0.058362283
200	0xbcfc7a8d	-0.030820156
201	0xbda75f8e	-0.081725225
202	0x3be2ef89	0.0069255275
203	0xbcf4b13c	-0.029869668
204	0xbd359e03	-0.044340145
205	0xbd463b0f	-0.048396166
206	0xbd11b45d	-0.0355724
207	0xbc54b349	-0.012982198
208	0xbd258ac5	-0.040415544
209	0xbcbd62a3	-0.023118323
210	0xbccb104c	-0.024788044
211	0xbd2e459b	-0.04254685
212	0xbb67e5ee	-0.0035384852
213	0x3b40cc5e	0.0029418687
214	0xbcd14e0e	-0.025549915
215	0x3d760f31	0.06007308
216	0xbcc1a50a	-0.023638267
217	0xbc94e717	-0.018176598
218	0xbd6c7caf	-0.057736095
219	0x3c92dc69	0.017927365
220	0x3d53f74a	0.051749505
221	0xbca8ad04	-0.020590313
222	0xbd1c410d	-0.038147975
223	0xbcf609f3	-0.030034041
224	0x3c6d8851	0.014497832
225	0x3deb5321	0.11490465
226	0xbcb64cb4	-0.022253372
227	0x3d6d2625	0.057897706
228	0xbd255497	-0.040363874
229	0x3c603ce9	0.013686397
230	0x3d3dc48f	0.04633003
231	0xbdc34482	-0.09534551
232	0xbb932001	-0.004489899
233	0xbcb573e8	-0.022149995
234	0x3d9f781a	0.077865794
235	0x3d0b953a	0.03407786
236	0xbd130d5c	-0.035901412
237	0xbd82212e	-0.06353985
238	0x3c18c7b5	0.009324958
239	0xbb7e5498	-0.0038807746
240	0x3d68215b	0.056672435
241	0xbbbc5cc4	-0.005748363
242	0xbd8a52cd	-0.06754074
243	0xba781975	-0.00094642426
244	0xbd5d8a5f	-0.05408704
245	0xbc933094	-0.0179675
246	0xbdb61238	-0.08890194
247	0x3c331ed7	0.010932646
248	0x3e005c92	0.12535313
249	0xbc48ed59	-0.012263619
250	0xbc82b384	-0.01595474
251	0xbd8977cc	-0.067123026
252	0x39b46286	0.0003440568
253	0x3a725445	0.00092441245
254	0x3c3f11a1	0.011661918
255	0xbdc59852	-0.096481934

fc2.bias f4 [300]
0	0xbdae71e5	-0.085178174
1	0xbddf92c5	-0.10916666
2	0xbd5395ce	-0.051656537
3	0xbdf9a6eb	-0.1219004
4	0xbdbdc960	-0.09266925
5	0xbd8b0e7c	-0.06789872
6	0xbe0847bb	-0.13308613
7	0xbd7cef99	-0.061751936
8	0xbcce36e3	-0.025172656
9	0xbdb3af7b	-0.087737046
10	0xbe1527ca	-0.1456596
11	0xbb30b635	-0.0026964073
12	0xbddbf6cd	-0.10740433
13	0xbd489667	-0.04897156
14	0xbdf1a2b9	-0.11798615
15	0xbd410d3d	-0.047131766
16	0x3c6c8db8	0.014438085
17	0xbde88b8d	-0.11354742
18	0xbd4009bf	-0.046884295
19	0xbd517c7d	-0.051144112
20	0xbd475cf3	-0.048672628
21	0xbe1e0e95	-0.1543525
22	0xbe0f3b84	-0.13987547
23	0xbe4b8804	-0.19876105
24	0xbdf339c1	-0.1187625
25	0xbddf56fc	-0.10905263
26	0xbe62a1e1	-0.22132064
27	0xbd94db34	-0.07268372
28	0xbe189971	-0.14902283
29	0xbe1c45e5	-0.15261038
30	0xbdd2b264	-0.102879316
31	0xbe07953c	-0.13240522
32	0xbdc55074	-0.09634486
33	0xbd75a6dd	-0.059973586
34	0xbd501d45	-0.050809164
35	0xbe02d447	-0.1277629
36	0xbdd2fe49	-0.10302407
37	0xbd946b7c	-0.072470635
38	0xbde2c24f	-0.11072218
39	0xbdc52467	-0.09626084
40	0xbe11146d	-0.14167948
41	0xbd8e952e	-0.069620475
42	0xbdc5aae2	-0.09651734
43	0xbdb83496	-0.08994405
44	0xbe0b8ec3	-0.13628678
45	0xbe9b20bb	-0.3029841
46	0xbe49583d	-0.19662566
47	0xbd8294ea	-0.06376059
48	0xbdbb637d	-0.09149835
49	0xbda79fcd	-0.081847765
50	0xbe1021a8	-0.14075339
51	0xbe318ba4	-0.17338425
52	0xbe0999a7	-0.1343752
53	0xbe2709ee	-0.16312382
54	0xbd7d742b	-0.061878365
55	0xbd8b4566	-0.06800346
56	0xbdb6b3a5	-0.08920983
57	0xbe1ca1ef	-0.15296148
58	0xbdc40f43	-0.095732234
59	0xbe48e236	-0.19617543
60	0xbd73e8c0	-0.05954814
61	0xbe1fdd47	-0.15611754
62	0xbe288f05	-0.16460808
63	0xbe23ed61	-0.16008522
64	0xbda9c30d	-0.08289156
65	0xbdbed2b4	-0.09317532
66	0xbe16272a	-0.14663377
67	0xbdc14aac	-0.09438071
68	0xbe281239	-0.16413201
69	0xbdaae51e	-0.08344482
70	0xbd592150	-0.053010285
71	0xbdacb65c	-0.0843322
72	0xbdfa16d8	-0.12211388
73	0xbe372cc7	-0.17888175
74	0xbd4eff21	-0.05053628
75	0xbd0f6c30	-0.035015285
76	0xbdb35478	-0.087563455
77	0xbe504ea7	-0.20342503
78	0xbde07d2f	-0.10961377
79	0xbb830e1c	-0.0039994847
80	0xbdde7d06	-0.1086369
81	0xbd023f6f	-0.031798776
82	0xbe29631b	-0.16541712
83	0xbd96b556	-0.07358806
84	0xbd825586	-0.063639686
85	0xbd4b58bc	-0.04964517
86	0xbd215c45	-0.039394636
87	0xbd7e15c0	-0.06203246
88	0xbe1090b9	-0.14117707
89	0xbda37cfc	-0.07982823
90	0xbdab3f85	-0.08361725
91	0xbde81b5a	-0.11333342
92	0xbcdd499f	-0.027012644
93	0xbe3c4311	-0.18384959
94	0xbe0019de	-0.12509868
95	0xbc8a58f1	-0.016888114
96	0xbcbc352e	-0.022974577
97	0xbe082dd2	-0.13298729
98	0xbd87af26	-0.06625204
99	0xbe014475	-0.1262377
100	0xbe0e2b99	-0.13883819
101	0xbd8e0153	-0.06933846
102	0xbe50f082	-0.20404246
103	0xbe8d194f	-0.2755837
104	0xbe58593a	-0.21127787
105	0xbddffd2d	-0.10936961
106	0xbdeaa9ce	-0.11458169
107	0xbd7b7b73	-0.061397027
108	0xbdf62cc9	-0.12020261
109	0xbe1a16e4	-0.15047795
110	0xbdc259c4	-0.09489778
111	0xbdba449c	-0.090951174
112	0xbcee9863	-0.029125398
113	0xbe1fefc8	-0.15618813
114	0xbe526241	-0.20545293
115	0xbd43c557	-0.04779562
116	0xbe1f1b8c	-0.15537852
117	0xbe0bad62	-0.13640359
118	0xbdff4432	-0.12464179
119	0xbdc43727	-0.09580832
120	0xbdf20d3a	-0.11818929
121	0xbda155c2	-0.07877685
122	0xbdd3938f	-0.10330879
123	0xbdfc2572	-0.123118296
124	0xbdc67651	-0.09690536
125	0xbddc8d5a	-0.10769148
126	0xbd7146ba	-0.05890534
127	0xbdd4a2d3	-0.10382619
128	0xbdbadec5	-0.09124521
129	0xbe243de5	-0.16039236
130	0xbe3db97b	-0.18527786
131	0xbd2d5c8a	-0.04232458
132	0xbe441c2e	-0.19151375
133	0xbda2834d	-0.079352
134	0xbdb41e8c	-0.08794889
135	0xbda35dbc	-0.07976863
136	0xbda2ee0c	-0.0795556
137	0xbe141a41	-0.1446314
138	0xbd8c8193	-0.06860652
139	0xbe036ab9	-0.1283368
140	0xbe05973e	-0.13045976
141	0xbded2895	-0.11580006
142	0xbdc2404e	-0.094849214
143	0xbde6a8f2	-0.112626925
144	0xbdd0b234	-0.101902395
145	0xbdba8d50	-0.091089845
146	0xbdace0f9	-0.08441348
147	0xbdfbe17e	-0.122988686
148	0xbde29585	-0.11063675
149	0xbe563061	-0.20916893
150	0xbe08315f	-0.13300084
151	0xbcccc52d	-0.024996364
152	0xbe466f7c	-0.19378465
153	0xbe1e4704	-0.15456778
154	0xbe274bc8	-0.16337502
155	0xbd9ee716	-0.0775892
156	0xbdb6bdd6	-0.08922927
157	0xbe16a196	-0.14710078
158	0xbdb2a652	-0.08723129
159	0xbdfbcfd0	-0.122954965
160	0xbd365620	-0.04451573
161	0xbdc4667d	-0.095898606
162	0xbe7ef2f7	-0.24897371
163	0xbe0b5405	-0.1360627
164	0xbe262c1b	-0.16227762
165	0xbd279986	-0.040917896
166	0xbe0b80e8	-0.13623393
167	0xbdcde8d4	-0.10054174
168	0xbd296117	-0.041352358
169	0xbe150948	-0.14554322
170	0xbda08fd3	-0.07839932
171	0xbdc0b06b	-0.09408649
172	0xbe2316c0	-0.15926647
173	0xbe2daa18	-0.16959417
174	0xbe5a0204	-0.21289831
175	0xbc3476c2	-0.011014642
176	0xbdbe5591	-0.09293664
177	0xbe37ec76	-0.17961296
178	0xbdf797f3	-0.12089529
179	0xbdf5e69a	-0.120068744
180	0xbd536762	-0.051612265
181	0xbdaf9a6c	-0.085743755
182	0xbe3dd300	-0.18537521
183	0xbe22b07d	-0.15887637
184	0xbe25464e	-0.161401
185	0xbde2e1bb	-0.11078211
186	0xbdf40687	-0.119153075
187	0x3c379887	0.011205799
188	0xbd5f52db	-0.054522377
189	0xbd11053b	-0.03540538
190	0xbd9fe251	-0.07806838
191	0xbe14b190	-0.1452086
192	0xbe1101c0	-0.14160824
193	0xbd60b4f2	-0.054860063
194	0xbde79b61	-0.11308933
195	0xbe24a517	-0.16078602
196	0xbdb75c67	-0.08953171
197	0xbe49661c	-0.19667858
198	0xbe2849a2	-0.16434339
199	0xbd63db6e	-0.055629186
200	0xbd5b5115	-0.053544123
201	0xbd5c31a1	-0.053758267
202	0xbde3806e	-0.111084804
203	0xbde2b24a	-0.11069162
204	0xbe27491c	-0.16336483
205	0xbe0da935	-0.13834079
206	0xbe1f9870	-0.15585494
207	0xbe21058a	-0.15724769
208	0xbdfbb522	-0.12290408
209	0xbe405eb5	-0.18786128
210	0xbdc88c7c	-0.0979242
211	0xbe215bfe	-0.15757748
212	0xbd525f97	-0.051360693
213	0xbdb4425c	-0.088017195
214	0xbdd0bdbc	-0.10192439
215	0xbdd28781	-0.102797516
216	0xbe52d878	-0.20590389
217	0xbe275248	-0.16339982
218	0xbcd6418e	-0.026154306
219	0xbdadc545	-0.08484892
220	0xbd840b5c	-0.06447479
221	0xbd864259	-0.065556236
222	0xbdd514fc	-0.10404393
223	0xbd8ce938	-0.068804204
224	0xbe1b5ca8	-0.15172064
225	0xbe050cf2	-0.1299322
226	0xbdedfb4b	-0.11620196
227	0xbe123283	-0.14277081
228	0xbe52721d	-0.20551343
229	0xbce39501	-0.027781012
230	0xbd72908e	-0.05921989
231	0xbe0d2a65	-0.13785703
232	0xbd9cdc16	-0.076591656
233	0xbda32c3d	-0.07967422
234	0xbe0281c9	-0.12744822
235	0xbe2034b9	-0.15645112
236	0xbde22b67	-0.110434346
237	0xbe693846	-0.22775373
238	0xbd2f6ba3	-0.04282726
239	0xbe321d03	-0.1739388
240	0xbde25d34	-0.11052933
241	0xbe0790e1	-0.1323886
242	0xbdd8691d	-0.10566924
243	0xbe11e82a	-0.1424872
244	0xbd825ee8	-0.06365758
245	0xbda5afc9	-0.08090169
246	0xbdf4c02a	-0.11950715
247	0xbdf148c0	-0.11781454
248	0xbe01a165	-0.12659223
249	0xbd75662f	-0.059911903
250	0xbe0ac99c	-0.1355347
251	0xbd3facd9	-0.0467957
252	0xbdceb3b6	-0.10092871
253	0xbd49b311	-0.049243037
254	0xbe328aec	-0.17435807
255	0xbd4b262b	-0.049596947

fc3.weight f4 [1, 300]
0	0xbc67be85	-0.0141445445
1	0xbc871d37	-0.016493423
2	0xbc781e1e	-0.015143899
3	0xbcd13977	-0.025540097
4	0x3b17e722	0.0023178537
5	0xbcb66017	-0.022262616
6	0x3ce94aa2	0.02847797
7	0xbc53334c	-0.012890648
8	0x3d40f3f4	0.04710765
9	0x3c615960	0.013754219
10	0x3bd87bd4	0.0066065583
11	0xbd162064	-0.036651984
12	0x3cccf0b6	0.025017124
13	0x3b39d30a	0.002835455
14	0xbc56f1da	-0.013119185
15	0x3b280e22	0.002564319
16	0xbc84d46a	-0.016214568
17	0xbcfb509f	-0.030678092
18	0xbbc2ab61	-0.00594084
19	0xbc821ea3	-0.01588375
20	0xbcf12f51	-0.029441508
21	0xbc6d5d4d	-0.014487577
22	0x3ad6f0a4	0.0016398621
23	0xbd44dfc5	-0.048064966
24	0x3cb6d21a	0.022316981
25	0xbc370b40	-0.011172116
26	0x39c5b099	0.00037706344
27	0x3c823f3b	0.015899291
28	0x3abc9b5c	0.0014389562
29	0xbcdd0adf	-0.026982723
30	0x3b0fc47c	0.0021937182
31	0x3c4780d8	0.012176715
32	0x3c5c4787	0.013444788
33	0xba81c913	-0.0009901844
34	0xbb1608c4	-0.0022893408
35	0xbc270ad4	-0.010195453
36	0xbc45b49d	-0.012066987
37	0x3c40d18f	0.011768713
38	0xbba36ca2	-0.0049873153
39	0x3c782b08	0.015146978
40	0xb9fbd119	-0.0004803024
41	0xbc996af9	-0.018727766
42	0xba33ed14	-0.00068636355
43	0x3c88a454	0.01667992
44	0x3d193a58	0.037409157
45	0xba579f6e	-0.0008225356
46	0x3d33bd47	0.04388168
47	0x3ca8d8c2	0.02061117
48	0xbc1278a9	-0.0089399
49	0xbb21cdb6	-0.0024689264
50	0x3c3e5ebc	0.011619266
51	0xba1a3f39	-0.00058840547
52	0x3c83ec9c	0.016104035
53	0xbcffb142	-0.031212453
54	0x38e4f863	0.00010918153
55	0x3c94a1cd	0.018143559
56	0x3c0e77cf	0.008695557
57	0x3caaf31b	0.020867875
58	0x3bc88bde	0.006120189
59	0x3bcbf771	0.0062245657
60	0xbc2869a1	-0.01027909
61	0x3c48d97f	0.012258886
62	0x3c5ff654	0.013669569
63	0x3c422efb	0.011852021
64	0x3c3be39f	0.011467843
65	0xbc21c751	-0.009874181
66	0x3c2556e6	0.010091519
67	0xbc09b9c7	-0.008406109
68	0xbc4cbce2	-0.012496205
69	0x3c2a312f	0.010387703
70	0xbb310198	-0.0027009007
71	0xbacd9588	-0.0015684823
72	0x3c90966c	0.017649852
73	0xbb81c48f	-0.003960199
74	0xbcdad324	-0.026712008
75	0xbc24e6cd	-0.010064793
76	0x3bf0199e	0.0073272726
77	0xbc926496	-0.017870229
78	0x3b4a2ecf	0.0030850654
79	0xbc7caf4f	-0.015422656
80	0xbaeb732b	-0.00179634
81	0x3cb0d498	0.021585748
82	0xbc3e797c	-0.011625644
83	0x3d007876	0.03136488
84	0xb93e454f	-0.00018145631
85	0x3c9dfc58	0.019285366
86	0x3bab6096	0.00523002
87	0xbc1bed06	-0.00951696
88	0xbb3a737e	-0.0028450186
89	0x3b1aab9c	0.0023600822
90	0xbb6b88ce	-0.0035939696
91	0xbb675ed8	-0.0035304334
92	0x3c87a9a9	0.016560392
93	0x3ce09f72	0.02741978
94	0xbbca1a7e	-0.006167709
95	0x3a169e3b	0.0005745624
96	0x3ca55aa7	0.020184828
97	0x3cb18770	0.021671027
98	0x3aa2ae46	0.0012411557
99	0x3b172963	0.002306544
100	0x3ccbfa8b	0.024899742
101	0xbc37b0f1	-0.01121162
102	0x3a27b641	0.00063977024
103	0xbcebfdab	-0.028807482
104	0x3d68b194	0.056809977
105	0x3af41f01	0.0018624963
106	0x3cd733d9	0.02626984
107	0xbbb66b35	-0.0055669793
108	0xbb42218c	-0.0029622046
109	0xbbb530ec	-0.0055295136
110	0xbb963948	-0.004584465
111	0x3c99ccb2	0.018774364
112	0xbca96e8d	-0.020682598
113	0x3ba375ee	0.0049884235
114	0xbbd862d8	-0.00660358
115	0x3c68419d	0.0141758
116	0x3cae4ace	0.021275904
117	0x3ba7b084	0.005117478
118	0x3c9d0c05	0.01917077
119	0x3c940f24	0.018073626
120	0x3bfe0a00	0.007752657
121	0xbcc69ee6	-0.02424569
122	0x3bdead7f	0.0067955847
123	0x3c01b4f6	0.00791668
124	0xbc8140c9	-0.015777962
125	0x3bf05507	0.007334355
126	0xbc75cdf6	-0.015002718
127	0x3c1261d7	0.00893446
128	0xbb0c4b4f	-0.0021407192
129	0xbd162917	-0.03666028
130	0x3c2f4994	0.010698695
131	0x3cbee28c	0.023301385
132	0x3ca3d632	0.019999597
133	0xbcf71a7a	-0.030163992
134	0xb9addd66	-0.00033162086
135	0x3ce2fcd4	0.027708448
136	0x39ad9f7d	0.0003311596
137	0x3c77131c	0.01508024
138	0x3a5b4f11	0.0008365969
139	0x3cf4220b	0.02980139
140	0x3ce28c87	0.0276549
141	0xbcdd3e3f	-0.02700722
142	0xbc6b16c4	-0.0143486895
143	0x3ccad16a	0.02475806
144	0x3cd27882	0.025692228
145	0xb7660279	-1.3709644e-05
146	0x3cdb2fe4	0.026756234
147	0xbcbd47ea	-0.02310558
148	0xbc737d67	-0.014861441
149	0x3c445aeb	0.011984567
150	0xba3d59f1	-0.000722318
151	0xbc8c88bd	-0.017155046
152	0xbc2caf8f	-0.010539903
153	0xbcc9072c	-0.024539553
154	0xbc381869	-0.011236289
155	0x3c2aed91	0.010432617
156	0xba0f3c08	-0.00054639624
157	0xbd19dd98	-0.037564844
158	0xbc2366d5	-0.009973248
159	0xbb873102	-0.0041257152
160	0xbb8cba71	-0.0042946865
161	0xbcb75999	-0.02238159
162	0x3db27fc4	0.087157756
163	0x399afe03	0.00029562422
164	0x3a767e91	0.0009403015
165	0xbc04a6da	-0.008096421
166	0xbb0dbabb	-0.0021626193
167	0x3bb91d90	0.005649276
168	0xb7c1bbea	-2.3094897e-05
169	0x3ca51566	0.020151805
170	0x3bdba1f5	0.0067026564
171	0xbcb64f17	-0.02225451
172	0x3bc2fc39	0.0059504774
173	0xbba9bdab	-0.005180081
174	0x3d28a6fe	0.04117488
175	0xbb04305f	-0.0020170433
176	0x3c9a6df4	0.018851258
177	0xbc4bd352	-0.012440519
178	0x3bacb5b3	0.0052706837
179	0x3bac35fe	0.00525546
180	0xb998dff4	-0.00029158557
181	0x3ce58aa5	0.028020212
182	0xbd3971b7	-0.045274463
183	0x3bf02e3e	0.0073297312
184	0x39a761c8	0.00031925575
185	0xba230ccb	-0.0006219863
186	0xbb0d21b8	-0.002153499
187	0x3c4c539b	0.012471105
188	0xbca773f6	-0.020441037
189	0xbcb3568e	-0.021891858
190	0x3b118b87	0.002220841
191	0xbcd83de1	-0.026396694
192	0x3c8c05e1	0.017092647
193	0x3c8783ec	0.016542397
194	0x3cb23eb4	0.021758415
195	0x3c89a37c	0.016801588
196	0x3b774e60	0.0037735924
197	0x3cc779cb	0.024350068
198	0xbc70948c	-0.014683854
199	0x3bebae4a	0.0071924077
200	0xbbe02171	-0.006839924
201	0x3a12be64	0.00055978284
202	0x3a301479	0.0006716918
203	0xbc8fc9f8	-0.01755236
204	0xbd04c783	-0.03241683
205	0xbaa549eb	-0.001261053
206	0x3c97580a	0.018474597
207	0xbc48deb5	-0.012260129
208	0x3d2cfec7	0.042235162
209	0xba415e11	-0.0007376383
210	0x3b0f2abd	0.0021845542
211	0x3b89daba	0.0042069824
212	0x3c092395	0.0083703
213	0x3cdd1dcb	0.026991745
214	0xba84391e	-0.0010087823
215	0x3cf3eee9	0.029777007
216	0xbc5a13ef	-0.013310417
217	0xbc40159b	-0.011723901
218	0x3ce84b7d	0.028356308
219	0x3c1cfc86	0.009581691
220	0xbc0d511d	-0.008625296
221	0x3c522bc7	0.01282782
222	0x3cf1f874	0.029537417
223	0x3c322767	0.010873652
224	0xbcb1d04d	-0.02170577
225	0xbb059636	-0.0020383722
226	0xbcc7efa2	-0.024406258
227	0x3bb1c434	0.0054250006
228	0xbd3a8ffb	-0.045547467
229	0x3ac9ab77	0.0015386184
230	0x3becea07	0.0072300467
231	0x3b9fe60f	0.00487972
232	0xb9de3b6b	-0.0004238741
233	0xbbbb3f32	-0.0057143206
234	0xbc87d460	-0.01658076
235	0xbc220567	-0.009888983
236	0x3ca5128a	0.020150442
237	0x3cbbf476	0.022943716
238	0x3b52f2b0	0.003218811
239	0xbc993421	-0.018701615
240	0xbb5cdead	-0.003370206
241	0xbba4b22a	-0.0050261216
242	0x3c7e5c4b	0.015524934
243	0xbccc503b	-0.0249406
244	0x3c0dc632	0.0086532105
245	0x3ce90973	0.028446889
246	0xb9a28f08	-0.00031005614
247	0x3c754ea6	0.0149723645
248	0xbadecc24	-0.0016998095
249	0x3c646725	0.013940607
250	0xbca55517	-0.020182176
251	0x3c87603a	0.016525377
252	0x3b64e34c	0.0034925519
253	0x3c434453	0.011918145
254	0x3cff57c3	0.031169778
255	0xbab3e505	-0.0013724869

bn1.weight f4 [400]
0	0x3e06fa0d	0.13181324
1	0x3de08075	0.10962001
2	0x3e8ddbd5	0.2770678
3	0x3e80fa1b	0.25190815
4	0x3d9ac757	0.07557552
5	0x3f490cad	0.78534967
6	0x3d829f17	0.06378
7	0x3cad448c	0.02115085
8	0x3c2218a2	0.009893568
9	0x3ebfe919	0.37482527
10	0x3e112c9e	0.14177176
11	0x3d3fc105	0.046814937
12	0x3e30d08e	0.17267057
13	0x3d5cf12e	0.053940944
14	0x3e671944	0.22568232
15	0x3e9e4f84	0.3092004
16	0xbb8b3ca1	-0.004249171
17	0x3ee6dfe8	0.45092702
18	0xbc7b2cff	-0.015330552
19	0x3da971f3	0.08273687
20	0x3e4b30cc	0.19842833
21	0x3ede21de	0.43385214
22	0x3da48f8b	0.08035191
23	0xbab3c3a7	-0.0013714925
24	0x3e4e0e5f	0.2012267
25	0x3d87d3a6	0.066321656
26	0xbb28c6f0	-0.0025753342
27	0x3de7ff3e	0.113279805
28	0x3f49f7ec	0.78893924
29	0x3d8f7c25	0.070061006
30	0x3eeaaaed	0.4583353
31	0x3c39beac	0.011336964
32	0x3da58c6c	0.08083424
33	0x3e5b2914	0.21402389
34	0x3ed6e97d	0.41975012
35	0x3f233ee9	0.6376787
36	0xb935b661	-0.00017329447
37	0xbb682c06	-0.003542663
38	0x3eaf4ff3	0.34240684
39	0x3bd7afbb	0.006582228
40	0x3c7d42ab	0.015457789
41	0x3d3dfe48	0.04638508
42	0x3e425698	0.18978345
43	0x3e1d72a2	0.1537576
44	0x3cc3c479	0.023897396
45	0x3dddf7f4	0.10838309
46	0x3e82e030	0.25561666
47	0xbbbc77c5	-0.0057515823
48	0x3e84e418	0.25955272
49	0x3e17559e	0.14778754
50	0x3dcd3ac5	0.10020975
51	0x3d8e40a4	0.06945923
52	0xbb43c4c5	-0.0029871922
53	0xbb5c7de9	-0.0033644384
54	0x3d997dca	0.074946955
55	0x3e1108eb	0.14163558
56	0x3d3e01a1	0.046388272
57	0x3e51a974	0.20474797
58	0x3b96b72f	0.004599474
59	0x3c710c94	0.0147124715
60	0x3f8858af	1.0652064
61	0x3e740413	0.23829679
62	0x3e0b55b2	0.13606909
63	0x39effde9	0.0004577481
64	0xbc85a053	-0.0163118
65	0x3ed56b07	0.41683218
66	0x3e2c354d	0.16817208
67	0x3e9dec0e	0.30844158
68	0x3cbec1dc	0.023285799
69	0xbb3aa61b	-0.0028480354
70	0x3e01d12c	0.12677449
71	0x3ddc1f26	0.107481286
72	0x3c0f3925	0.008741652
73	0xbc21c10d	-0.009872687
74	0x3d72f14c	0.05931215
75	0x3e051f4e	0.13000223
76	0x3e5ad487	0.21370135
77	0x3e5e91a7	0.2173525
78	0x3d928dee	0.07155977
79	0x3e86485d	0.26227084
80	0x3d45bee0	0.048277736
81	0xbb164a73	-0.0022932559
82	0x3b3f71bb	0.0029212076
83	0x3afcaf8f	0.0019278395
84	0x3e419090	0.18902802
85	0x3e800067	0.25000307
86	0x3e6ca434	0.23109514
87	0x3e5be6ce	0.21474764
88	0x3debfb0c	0.11522493
89	0x3ed1b068	0.409549
90	0x3cad41bd	0.02114951
91	0x3dd3eb43	0.10347607
92	0x3d1d0ca0	0.03834212
93	0x3eb1688d	0.34650078
94	0x3de7ef9c	0.11324999
95	0x3e03199d	0.1280274
96	0x39ed4f5c	0.0004526329
97	0xba86bf95	-0.0010280485
98	0x3c3bfff9	0.011474603
99	0x3e55f68d	0.20894833
100	0x3d9f1cc7	0.07769161
101	0x3ea196cd	0.31560364
102	0x3e32f11c	0.17474788
103	0x3e63ad76	0.22234139
104	0x3dd974e2	0.10617997
105	0x3e375c6c	0.1790635
106	0x3ed87870	0.42279387
107	0x3e6fc28b	0.23414056
108	0x3c0e487d	0.008684275
109	0x3ed69966	0.4191391
110	0xbc251130	-0.010074899
111	0x3bc095f9	0.005877253
112	0x3e1bc3bb	0.15211384
113	0x3f4ffee2	0.81248295
114	0x3e98de70	0.29857206
115	0x3c19b993	0.009382623
116	0x3b981b71	0.004641943
117	0xbb074bee	-0.0020644623
118	0x3e4f0971	0.20218445
119	0x3e3eb014	0.18621856
120	0x3e83f067	0.2576935
121	0x3e3a26cd	0.18178864
122	0x3c357fab	0.011077802
123	0x3d8127ab	0.06306394
124	0x3d7948e7	0.06086054
125	0x3d8640f1	0.06555355
126	0x3efedb7b	0.49776825
127	0x3b52e5a9	0.0032180345
128	0x3e3c0596	0.18361506
129	0xbb518232	-0.0031968472
130	0x3e00ed8a	0.12590614
131	0x3c2eed22	0.010676654
132	0xbc30e3aa	-0.010796467
133	0x3e50e6b4	0.20400506
134	0x3c52a040	0.012855589
135	0x3e1a626f	0.15076612
136	0x3db9cbd6	0.09072082
137	0xbb262723	-0.0025352917
138	0xbb85445b	-0.0040669865
139	0x3d1e064d	0.038580228
140	0x3ab0cbfe	0.0013488529
141	0x3dadcee7	0.08486729
142	0x3df09b76	0.11748402
143	0x3f455d30	0.7709532
144	0x3d338f6c	0.04383795
145	0xba2fadfd	-0.00067016465
146	0x3defc78a	0.11707981
147	0x3e976ed5	0.29576746
148	0xbbeeefb1	-0.007291757
149	0x3eb93637	0.36174175
150	0x3d42007b	0.04736374
151	0xbd51a513	-0.051182818
152	0x3def0995	0.116717495
153	0x3e58a5ca	0.21156994
154	0x3e984a34	0.29744112
155	0x3e279547	0.16365539
156	0x3dbe0fa9	0.09280331
157	0x3f19fe94	0.6015408
158	0xbc301846	-0.010747975
159	0x3e6905c6	0.22756109
160	0x3e997a1c	0.29975975
161	0x3f224c6e	0.6339787
162	0xbb871b79	-0.004123148
163	0x3d966e91	0.073453076
164	0x3dcb8ab7	0.09938567
165	0x3da17e94	0.07885471
166	0x3e401b9d	0.18760534
167	0x3c060f8d	0.0081824185
168	0xbbdcca7c	-0.006738005
169	0x3d032348	0.03201607
170	0x3da45ef5	0.08025924
171	0x3cc1e1a4	0.023667164
172	0x3def2611	0.116771825
173	0x3d6bafaa	0.057540573
174	0x3e3fc909	0.18729033
175	0x3d04c3e5	0.032413382
176	0x3ded8b3d	0.11598823
177	0x3da7b5db	0.08188983
178	0x3e56c411	0.20973231
179	0xbaf598f2	-0.0018737598
180	0xbb338ca9	-0.0027397072
181	0x3f34a726	0.7056755
182	0x3e62fd82	0.22167018
183	0x3eb206ad	0.34770718
184	0x3e173750	0.14767194
185	0x3f822b74	1.0169511
186	0xb9b6d847	-0.00034874884
187	0x3e472ce3	0.19450717
188	0x3eeaca48	0.45857453
189	0x3e801565	0.25016323
190	0xbc2b46d3	-0.0104538975
191	0x3ddf19d9	0.10893602
192	0x3dcf3f69	0.101195164
193	0x3a979582	0.0011564943
194	0x3dbaa1a9	0.091128655
195	0x3dad6a0b	0.08467492
196	0x3eb8469b	0.35991368
197	0x3f847b57	1.035014
198	0x3d3b4d9e	0.04572832
199	0x3d8eabf3	0.069663905
200	0x3b7880e4	0.0037918622
201	0x3e960994	0.29304183
202	0x3d38391c	0.04497634
203	0x3e94b908	0.29047418
204	0x3e9d6a24	0.3074504
205	0x3d998a2d	0.07497058
206	0x3a1dbc02	0.000601709
207	0xb997772b	-0.0002888975
208	0x3dc65002	0.09683229
209	0x3e589795	0.21151574
210	0x3b7991e8	0.0038081352
211	0x3cb507cf	0.02209845
212	0x3ebdf57d	0.37101355
213	0xbc4a0059	-0.012329184
214	0x3dce3cc0	0.10070181
215	0x3ed3285e	0.41241735
216	0x3ecaac47	0.39584562
217	0x3e1282e9	0.14307751
218	0xba0d6ff2	-0.00053954043
219	0x3e037e3a	0.1284112
220	0xbbe7f413	-0.0070786565
221	0x3e99b198	0.30018306
222	0xbb25416e	-0.0025216
223	0xba3b1676	-0.0007136831
224	0x3ea838fd	0.3285598
225	0xbd86673e	-0.06562661
226	0x3a5c684c	0.00084078754
227	0x3d93b230	0.07211721
228	0xbafe3ca3	-0.0019396733
229	0x3dd3fed5	0.1035134
230	0x3e8a25e1	0.26982024
231	0x3f0f36c4	0.5594294
232	0x3e84475e	0.258357
233	0x3da3941e	0.079872355
234	0x3b1fdf5c	0.0024394607
235	0xbb7da50b	-0.003870311
236	0x3dca364b	0.09873637
237	0x3ea99de7	0.33128282
238	0x3ead0f54	0.33800757
239	0x3e0fd383	0.14045529
240	0xbc0ba4c5	-0.008523171
241	0x3da11946	0.07866149
242	0x3df5e7ab	0.12007078
243	0x3d7177b2	0.05895204
244	0x3d86333f	0.06552743
245	0xba7266e2	-0.0009246898
246	0x3d0b8958	0.034066528
247	0x3de6dca4	0.112725526
248	0x3e655bde	0.22398326
249	0x3c8fa878	0.017536387
250	0xbc8b21de	-0.016983923
251	0x3e4bd77e	0.19906422
252	0x3e56cd6b	0.20976798
253	0x3da7f798	0.08201522
254	0x3bfcbf1f	0.007713213
255	0x3d8be253	0.06830277

bn1.bias f4 [400]
0	0x3bac2e08	0.005254511
1	0x3bc25f2d	0.005931756
2	0x3cac1fb5	0.021011213
3	0x3d08ddfe	0.033414833
4	0x3c52df7c	0.012870666
5	0x3d49bc73	0.049251985
6	0x3c00cf37	0.007861904
7	0xbb35b8e0	-0.0027728602
8	0xba4c9dff	-0.00078055257
9	0xbc332eab	-0.0109364195
10	0x3cd83d6a	0.026396472
11	0xb929819e	-0.00016165382
12	0x3dbaafe1	0.091155775
13	0x3babff64	0.005248951
14	0x3d55a707	0.052161243
15	0x3e25e0af	0.16198991
16	0x3a8517f0	0.0010154229
17	0x3e2f0418	0.17091405
18	0xbb095b5c	-0.0020958995
19	0xbcbc9f52	-0.023025189
20	0x3d87b225	0.06625775
21	0x3dd32764	0.103102475
22	0x3d064718	0.032782644
23	0x3b1105bd	0.0022128664
24	0x3db81994	0.08989254
25	0x3c99e06d	0.018783772
26	0xba60154e	-0.00085480965
27	0x3caf459c	0.021395497
28	0x3e71f0b4	0.23626977
29	0xbc94d252	-0.018166695
30	0x3e1c20ac	0.15246838
31	0x3d3a5a15	0.045496065
32	0x3d471356	0.048602425
33	0xbc340984	-0.010988597
34	0x3dd09e7b	0.10186478
35	0x3db0eb87	0.08638673
36	0xba8c3547	-0.001069703
37	0x39f25bb7	0.0004622617
38	0x3cdcad9b	0.02693825
39	0x3a3713ab	0.0006983827
40	0x3a44d1ef	0.0007508089
41	0xbaca153a	-0.0015417703
42	0x3c960636	0.018313508
43	0xbc71b818	-0.014753364
44	0xbaba3eaa	-0.0014209349
45	0x3a88d608	0.0010439763
46	0xbbcf472a	-0.006325622
47	0xba99061f	-0.0011674798
48	0x3d12c6cc	0.03583412
49	0xbca6770c	-0.020320438
50	0xbba8c6a8	-0.005150635
51	0xbc2a03a7	-0.010376847
52	0xb9d5a996	-0.00040752877
53	0x396d13c0	0.00022609439
54	0xbcf1b03e	-0.029502984
55	0x3bb1db24	0.005427735
56	0x3c1ec362	0.009690138
57	0xbc10e842	-0.008844437
58	0xbaa69ddf	-0.0012711844
59	0x3db781fa	0.08960338
60	0x3dc5785e	0.09642099
61	0x3df6bcd4	0.12047735
62	0x3d81eb01	0.063436516
63	0xba5cacba	-0.0008418072
64	0xba9a6e22	-0.001178209
65	0x3d46cf61	0.048537616
66	0x3ce454ed	0.027872527
67	0x3e47559f	0.19466256
68	0x3b23be84	0.0024985382
69	0x3b0e02d5	0.0021669168
70	0x3d05e998	0.032693475
71	0xbbe94876	-0.0071192337
72	0xba7f0eae	-0.00097296655
73	0x38e36731	0.000108434244
74	0x3bd7eb23	0.00658931
75	0x3cbaf7c1	0.022823216
76	0x3d415e21	0.04720891
77	0x3dddc71e	0.10828994
78	0x3c44c6b1	0.012010262
79	0x3d9bd1b5	0.07608358
80	0x3c13c06d	0.009018046
81	0xbaa18fb2	-0.001232615
82	0xb96b2bef	-0.00022427713
83	0x3ae11775	0.0017173128
84	0xbcda14e9	-0.026621299
85	0x3de545fa	0.111949876
86	0xbbac8665	-0.0052650445
87	0x3d63bbbf	0.05559897
88	0x3cf5ebfd	0.030019755
89	0x3d0939e9	0.033502493
90	0x3aeea6b4	0.001820764
91	0x3c11702c	0.0088768415
92	0xbc34fa6f	-0.011046036
93	0x3df27390	0.11838448
94	0xbc2adf2a	-0.010429183
95	0x3cd1cc63	0.025610154
96	0x393da98c	0.00018087606
97	0xb9ddfcc6	-0.00042340736
98	0xbb4426ff	-0.002993047
99	0x3e0b5c0f	0.13609336
100	0x3c70cb76	0.014696946
101	0x3d81b17c	0.063326806
102	0x3c6c02a2	0.014404925
103	0x3d8cec3c	0.06880996
104	0xbbd9e41c	-0.006649507
105	0x3d5189ea	0.051156916
106	0x3df03125	0.117281236
107	0x3caa3017	0.020774884
108	0xb94ffb82	-0.00019834752
109	0x3da69217	0.08133333
110	0x3b36d3bb	0.0027897197
111	0xbaad027b	-0.0013199592
112	0x3d965f09	0.07342345
113	0x3eac9c9e	0.3371324
114	0x3d8e8006	0.06958012
115	0x3ac8fe62	0.0015334601
116	0xbafca3b6	-0.0019274864
117	0x3aa8abec	0.001286862
118	0x3c03eacd	0.008051586
119	0x3dac107f	0.08401584
120	0x3d96c0e5	0.073610105
121	0x3d946d3e	0.07247399
122	0xb9944078	-0.00028276793
123	0x3c9fdc33	0.019514179
124	0x3c7cc1f9	0.015427106
125	0x3c5817c7	0.013189263
126	0x3e2d87ef	0.16946386
127	0xbb07f7a6	-0.0020746975
128	0xbd0736f2	-0.033011384
129	0x3b3cbe35	0.0028799896
130	0x3d7f6a6f	0.062357362
131	0x38b08a1d	8.4180596e-05
132	0xbb3cb265	-0.0028792855
133	0x3d108e52	0.035291977
134	0x3a5bf99c	0.00083913817
135	0xbac4a131	-0.0015001652
136	0x3ceb2b9f	0.028707324
137	0xbb77ff52	-0.0037841392
138	0x3aab9b08	0.0013092468
139	0x3cf0d727	0.029399468
140	0x3b0c6585	0.0021422815
141	0x3c0fd10e	0.00877787
142	0x3cdaffd5	0.026733318
143	0x3de70110	0.112794995
144	0xbaa03042	-0.0012221413
145	0x3a3d7d43	0.0007228443
146	0x3c62db3e	0.013846217
147	0x3dd04fd1	0.10171474
148	0xbb04749f	-0.0020211113
149	0x3dc85575	0.09781925
150	0x3b52e7f1	0.0032181705
151	0x3e6fa41e	0.2340245
152	0x3cb5fbdd	0.022214824
153	0x3d29ebea	0.04148475
154	0x3d27b3e9	0.04094306
155	0x3c5ab11a	0.013347888
156	0x3d883c5f	0.0665214
157	0x3e323383	0.17402463
158	0xbb2d9093	-0.0026483878
159	0x3d2d9dff	0.042387005
160	0x3d8c8498	0.06861228
161	0x3dd6d067	0.10488968
162	0xba59a00b	-0.00083017413
163	0x3ad7dbb6	0.0016468677
164	0x39caec3c	0.0003870445
165	0x3cb39800	0.021923065
166	0xbc5618a6	-0.0130674
167	0x3ab35182	0.0013680907
168	0x39c65857	0.0003783132
169	0xbb42ae85	-0.0029706073
170	0x3ce2a695	0.027667323
171	0xba99222d	-0.0011683159
172	0x3c168b32	0.00918846
173	0x39ef1dc1	0.000456078
174	0x3c1e7222	0.009670766
175	0xbd835938	-0.064135015
176	0x3d60a402	0.05484391
177	0x3ce48ba0	0.02789861
178	0x3dc92d7b	0.09823128
179	0xbb11e79f	-0.00222633
180	0xb9ba18d4	-0.00035495183
181	0x3e7ef52f	0.24898218
182	0x3d5289f3	0.05140109
183	0x3d955c82	0.07293035
184	0x3d7595a0	0.059957147
185	0x3de4d45b	0.11173316
186	0x3a9d63b9	0.0012007869
187	0x3d809e8b	0.0628024
188	0x3d23ebb4	0.040019706
189	0x3d93f5d9	0.07224626
190	0x3a8c3351	0.0010696446
191	0x3d02bacd	0.03191643
192	0x3d542b8a	0.051799335
193	0xbadf73bc	-0.0017048041
194	0x3d00c5f1	0.03143877
195	0x3c12956d	0.008946759
196	0x3e252582	0.1612759
197	0x3ce02fe8	0.027366593
198	0x3b40288f	0.002932105
199	0x39e4dc38	0.00043651625
200	0x3a07ee1e	0.00051853235
201	0x3db66f3c	0.08907935
202	0x3cb38c9e	0.021917637
203	0x3d290061	0.041260127
204	0x3e0281c9	0.12744822
205	0x3a988395	0.0011635894
206	0x3acdf292	0.001571255
207	0xba2d1532	-0.00066025846
208	0x3cf9d19e	0.030495461
209	0x3d93f717	0.07224863
210	0xbadf1fad	-0.001702299
211	0x3b7bbba9	0.0038411415
212	0x3e32da28	0.17466033
213	0xb8436b80	-4.659174e-05
214	0x3c39ec5c	0.011347856
215	0xbe073861	-0.132051
216	0x3e1c5e7e	0.15270421
217	0x3d97a79d	0.074050166
218	0xba371a7d	-0.0006984843
219	0x3cb6c361	0.02230996
220	0xbb211cfa	-0.0024583922
221	0x3daf7d6e	0.08568846
222	0xbb97409e	-0.0046158573
223	0xbaf04b3b	-0.0018332967
224	0x3d588c0f	0.052867945
225	0xbdb25172	-0.08706941
226	0x3a5f3d5d	0.0008515919
227	0x3c151f8e	0.0091017615
228	0x3b8f495a	0.004372758
229	0x3c87e2fb	0.016587725
230	0x3d1a75a7	0.03770986
231	0x3dc355f2	0.09537877
232	0xbb96471a	-0.0045861127
233	0x3d307641	0.043081526
234	0xbad4f10c	-0.0016246154
235	0x39d649f1	0.0004087235
236	0x3d0110ae	0.031510048
237	0x3d2f34d9	0.04277501
238	0x3b96ad0b	0.004598265
239	0x3d3b8f1b	0.045790773
240	0xbaf4aadf	-0.0018666646
241	0x3a96e5cf	0.001151258
242	0x3dc1cfa1	0.0946343
243	0x3c92e647	0.01793207
244	0x3b83db10	0.004023917
245	0x3a5db49c	0.0008457394
246	0x3dde6925	0.108598985
247	0xba45a2c9	-0.00075392105
248	0xbd9c3367	-0.07626992
249	0x39b81148	0.0003510809
250	0xbb215142	-0.0024615084
251	0x3c5f027b	0.013611431
252	0x3d775dbe	0.060392134
253	0x3cd8eeb1	0.026481004
254	0x38be2c49	9.068155e-05
255	0x3ccbaa32	0.024861429
