weight1/checkpoint_critic_target_0.pth (torch_old, 575149 bytes, 9 tensors)

fcs1.weight f4 [400, 52]
000000 42 77 cb bd 72 9e 10 be ba 27 06 bd 1a 47 ef 3d
       -0.09934856 -0.14122942 -0.03275273 0.116834834
000010 48 11 51 3d fa c9 0d bf 1f 2d eb bc f1 5c f7 3d
       0.05104187 -0.55386317 -0.028708039 0.12078274
000020 17 3a f8 bd c8 0b 38 3d ea 99 c8 bd 4f 83 d2 3e
       -0.12120455 0.04493311 -0.09794982 0.41115806
000030 d1 07 82 bd b0 2f 1b bf 55 f5 7f bd 24 3c e9 3e
       -0.06349147 -0.6061964 -0.062489826 0.45553696
000040 19 db 88 be ac b2 24 3e 1a d9 40 bb 23 92 14 3f
       -0.26729658 0.16083783 -0.0029426278 0.58035487
000050 17 f5 a1 bd 47 45 5b be de 58 1c 3d 12 97 04 3f
       -0.07908075 -0.21413146 0.038170688 0.51793015
000060 2e 19 03 3e c7 09 9a bd 0c 38 06 3c 27 67 ae be
       0.12802574 -0.07521396 0.008192074 -0.34063074
000070 3c 73 76 bd 4d 21 12 bf 31 cc 4f 3d a6 bf a9 be
       -0.06016849 -0.5708206 0.05073184 -0.3315403
000080 3c b3 ca 3e 5b f5 ad bd 1c a0 1f bd 7a 8b e0 be
       0.3958987 -0.084940635 -0.03897105 -0.43856412
000090 da 57 35 3d ed 3b 1d bf d7 dc d0 3c e4 58 e2 be
       0.044273235 -0.61419564 0.02549593 -0.44208443
0000a0 fb a7 ac 3e 90 c5 af be 57 c8 bc bc 71 a2 f7 be
       0.3372191 -0.34330416 -0.023044748 -0.4836612
0000b0 75 bb e5 3d 6a 80 6b be 78 44 8d bd 9e 4d 01 bf
       0.11217395 -0.22998205 -0.06897825 -0.5050906
0000c0 ea 6f 0c 3f 00 af 46 3f 1e 69 71 3d 00 1d 87 3e
       0.5485827 0.7761078 0.05893814 0.26389313
0000d0 45 fa f6 3c 2b 6d 27 bf 0b 36 38 bd e1 c7 81 be
       0.030148635 -0.6540095 -0.044973414 -0.25347808
0000e0 9c 3f 9d be 4c 74 02 bf e0 96 6b bd cf 86 9c be
       -0.30712593 -0.50958705 -0.057516932 -0.305716
0000f0 cc 4d dc 3c b3 c9 11 bf 4f 5a 9e bd 5e ac 0a be
       0.026892565 -0.56948394 -0.07732069 -0.13542315
000100 5b 4a 36 be 15 fc 00 bf 65 cd f4 bd 4f b1 b8 bd
       -0.17801802 -0.50384647 -0.119532384 -0.09018194
000110 1d b4 40 bd 5a f7 37 bf 92 99 39 be 33 ae 98 3e
       -0.04704677 -0.71861804 -0.18124989 0.29820403
000120 20 54 03 be 2c 6b f6 3a fa 6a fc bd 13 39 7f 3e
       -0.1282506 0.001880025 -0.12325092 0.24924116
000130 0b 99 c3 3e 53 48 89 3f 13 ba a2 bc 6b de d0 be
       0.382027 1.0725197 -0.019864118 -0.4079469
000140 4b 30 9f 3e a8 6c 17 bf b0 84 ff 3b 07 6c 9e be
       0.31091532 -0.5915017 0.0077978 -0.30941793
000150 5c 7b 2c 3e 33 e5 6d 3f 30 02 94 ba ea 81 02 bf
       0.16843933 0.92927855 -0.0011292156 -0.50979483
000160 c9 31 35 3e 69 76 0f bf e0 88 84 3d 8b 90 eb be
       0.17694773 -0.56040055 0.06471419 -0.46008715
000170 5b fd 2e be 33 d7 ff 3e d0 f5 e8 3d 4a dc cc be
       -0.17088835 0.4996887 0.1137501 -0.40011817
000180 3f f7 c6 3d 3e 60 b4 3a 8c ad cf 3d 8c a0 d5 be
       0.09715127 0.0013761593 0.10140523 -0.4172405
000190 36 37 12 3f c3 e9 73 be ad 49 e8 3d 65 51 1f bf
       0.57115495 -0.23819642 0.113421775 -0.62233573
0001a0 2b ba 7f bc d1 2d 6c 3d b1 3b 39 be 17 03 08 bf
       -0.015608351 0.05766088 -0.18089177 -0.53129715
0001b0 f8 7e d3 bd 1d e1 87 be 80 e1 41 be b6 41 14 bf
       -0.10326952 -0.26538935 -0.18933678 -0.57912767
0001c0 05 85 76 3c 84 63 0d 3c 3e 2c 6d 3b 06 bf b9 3d
       0.015046363 0.008629683 0.00361897 0.09069638
0001d0 ff a3 62 bd a0 af 0b bf 2b 9d 74 bd c2 63 64 3d
       -0.05533218 -0.5456486 -0.0597202 0.0557592
0001e0 10 52 c9 bd 84 85 92 bd 88 f4 b2 3b fa 76 82 be
       -0.09830105 -0.07154372 0.0054612793 -0.25481397
0001f0 d6 fa b3 bd 33 22 65 bf be 7e 38 3c d3 87 64 be
       -0.087880775 -0.8950531 0.011260686 -0.22317438
000200 44 93 38 be a5 4d c7 3e ee 28 2c 3d 22 11 74 bd
       -0.18024927 0.38926426 0.04203122 -0.05958665
000210 10 d9 f3 3d 01 a9 86 be 75 89 ba 3c cc 11 a9 bd
       0.11906636 -0.26300815 0.022770623 -0.082553476
000220 fb f6 50 be 51 4d d5 3e 58 be 02 3e 9b f0 c9 bd
       -0.20406716 0.4166055 0.12767923 -0.09860345
000230 cb e7 13 3d e3 d2 0d bf 52 88 c0 3d d3 52 ff bd
       0.036109727 -0.5539991 0.09401001 -0.12466969
000240 ed 3f 29 be cb 33 fd 3e 97 c6 82 bd bb bf 94 bd
       -0.16528292 0.49453577 -0.06385534 -0.07263132
000250 ac 1b b4 3d 7d 33 5a bf e9 13 68 bd bf 18 05 bd
       0.087943405 -0.85234815 -0.056659613 -0.032494303
000260 f7 72 84 3e 4b 71 a9 be 8f 58 3f 3f 39 5e 5a be
       0.2586896 -0.33094248 0.74744505 -0.21325006
000270 b4 db 04 3e bb 55 0a bf 38 2d 0b bd d5 92 7d be
       0.12974435 -0.54037064 -0.03397867 -0.24763043
000280 3f b5 6b 3e ee 76 a6 3e b9 5c 31 bc 8a ce 4c be
       0.23018359 0.3251261 -0.010825329 -0.20000663
000290 51 b2 70 3e 41 e5 07 bf 19 8b 48 bd 17 71 53 be
       0.23505522 -0.5308419 -0.04896078 -0.20648609
0002a0 56 69 0c be fd 51 d0 3e 8d 49 0a 3d db e7 83 be
       -0.13712057 0.40687552 0.03376155 -0.2576283
0002b0 d5 c9 e9 3e 1b 39 17 bf f7 d3 90 3c f4 cc 59 be
       0.45661798 -0.5907151 0.017679198 -0.2126959
0002c0 4b de 56 bf e3 56 b8 3e cd 72 be 3b df cb 51 be
       -0.8393294 0.3600379 0.005812025 -0.20487927
0002d0 12 21 01 be 5b 8f b1 be 51 5b 67 3d 3d a5 e7 bc
       -0.12610272 -0.34679684 0.05648357 -0.028277034
0002e0 9c cb 49 be bd 6e b0 3e 38 bd 8e 3a d0 00 d8 3c
       -0.19706577 0.34459487 0.0010890132 0.026367575
0002f0 2d b8 4b 3e 2a e8 c5 be 65 78 51 3d ee 17 cb 3d
       0.19894476 -0.3865369 0.051140208 0.099166736
000300 23 df 29 3e ce 80 ce 3e 98 47 59 3c 27 b0 ce 3d
       0.16589026 0.40332645 0.013261698 0.10092192
000310 83 7d 58 3e 9e 97 72 be 90 a8 5b 3c 17 31 c7 3e
       0.21141629 -0.2369065 0.013406888 0.3890464
000320 bd 41 59 3f 88 9b ab 3e ed 28 6d bc 65 86 cf 3e
       0.84865934 0.33517098 -0.0144750895 0.40532222
000330 36 c2 73 3e f9 ac a7 3e a6 cf e1 be 81 14 ae 3e
       0.23804554 0.32749155 -0.44103736 0.34000018
000340 1a 0a 37 be 38 fa cd 3f 7d 08 2f 3c c0 aa 11 be
       -0.17874947 1.6091986 0.010683176 -0.14225292
000350 e9 d2 e7 bd c3 28 65 be 09 76 2a 3d 56 c4 2b be
       -0.11319525 -0.2237883 0.041616473 -0.16774115
000360 87 00 34 bd b5 cd a9 3f a2 3a 90 3c c7 ce b4 be
       -0.043945815 1.3265902 0.017606083 -0.3531401
000370 c1 c2 f9 bd c6 e4 0b 3e d4 d2 2e bc 04 73 c3 be
       -0.121953495 0.13661489 -0.0106703825 -0.38173687
000380 2d 68 4b 3d f4 19 8e 3f 64 61 0e bd 2c 86 66 be
       0.049659897 1.110167 -0.034760848 -0.2251212
000390 75 27 29 3e eb 15 02 3f c1 22 c1 bd 69 55 2f be
       0.16518958 0.50814694 -0.09430457 -0.17122425
0003a0 c3 cd 03 3d a4 0a 17 bf 34 0f ac bc 16 a4 b2 3d
       0.03217865 -0.5900061 -0.021003343 0.08722703
0003b0 1d 35 a0 3d 54 07 68 be 60 75 57 3c 72 41 2c 3d
       0.078226306 -0.22659045 0.013150543 0.0420546
0003c0 13 44 70 3d ec b3 0c bf 1a 49 b4 bb cd 77 4a 3e
       0.05865867 -0.5496204 -0.0055018784 0.19772263
0003d0 de 07 ec 3d 09 b7 f8 3d d3 d5 70 3d c2 cb 3a 3e
       0.11524938 0.12144286 0.05879767 0.1824179
0003e0 b9 cf f1 3d 5d 83 b3 be 10 aa 80 3d 47 b5 45 3f
       0.11807198 -0.3506116 0.06282437 0.7722973
0003f0 9c 4c 1c be 8f c1 04 3f 61 92 0c 3d a7 44 48 3f
       -0.15263599 0.51857847 0.034319285 0.78229755

fcs1.bias f4 [400]
000000 69 9a c0 3d 70 64 70 be e5 0f 44 be 9c fa 36 bf
       0.094044514 -0.23475814 -0.19146688 -0.7147615
000010 5c a3 d0 bd 29 dc ac be de e8 bb 3c 57 fd 1d be
       -0.10187408 -0.3376172 0.022938188 -0.15428673
000020 5a f0 85 3d 42 c3 d4 be 58 f1 97 be 9f 2d 23 be
       0.06539984 -0.4155522 -0.29676318 -0.15935372
000030 a8 d6 ae be eb 2c a5 3c bb 0f b0 be eb 4b 19 be
       -0.34148145 0.02016302 -0.34387 -0.14970367
000040 0a 6e 0f be 36 25 0c be bb 1e 6e be 8d 0f 12 be
       -0.1400682 -0.1368607 -0.2325391 -0.14263745
000050 3b 9c 33 be fc f0 a0 be 2a 84 06 3b 4c 09 e4 be
       -0.17540066 -0.31433856 0.0020525553 -0.44538343
000060 f0 fc d8 bd fa 19 5d bd 0c 85 be be ae 76 ac bd
       -0.10595119 -0.05397985 -0.37210882 -0.08421074
000070 7b 6b 3c be ce 2f 10 be ef bc 59 be f6 f5 7f be
       -0.18400376 -0.14080736 -0.21263479 -0.2499617
000080 89 35 ef bd f9 e8 87 3d 1b 7c 1b 3d 0b 21 ed be
       -0.11680133 0.06636233 0.037960153 -0.46314272
000090 a3 2c 1e bd d0 a2 95 be 36 a4 77 be 40 a1 34 be
       -0.038616788 -0.2922578 -0.24183735 -0.17639637
0000a0 26 9d 53 3d 53 47 02 bf 74 6e c2 be 34 29 93 be
       0.05166354 -0.5089008 -0.37974894 -0.28742373
0000b0 95 f5 93 3c a9 08 aa be cd 77 bd bd b2 26 e3 be
       0.018061439 -0.33209732 -0.09251366 -0.4436546
0000c0 a8 8c 08 be 65 84 31 be 59 27 1d bd 78 95 19 3e
       -0.13334906 -0.17335661 -0.038367603 0.14998424
0000d0 d8 3d 72 3b 83 81 c3 bd 0b 27 6c be e8 a8 86 be
       0.0036963131 -0.09546187 -0.23061769 -0.2630074
0000e0 b8 b1 e2 bd 46 17 31 be bf ff c4 bd 0f 9d d3 3c
       -0.110690534 -0.17294034 -0.09619092 0.025831727
0000f0 68 aa ce be 40 68 9b bd 24 7f 36 be ad 2f cc bd
       -0.40364385 -0.075882435 -0.17821938 -0.09970031
000100 4e 48 32 be 07 19 1d be 7e 5e e8 be fc da d9 bd
       -0.17410395 -0.15341578 -0.45384592 -0.10637471
000110 0a 33 a1 bd 30 4e 17 be 4a 6c 73 bd 54 05 82 be
       -0.07871063 -0.1477592 -0.059429444 -0.2539469
000120 7f 91 97 bc 40 95 e1 be 8e e1 2e be 7f ef 96 bd
       -0.018501995 -0.4405918 -0.1707823 -0.07369899
000130 3d 7b d8 be a1 18 34 bf c1 8f 42 bd 39 e3 85 bd
       -0.42281523 -0.7035008 -0.047500376 -0.0653748
000140 c7 fa 38 be 25 ab 93 bd 76 3f ff be fa c6 21 be
       -0.18064414 -0.072103776 -0.49853104 -0.1579856
000150 0b 44 59 bf 76 4e 6d 3d e4 de fd be 97 24 a9 be
       -0.8486945 0.057936154 -0.49584115 -0.33035728
000160 91 d6 41 be ff 3c 7f 3d fa 26 d5 3c 03 9e 2d be
       -0.18929507 0.06231403 0.026019562 -0.16954808
000170 50 a3 10 bf 0c 29 35 be 5d 32 4a 3d 39 10 e2 be
       -0.56499195 -0.1769144 0.049364436 -0.44153002
000180 ee c2 d7 be eb e7 ba 3d bc 63 2e be 9b 86 3d be
       -0.42140907 0.09126266 -0.17030233 -0.18508379
000190 f0 60 0f bc b5 7b 01 bf 31 d7 de be 23 4d 6c be
       -0.008751139 -0.50579387 -0.43523553 -0.230763
0001a0 11 c5 6d be 1e 48 e7 be f4 87 0c bf 49 5a cf be
       -0.23219706 -0.4517221 -0.5489495 -0.4049857
0001b0 47 72 f7 bd d3 a1 9e be 9a 3c 88 be 12 d8 86 3d
       -0.120823435 -0.30982837 -0.26608735 0.06584181
0001c0 93 2c f9 bd b2 a9 28 be 9f 75 c6 be fc f7 71 bd
       -0.12166705 -0.16470984 -0.38761613 -0.059074387
0001d0 b3 c3 75 bd f6 43 b8 bd 10 1a 77 bd c6 2a c8 be
       -0.060001086 -0.089973375 -0.06032759 -0.39095134
0001e0 ed 16 8a 3d cd 74 0a bf 51 ac 21 bf 97 ac 2c bd
       0.06742654 -0.54084474 -0.6315356 -0.042156782
0001f0 3a 86 33 bd 6e 50 31 be 80 9d aa 3d 11 29 5a be
       -0.04382918 -0.17315838 0.08330822 -0.21304728
000200 c3 4b 57 bf 6d e5 14 be ac 55 19 be 5f 09 20 bd
       -0.8409998 -0.14540644 -0.14974087 -0.039071437
000210 64 46 a3 bd ed de 3b bf c6 36 97 3d 8c f8 eb be
       -0.0797241 -0.7338703 0.07383494 -0.46088064
000220 52 ea 02 bf 36 8e ce bd c1 d7 bf bd d4 2c d3 bd
       -0.51138794 -0.10085718 -0.09367324 -0.10311285
000230 ec d4 85 be 81 6b de 3d d0 88 b1 3d 15 72 23 be
       -0.2613901 0.108603485 0.08668673 -0.15961488
000240 a5 34 b3 3d 17 d0 bd 3d f5 d4 21 bf 54 67 00 bf
       0.087502755 0.092682056 -0.6321557 -0.50157666
000250 29 ce ed bc d6 4f c3 bd 71 d7 6d bf 29 a7 a4 be
       -0.029028969 -0.09536712 -0.9290686 -0.32158783
000260 be 86 69 bf 8e 1a 0e be 32 41 da be ed 9d 1e bf
       -0.91221225 -0.13877317 -0.42627865 -0.61959726
000270 88 1e 15 be e0 aa 52 bd a0 10 2d be f3 59 f1 bd
       -0.14562428 -0.05143249 -0.16900873 -0.117847346
000280 81 c4 c6 be dc 4c 2c bd df 6a 0c bf d9 61 0b bd
       -0.38821796 -0.042065486 -0.5485057 -0.03402886
000290 45 07 e1 be 5a 9b 11 bf 78 7c 2c 3e 00 2b 0b be
       -0.4395086 -0.5687767 0.16844356 -0.13590622
0002a0 40 5a f6 bd a1 01 e2 be 52 57 95 be 1f c1 16 be
       -0.120289326 -0.44141868 -0.29168183 -0.14722107
0002b0 af 2e 2a bf 15 65 9c bd d3 c0 be be ab 7a ac bd
       -0.66477484 -0.07636467 -0.37256488 -0.084218346
0002c0 c9 22 66 3e c4 43 1d be 15 b1 a3 be b5 02 9b bd
       0.22474207 -0.15357882 -0.3197104 -0.07568876
0002d0 1f 82 47 bd 87 22 b1 be 74 9d ac be 05 2f 72 bd
       -0.048708078 -0.34596655 -0.33713877 -0.059126873
0002e0 5f 33 cd bd c2 e0 f9 be 92 55 cd 3d 7f 08 0a bf
       -0.10019564 -0.4880429 0.10026087 -0.53919214
0002f0 72 b1 1a bf e2 bb 9f 3e 38 d0 ae 3d 0a ca 86 be
       -0.6042701 0.3119803 0.08535808 -0.2632602
000300 c4 0b 50 be 9e af bc be c9 16 ce be 5e 7c 71 3d
       -0.20316988 -0.36852735 -0.4025176 0.058956496
000310 af a9 f9 bd b8 4b 4c 3d c6 71 1d 3c 8e 1c d9 bd
       -0.12190568 0.0498769 0.009609645 -0.106011495
000320 e1 8d 5c 3e c7 bb b6 be 1e 63 0b bf bd cd 45 be
       0.21538498 -0.35690138 -0.54448116 -0.19316764
000330 5b c4 c9 be dc 9d 53 bd 9e a6 1f be 5e 38 ca bd
       -0.3940762 -0.05166422 -0.15590903 -0.098740324
000340 c5 b0 c4 3e c7 40 8f be c5 a6 42 be b8 32 0f be
       0.38416114 -0.2797911 -0.1900893 -0.13984191
000350 58 ab be bd 26 93 09 bd 71 38 5b be eb e8 85 bd
       -0.09310025 -0.033587597 -0.2140825 -0.06538566
000360 41 8d 77 bf 7e 89 22 bf 92 08 75 3d 7a b5 58 be
       -0.9669991 -0.63491046 0.059822626 -0.21162978
000370 2e ca c1 be a7 c7 f5 bd c3 a8 e8 bc 5b 5a ed 3b
       -0.37849563 -0.12000971 -0.028400784 0.007243437
000380 e7 f4 b0 be b2 c0 6c be f9 64 7e 3e 19 e3 24 bf
       -0.34561846 -0.23120382 0.24843206 -0.64409024
000390 70 25 25 3e 12 04 cf be 96 0c 02 be 53 cc ab be
       0.16127563 -0.40432793 -0.12700114 -0.33554325
0003a0 f3 4d d6 bd d3 f1 75 3d 57 f1 c3 be be a0 70 3d
       -0.104640864 0.060045075 -0.38270065 0.058747046
0003b0 28 a2 d0 be fa 50 4d be fc af 61 bd 5b cf d1 be
       -0.40748715 -0.20050421 -0.055099472 -0.40978512
0003c0 2f c4 40 bd 1a ae 00 be 61 80 03 bf 88 8e 0f be
       -0.047062095 -0.12566414 -0.51367766 -0.14019215
0003d0 84 29 2b bb 68 2b 0a bf b3 b4 aa be dd 66 94 3c
       -0.0026117275 -0.5397248 -0.33340988 0.018115455
0003e0 d3 be cd be 20 c0 89 3a 09 ae 11 3e 81 32 d1 be
       -0.4018465 0.0010509528 0.14226545 -0.40858844
0003f0 e5 b1 32 be 11 34 5f bf 23 54 7b be 3d 90 21 be
       -0.17450674 -0.8718882 -0.24543814 -0.15777679

fc2.weight f4 [300, 400]
000000 8e 95 08 bd 9f 37 1c bd c7 01 07 bd d6 b4 e7 bb
       -0.03334575 -0.038138982 -0.03296068 -0.007071118
000010 e4 fe 8c ba a4 0e 85 3d 9d 3d bc 3c 8d 8d 48 bd
       -0.0010757116 0.06496933 0.022978598 -0.04896312
000020 b5 a8 d1 3c 07 e2 4f 3d 4f 27 f0 3c 0d 8f 19 3c
       0.025593141 0.050752666 0.029315619 0.009372485
000030 96 ea 39 bd c5 63 74 3c a2 44 dc bb 68 16 b7 bd
       -0.045389734 0.014916365 -0.006722049 -0.089398205
000040 1f 5a c9 bd d1 49 d5 bd f9 a0 88 3d 63 3f 16 bd
       -0.09831642 -0.1041447 0.06671328 -0.036681544
000050 7b 30 1f be d3 42 34 bd b2 e2 a4 3c 4b 8c 9f 3c
       -0.15545838 -0.04400904 0.020127628 0.019476077
000060 71 77 a4 bd 8e d6 29 3d 72 bb ab bc ef 69 42 3d
       -0.08030594 0.04146438 -0.020963404 0.047464307
000070 98 56 90 bc fb 78 36 bd e8 e6 89 bd 38 73 26 bc
       -0.017619416 -0.04454897 -0.06733495 -0.010159306
000080 52 75 90 bc a6 df 87 bd 81 b3 e4 bc 2c f2 c2 bc
       -0.017634068 -0.066344544 -0.027917625 -0.023797117
000090 e0 76 eb bc 55 78 12 bd 43 6c e8 bc 5c 5a cf bc
       -0.028743207 -0.03575929 -0.028371936 -0.025311641
0000a0 48 60 20 3c 54 3a 1e bc 15 38 c2 3c e3 bd 80 3c
       0.00978858 -0.009657461 0.023708383 0.015715545
0000b0 23 b3 04 bd 7f a4 71 bc ec 82 1e 3d 52 78 4e bd
       -0.0323974 -0.014748692 0.038699076 -0.050407715
0000c0 10 a8 5f 3c 51 81 2a bd d2 b4 86 bb e0 7f 08 bd
       0.013650909 -0.041627232 -0.004110911 -0.033325076
0000d0 06 41 d5 bc 49 1b d2 3d 5c a3 dc 3a 45 46 ab bd
       -0.026031982 0.102591105 0.0016833353 -0.08363012
0000e0 33 a9 18 3e aa 75 2b 3d 83 dc 39 3c a8 a4 11 be
       0.14908294 0.04186026 0.011344078 -0.14222968
0000f0 34 7e f6 3d af 5d 0b bd 27 8b bf bd 4d 5f 4f 3b
       0.1203579 -0.03402489 -0.09352713 0.0031642497
000100 a7 3a 1c bd 5b cd 71 3c 46 54 d9 3c ea 31 95 3d
       -0.038141873 0.014758433 0.026529443 0.07284911
000110 8a 27 ce bb f0 1b 22 bc ac f6 63 bd e4 3b 24 3d
       -0.0062913345 -0.009894356 -0.055655167 0.04009618
000120 2e b7 6c bd 4d f7 c4 bc 56 1c 07 be f6 f9 29 be
       -0.05779188 -0.024043703 -0.13194403 -0.16599259
000130 d2 2d a8 bd 70 b0 00 bc 54 1f 63 3d fd 8f 6e bb
       -0.082118645 -0.007854566 0.0554498 -0.0036401742
000140 c6 82 fb 3c a3 43 2a 3c fa 34 46 3d 02 60 0c bd
       0.030702006 0.010392102 0.048390366 -0.034271248
000150 ce 90 ff 3a ed 47 5c 3d 1b a5 48 bd 13 c6 b3 bd
       0.0019498111 0.05377953 -0.04898558 -0.08778014
000160 0e 46 49 3d db 48 f1 3b 71 b9 0e 3c f8 d9 53 3d
       0.049139075 0.0073634214 0.008711205 0.051721543
000170 dc 9c f7 3c 7e 49 c4 bd 31 3d 42 ba 54 4d 2a 3d
       0.030226164 -0.0958433 -0.0007409631 0.041577652
000180 72 de 12 3d 4b a3 43 3c d4 96 2e 3a 5b ae 57 bd
       0.03585667 0.011940788 0.00066600484 -0.052656513
000190 dd 66 03 be ae 71 dc bc 87 9d b2 3c 3c e6 9c 3d
       -0.12832208 -0.026909675 0.02180363 0.07661101
0001a0 39 46 56 3d e0 de 8a 3d e3 0a d5 bc 3a ea d6 bc
       0.052313063 0.06780791 -0.026006168 -0.026234735
0001b0 95 f1 bc 3c b6 7d bf bd 02 30 64 bc c1 ff cc bb
       0.023064414 -0.09350149 -0.013927462 -0.006256074
0001c0 57 02 94 bd 81 b7 d6 bd 74 1f 87 bd 9e 77 19 bd
       -0.07227009 -0.10484219 -0.06597796 -0.03746759
0001d0 a0 4f 2e bd 42 f7 14 bd 39 98 f4 bc 02 ea 3f 3d
       -0.042556405 -0.036368616 -0.029857742 0.046854027
0001e0 aa b3 96 bd 0b e6 21 bd c8 e8 22 bc f6 0d 35 bd
       -0.07358487 -0.039526027 -0.009943195 -0.044202767
0001f0 a1 0d 3b 3d 3d 9a e4 3c d7 10 2f be 59 d6 3e 3a
       0.045667294 0.027905578 -0.17096268 0.0007279865
000200 23 56 61 3d 6c b5 99 bd 24 0c 4e 3d 1e 24 79 3d
       0.055013787 -0.075053066 0.050304547 0.06082546
000210 bd 00 45 bc e9 d1 d6 3c 6b 3d cf bc b7 0c 27 3d
       -0.012024102 0.02622314 -0.025297841 0.04078361
000220 f1 84 59 bc 4a 16 69 bd b1 68 02 3c 54 27 e5 3c
       -0.013276325 -0.056906022 0.007959531 0.027972855
000230 ce f1 33 bd 60 95 97 3d f9 d0 cb bb a1 91 81 bc
       -0.043931775 0.07401538 -0.00621998 -0.015816512
000240 9c 6e 77 bd 21 cc da 3c be ed 59 3d d6 e4 6c bb
       -0.06040822 0.026708664 0.053205244 -0.003614714
000250 98 9c c1 3c 26 29 d4 bc db 63 5a 3d 3b eb 72 be
       0.02363424 -0.025898527 0.053317886 -0.23722546
000260 5f 9e b2 bc e9 94 de 3c 23 c3 cf 3c 51 f6 8c 3d
       -0.021804033 0.027170615 0.025361603 0.068829186
000270 25 fb 07 3b c0 f7 2f 3b 1e 2f 1b be f9 e1 af 3c
       0.002074906 0.0026850551 -0.15154693 0.021470057
000280 83 d1 2d bb 52 90 9e bc a4 e3 59 3d a3 cd 14 3d
       -0.0026522584 -0.019355927 0.05319561 0.036328923
000290 8f 68 1e 3d f3 d8 cd 3c 3f 55 65 3d 9a 79 27 bd
       0.038673934 0.025127864 0.0559895 -0.040887453
0002a0 f2 03 9c bd 73 e0 7c bd 0d 68 67 3c 2a ba 1d 3c
       -0.0761794 -0.06173749 0.014123929 0.0096269045
0002b0 db 26 27 39 52 43 ac 3c fc 93 33 3d 0b 2d 20 3e
       0.00015940836 0.021028195 0.0438423 0.15642183
0002c0 0e aa 76 bd 41 4b 06 3d f0 32 04 bd a2 7c d1 bb
       -0.06022077 0.03278661 -0.03227514 -0.006393031
0002d0 07 6f ab 3b 5c a3 3d ba ad 6c df 3c 7a d3 d8 3b
       0.0052317414 -0.000723412 0.0272735 0.006617007
0002e0 84 32 ab bd 44 cd 37 bd 7e ab 11 3b 4b c4 99 bc
       -0.083592445 -0.04487349 0.0022227461 -0.018770358
0002f0 e2 ed c3 3c d9 4a 2a 3d 4a ce ec 3d ae f2 e0 bc
       0.023917142 0.041575287 0.11562784 -0.027459469
000300 68 14 01 3d 40 28 eb 3b a5 9d c0 ba f4 f4 b3 bc
       0.0315136 0.007176429 -0.0014695419 -0.021967389
000310 63 bd c7 bc 76 2f 93 bd b0 f8 26 bd 88 0d 01 be
       -0.024382299 -0.07186787 -0.04076451 -0.12602818
000320 b8 db 14 3d 24 a6 df 3c e1 35 27 3d 67 9d 8a ba
       0.036342353 0.027300902 0.040822867 -0.0010575474
000330 48 00 c0 bd 13 31 52 bd 2b de a0 bd 84 1b da bb
       -0.09375054 -0.051316332 -0.07854875 -0.006656112
000340 c2 8f 90 3b d9 83 a8 bd e8 0b a7 bc f5 b5 87 bc
       0.0044116685 -0.08228273 -0.02039142 -0.016566256
000350 11 4c 44 3d 9a d2 ca bc 37 90 51 bc 33 ca 95 3d
       0.047924105 -0.024758626 -0.012790731 0.07313957
000360 9e 14 8e bd 53 fe ee bc c8 19 11 bd c4 05 44 bd
       -0.06937526 -0.029174006 -0.035424978 -0.04785706
000370 e9 5e 7b 3d c1 14 8a 3c ef b7 1a bd 7d cd 1e bd
       0.06136981 0.0168556 -0.03777307 -0.038770188
000380 6e 15 58 bd 0c 8e 33 3d 5e 23 55 bc 23 20 4f 3d
       -0.052754812 0.04383664 -0.0130089205 0.050567757
000390 af 78 3c bd 4b 9f c1 3c c8 ad 8a 3d b3 de c3 bd
       -0.04601353 0.023635527 0.067714274 -0.09563961
0003a0 d7 64 18 3d a5 0b 48 3c 79 b6 cc 3d 1c 52 88 bd
       0.037205543 0.0122098075 0.099957414 -0.06656286
0003b0 e1 d7 ba bd 02 bc a7 bd e7 80 06 3d 56 c3 27 3d
       -0.09123207 -0.081901565 0.032837775 0.04095777
0003c0 d6 27 32 3d ec 6a ac ba c9 b1 0c 3c 9a 05 d6 bc
       0.04349502 -0.0013154424 0.008587309 -0.026125718
0003d0 e1 ea a7 bd fd f3 91 3c 38 53 1d be f2 5c cd 3c
       -0.081990965 0.017816538 -0.15363777 0.025068734
0003e0 d3 be 69 3d 97 31 5a bd 3e 9d 87 3d ac bd 85 bd
       0.05706675 -0.05326995 0.066217884 -0.06530318
0003f0 79 6c c4 bc 1d 15 35 bd c3 2a fc bb 1d 86 4c be
       -0.023977505 -0.04420959 -0.0076955273 -0.19973035

fc2.bias f4 [300]
000000 d4 b1 12 be a2 cd fc bd 5c fc 80 bd 7c 24 a1 bd
       -0.14325649 -0.12343909 -0.06298134 -0.07868287
000010 22 8d a7 bd bb a5 bb bd 9b fd f4 bd ac 85 83 bd
       -0.08181216 -0.0916247 -0.11962434 -0.0642198
000020 ff 0d b5 bd 66 06 b5 bd b7 6d 1a be 44 97 07 be
       -0.0884056 -0.08839111 -0.15080915 -0.13241297
000030 34 b3 a0 bd 26 a9 5b bd bf 20 2e bd be 1b b6 bd
       -0.0784668 -0.05362811 -0.042511698 -0.0889201
000040 24 3d 43 be e4 23 d0 bd 2d da f6 bc d9 57 b2 bd
       -0.19066292 -0.101630956 -0.030133331 -0.08708162
000050 83 05 9f bd e0 ab a6 bd c6 9a 99 bd 95 b9 0e be
       -0.07764723 -0.08138251 -0.07500224 -0.13937981
000060 d6 5c dc bd a0 22 14 be 63 fc 44 bd 04 8e 3d bd
       -0.107598945 -0.14466333 -0.048092257 -0.046278015
000070 44 14 50 bd 91 54 0a be f3 ee d1 bd d5 df 1a be
       -0.050800577 -0.13508822 -0.10250654 -0.15124448
000080 f6 c8 2d be c7 a1 e6 bd 4e dd d1 bd b9 e0 f1 bd
       -0.16971192 -0.11261325 -0.10247289 -0.118104406
000090 65 b2 ed bd 16 ba 35 be b5 fc 97 bd 62 1e b1 bd
       -0.11606292 -0.17746767 -0.07421247 -0.08648373
0000a0 79 c2 00 be 4b c6 15 bd 48 2e af bd 1d 79 c7 bd
       -0.12574185 -0.03656606 -0.08553749 -0.097398974
0000b0 43 0d 83 bc 2f 4b 79 bd 42 58 8e bd 7f 85 26 be
       -0.015997535 -0.060862716 -0.069504276 -0.16261862
0000c0 f9 f8 97 bd 9c 6c cd bd e5 33 1e be c2 06 00 be
       -0.07420535 -0.10030481 -0.15449484 -0.12502578
0000d0 4a bb 1e be 55 c3 c7 bd 1f ae d1 bc 48 12 42 bd
       -0.15501133 -0.097540535 -0.025595723 -0.047380716
0000e0 5a 65 9e bd 60 68 08 be 37 c8 07 be 3a fb 30 be
       -0.07734175 -0.13321066 -0.1325997 -0.17283335
0000f0 d5 cd 17 bd 58 ff 89 bc c0 81 c1 bd cb 4f bb bd
       -0.03706153 -0.01684539 -0.09448576 -0.09146079
000100 89 85 89 bd 59 5c fc bd be 39 3c be 0c 3a 84 bd
       -0.06714923 -0.123223014 -0.18381402 -0.06456384
000110 13 76 96 bd fa 1e 82 bd 79 f9 4b bd 71 13 d6 bd
       -0.073467396 -0.063535646 -0.049798463 -0.10452927
000120 b0 43 30 be fc a2 cf bd 66 63 6b bd 3a 6d ba bd
       -0.1721332 -0.10138509 -0.05746784 -0.091028646
000130 0d cf c7 bd b6 e7 f7 bd c6 d4 48 be b8 74 67 bd
       -0.09756289 -0.12104742 -0.19612417 -0.056507796
000140 44 84 04 be d8 54 88 bd 77 74 1d be 6e 58 35 be
       -0.1294108 -0.06656808 -0.15376459 -0.17709514
000150 c2 d4 81 bd 61 96 2f be 51 35 8a bd 60 3d fa bd
       -0.063394085 -0.17147209 -0.067484505 -0.122187376
000160 64 8f 33 bd 2f 5a 9a bd f3 43 83 bd d9 73 12 be
       -0.04383792 -0.075367324 -0.06409445 -0.14302005
000170 a8 de 3e be 0a 82 75 be 77 ba a4 bd ac a1 75 bd
       -0.18639624 -0.23975387 -0.08043378 -0.059968635
000180 84 26 84 bd bb 33 b2 bd 6a aa e0 bd bf 4d 11 be
       -0.06452659 -0.08701273 -0.10970004 -0.14189814
000190 ef 34 1b be 6a 38 57 bd e7 70 11 be 5a 92 81 bd
       -0.15156911 -0.052544035 -0.14203225 -0.063267425
0001a0 30 70 08 bd c0 e6 2a be ec cf 16 be 26 d6 be bd
       -0.033310115 -0.16689587 -0.14727753 -0.09318189
0001b0 97 2a 11 be 7b 3f 11 be 6f 6b 0d be 3c 88 a0 bd
       -0.14176403 -0.14184372 -0.13810514 -0.07838485
0001c0 0a 48 3b bd 5b de 74 bd 27 79 14 be b6 f2 6e bd
       -0.045723 -0.059782367 -0.14499341 -0.058336936
0001d0 a2 66 ea bd 9e 5b 2c be f6 34 0b be 86 f2 2c bd
       -0.11445357 -0.16831824 -0.13594422 -0.042223476
0001e0 1c 18 b4 bd 30 d3 70 bd 2b 85 e1 bd 81 83 26 be
       -0.08793661 -0.058795154 -0.11011728 -0.16261102
0001f0 a4 86 ec bc 9e 0b 85 3b 2f 09 7b bd f7 fe a3 bd
       -0.028872795 0.004060223 -0.061288055 -0.08007615
000200 a6 c9 99 bd 5a ef 03 be f8 1c b0 bd 13 98 82 bd
       -0.075091645 -0.12884274 -0.08599275 -0.06376662
000210 93 a9 9f bd d0 7f 08 be 71 69 f2 bd 40 77 f1 bd
       -0.077960156 -0.13330007 -0.118365176 -0.11790323
000220 7c 26 76 bd 20 8e ae bd 9d fc 6d bd 7e 7f 8b bb
       -0.060095295 -0.08523202 -0.05810224 -0.0042571416
000230 1f 11 ae bd 1f 5c d3 bd cb 00 bb bd f2 90 7d bd
       -0.08499359 -0.10320305 -0.091310106 -0.06190581
000240 84 98 0d be a5 63 0e be 94 d0 03 be 30 c0 25 be
       -0.13827711 -0.13905199 -0.12872535 -0.16186595
000250 e8 fa 5d bd 69 92 1d be 43 fc 0c be b4 a1 03 bd
       -0.05419436 -0.15387882 -0.13768105 -0.032136634
000260 6c a1 00 be 5b 4e a9 bd 52 15 f3 bd a3 f2 0b be
       -0.12561578 -0.08266898 -0.11869301 -0.13666777
000270 09 27 de bd a9 c4 e8 bd 41 e0 d1 bd 8c 51 a0 bd
       -0.10847289 -0.11365635 -0.10247851 -0.07828054
000280 05 d3 e3 bd 2c e4 90 bd 73 e2 51 bd 04 65 04 be
       -0.11124233 -0.0707477 -0.05124135 -0.1292916
000290 aa 8f b1 bd c1 e7 cc bd cc 1a 04 bd 84 c1 c6 bd
       -0.0866998 -0.10005141 -0.032252118 -0.09704879
0002a0 8e ef 85 bc c5 2e 0f be d0 e2 70 be 9b 8f 95 bd
       -0.01634958 -0.13982685 -0.23524022 -0.07302781
0002b0 07 60 d3 bd 4f 36 11 be f1 9c fb bd aa 96 95 be
       -0.1032105 -0.14180873 -0.122857936 -0.2921651
0002c0 ca f0 fc bd c1 15 50 be ef 6e ca bd e7 f5 e5 bd
       -0.12350614 -0.20320798 -0.0988444 -0.11228543
0002d0 c5 1d d8 bd ad b1 e4 bd 5c 2c bd bd 2c 8a d9 bd
       -0.10552553 -0.111667015 -0.092369765 -0.10622057
0002e0 48 c2 24 be d1 01 01 be 74 c3 7f bd 84 0c bb 3c
       -0.16089737 -0.12598349 -0.062442258 0.022833116
0002f0 e5 46 24 be de 35 86 bd a2 27 e1 bd 3a 33 0b be
       -0.16042669 -0.06553243 -0.109938875 -0.1359376
000300 29 91 5f bd 46 13 c9 bd d5 bc a1 bd 14 0f 04 be
       -0.054581795 -0.09818129 -0.07897345 -0.12896377
000310 4f 70 c0 bd 4a bd f3 bd 83 2e d8 bd 01 6c 8a bd
       -0.09396421 -0.119013384 -0.105557464 -0.06758881
000320 82 16 95 bd 17 ee e5 bc 3c 99 96 bd 76 16 cf bd
       -0.07279684 -0.028067632 -0.07353446 -0.10111706
000330 09 e9 30 be 12 1b 02 be 17 ae b7 bd f2 9f 1e be
       -0.17276396 -0.12705639 -0.08968752 -0.15490702
000340 83 9e 0c be fa a1 81 bd 80 40 d5 bd eb c4 1f be
       -0.13732342 -0.06329723 -0.10412693 -0.15602462
000350 e8 90 d1 bd d2 9c 43 bd f6 65 36 bd 62 47 ea bd
       -0.10232717 -0.047756977 -0.04453083 -0.114393964
000360 26 8b 19 be 1e e5 d1 bd d8 a6 fa bc 25 03 22 be
       -0.14994487 -0.10248779 -0.030597135 -0.15821512
000370 3b 9f 95 bd f7 fa 79 bd ee df be bd 6a 65 ba bd
       -0.073057614 -0.061030354 -0.09320055 -0.091013744
000380 b0 bb d4 bd 8e cf ee bd cd 75 98 bd 75 cd df bd
       -0.10387361 -0.11660682 -0.07444344 -0.1092786
000390 9a 4c c4 bd f9 15 a1 bd 36 7e 1b bd df 04 f9 bd
       -0.09584923 -0.07865519 -0.03796216 -0.12159132
0003a0 1b 4e d8 bd 57 0b 91 bd 81 6f c5 bd 00 c8 25 be
       -0.105617724 -0.07082241 -0.09640408 -0.16189575
0003b0 08 8a bc bd 4f d6 cb 3b e4 42 d9 bd e5 b1 02 be
       -0.09206015 0.006220616 -0.106084615 -0.12763174
0003c0 69 20 14 be ef 90 b6 bd d1 35 c5 bc c1 25 26 be
       -0.14465488 -0.08914363 -0.024073513 -0.1622534
0003d0 9a 75 7d bd 70 9f 87 bd c1 25 a6 bd ce 8b 06 be
       -0.06187973 -0.06622207 -0.0811267 -0.13139269
0003e0 61 b2 26 be 5f b3 ad bd 35 1f ab bd 00 4b a5 bd
       -0.16278984 -0.08481478 -0.08355562 -0.08070946
0003f0 50 30 92 bd 5f b0 94 bd 3b 38 03 be 67 6c c0 bd
       -0.07138121 -0.072602026 -0.12814419 -0.09395676

fc3.weight f4 [1, 300]
000000 d2 97 22 3c a1 70 93 b9 1e e5 b5 3c 44 cf 29 bc
       0.009923892 -0.0002812194 0.022203978 -0.010364357
000010 ff 07 d4 3c 21 77 39 bc 77 98 b8 3b 26 1b 7b 3c
       0.02588272 -0.011319906 0.0056334096 0.015326297
000020 13 15 13 bc 91 a7 d0 ba 95 41 06 bb 2f a6 6d bc
       -0.008977192 -0.0015919079 -0.0020485867 -0.014504953
000030 72 82 03 3b 1d cd 0e 3c b5 ad 48 bc b6 f0 19 bb
       0.0020066765 0.008715895 -0.012248446 -0.0023489422
000040 28 35 9f bc 0c 1a 6d bb b1 9e e0 b8 ef 68 12 bc
       -0.019434527 -0.0036178855 -0.00010710711 -0.008936151
000050 ec 68 84 bc 32 cf 21 b8 59 ea f2 3c fe c3 fa bc
       -0.016163312 -3.8578357e-05 0.029652761 -0.030611034
000060 93 62 c6 3b 79 7c d1 3c af a9 10 3c 6e 0a 14 bb
       0.0060542314 0.025572049 0.008829518 -0.0022589224
000070 4f d1 53 bc 39 01 30 bc be d2 62 bc 01 d5 62 3c
       -0.012928321 -0.010742479 -0.01384419 0.013844729
000080 47 c3 1a bd ab ea c5 bb d7 d7 87 bc 4b 3a 74 3c
       -0.037783887 -0.0060399375 -0.016582413 0.014906476
000090 cd cb b4 bc 7d 4d 5a 3c 02 66 0b bc de 42 52 bc
       -0.022069836 0.013324139 -0.008508207 -0.012833325
0000a0 46 13 d9 3c 00 78 88 bc 44 eb 96 3c 59 89 df 3a
       0.026498448 -0.016658783 0.01842273 0.0017054483
0000b0 50 be 08 3c dc d1 cf 3a 52 5a 3a 3c 7e 33 ad bc
       0.008346155 0.001585539 0.011374073 -0.021142717
0000c0 f8 f1 e0 bb 5f b4 fe 3b 87 f0 a7 bc 09 a1 f6 bb
       -0.0068647824 0.0077729668 -0.020500435 -0.007526521
0000d0 94 59 65 3b d8 cd de bc 2b bc 21 bb 26 f2 2b bc
       0.003499602 -0.027197763 -0.0024678807 -0.010494744
0000e0 6d 42 47 bc 82 16 95 3c be f4 d1 3c a5 d1 ed bb
       -0.012161833 0.01819921 0.025629397 -0.0072576576
0000f0 f6 fa 79 3a 97 d4 4b 3b 98 ac 89 ba b3 24 83 bc
       0.0009535992 0.0031102055 -0.0010503707 -0.01600871
000100 e8 50 fa bc 29 12 0a 3d 31 96 a4 bb cb 04 96 3c
       -0.030556157 0.033708725 -0.005022787 0.018312832
000110 83 01 75 bb 7b d6 d8 bc 15 16 d1 3c 7c e1 1d bc
       -0.0037384934 -0.02646946 0.025523225 -0.009636279
000120 bb f4 6b bc b1 4e c3 3c 77 08 15 3b 85 5a 34 3c
       -0.01440161 0.023841234 0.002274064 0.01100791
000130 18 c4 25 3d ae 39 5c bc 90 ce e7 3c 96 9e 6f 3c
       0.040470213 -0.013441486 0.028296739 0.014625212
000140 96 7b 35 ba 1d 57 5b 3c f8 fb 4a bc 5b 50 fe b9
       -0.0006923018 0.013387469 -0.012389176 -0.00048506525
000150 64 46 e3 3c 80 c2 9d 3c 85 fe 98 3b 0d 8f 19 3c
       0.027743526 0.019257784 0.004669013 0.009372485
000160 56 bd c8 3c 3d 15 10 bb 56 8e 90 b9 03 f2 69 3c
       0.024504345 -0.0021985315 -0.0002757187 0.0142788915
000170 56 b1 95 3b f1 60 00 3c c9 10 94 bc d0 5f 71 ba
       0.004568259 0.007835613 -0.01807441 -0.00092076976
000180 f0 6d c3 bc a9 c9 60 bb 1c ac a9 3a 7e 18 a3 3c
       -0.023856133 -0.0034299886 0.0012944969 0.01990914
000190 6d 4d 3e 3b f4 84 7f 3b d2 7e 01 3d 55 40 c8 3c
       0.0029037849 0.0038989158 0.031615086 0.024444738
0001a0 e2 5c b1 bc 45 82 a7 3c 5a 2d c4 bc 51 b8 89 ba
       -0.021650735 0.02044786 -0.023947407 -0.0010507201
0001b0 8e 79 d2 3c 14 d9 a3 3c 85 eb f6 3a 12 84 60 bc
       0.025692727 0.020000972 0.0018838501 -0.013703363
0001c0 34 65 c2 3c 37 9d f9 bc eb bc 17 3d 76 23 f2 bb
       0.023729898 -0.030470474 0.0370454 -0.007389481
0001d0 25 82 77 bb 51 98 f2 3b 20 ff 06 bc cf e1 9d bc
       -0.0037766781 0.0074034114 -0.0082395375 -0.019272713
0001e0 a1 e9 69 3b 71 83 8a 3b 59 5c fc bc 23 25 8e 3a
       0.0035692232 0.004227095 -0.030805754 0.0010844808
0001f0 37 6f eb bc cc e9 fe 3c 72 93 0e 3c 34 41 17 bc
       -0.028739555 0.031117342 0.008702146 -0.009231854
000200 ce 43 78 bc f1 c3 e2 3c 10 33 00 3d df 0f 70 ba
       -0.015152885 0.027681323 0.031298697 -0.00091576384
000210 0e d4 3f b9 0d f8 0d ba 0a 10 fd 3b 42 0a e0 bb
       -0.00018294176 -0.00054156856 0.0077228593 -0.0068371603
000220 4a a5 b0 bb fa 20 57 3a eb f8 cf 39 9e 25 dd bc
       -0.0053907977 0.0008206513 0.00039667575 -0.026995476
000230 8f 06 c2 bb 17 6e 89 3b 7c 76 88 bc 84 28 59 bc
       -0.005921192 0.004194032 -0.01665806 -0.013254289
000240 c6 b0 87 ba 81 2f df bc 4c dc 03 3d e9 80 00 3c
       -0.0010352365 -0.027244331 0.032192513 0.007843235
000250 8d 9b 3e 3a 2a 24 ce 3c 5a c6 b1 bb 03 f0 57 3c
       0.00072711037 0.025163729 -0.0054252567 0.013179782
000260 5b c6 88 bb f6 f9 ab bc e5 55 2b bc c7 fc 7a 3c
       -0.0041740364 -0.020993214 -0.010457491 0.015319056
000270 de 8f 2d bc 84 87 97 bb 28 e0 c3 bc 67 2c 92 bb
       -0.010593383 -0.004624309 -0.023910597 -0.0044608596
000280 08 43 5f bc 60 8e bb 3b 55 3c 9d 3c a5 e0 8e bc
       -0.013626821 0.0057237595 0.019193808 -0.017441103
000290 a7 b2 24 3c 52 13 9e bc 35 ce 86 38 49 11 bb 3a
       0.01005236 -0.019296322 6.428027e-05 0.0014272119
0002a0 ab 46 e1 bc 3c 27 8d 3c 22 1d f3 3b b9 34 b9 bc
       -0.027499517 0.017230622 0.0074192444 -0.022608148
0002b0 61 b4 7b 3c 9d c8 3d bc e2 56 32 3a ad 4a c1 bc
       0.01536283 -0.011583474 0.00068031077 -0.023595178
0002c0 2c 7f e2 3c 27 ac c3 3c 42 04 e1 bc de 69 b6 3c
       0.02764853 0.0238858 -0.02746785 0.022267278
0002d0 77 71 3f bc c0 bc b6 bc af c1 d3 3b 6a 9d 94 3c
       -0.011684767 -0.0223068 0.006462298 0.018141467
0002e0 2d ca b7 bc 0e ce 40 ba 3a 92 f2 bc 55 b5 b5 3c
       -0.022435272 -0.00073549233 -0.029610742 0.022181192
0002f0 21 68 0a 3c 5e e6 0f 3d ea 52 e6 3a e0 e5 af 3a
       0.008447678 0.035131805 0.0017572318 0.0013419949
000300 29 f0 1d 39 45 c9 2a bc 5c c7 7f bb 0e 80 f8 ba
       0.00015062153 -0.010423963 -0.003902874 -0.0018959062
000310 e8 de 70 3b 73 4a a9 bb 3f 41 97 3c 26 96 10 3c
       0.0036753956 -0.0051663457 0.018463729 0.008824861
000320 33 ca 95 bb 60 62 09 3b dd ba 5a bc a2 b3 fa 3c
       -0.004571223 0.0020963177 -0.013350216 0.030603234
000330 2a cf db 3c 2a 24 ce 3c da 42 8b bc 89 92 d5 3b
       0.026832182 0.025163729 -0.01699965 0.0065177125
000340 7c c8 05 3c bb 17 c5 bc c8 fc fa bc 44 f8 62 bc
       0.008165475 -0.024059167 -0.030638114 -0.013853136
000350 86 48 c0 3a 2d 5b a1 3c 64 68 cf bc 95 b5 e4 bc
       0.0014670051 0.019696796 -0.025318332 -0.027918616
000360 33 ae 28 3c fb e2 7d 3c 25 21 64 3c 96 d6 49 3c
       0.010295439 0.015496011 0.013923918 0.012319228
000370 aa cd 8a bc 3c 32 84 3c 89 66 05 3c e1 3b cc 3c
       -0.016943771 0.016137235 0.008142122 0.024930896
000380 e8 75 09 bb 87 cc d1 3c 5f cf 1a 3a 05 75 88 3c
       -0.0020974819 0.025610222 0.00059055345 0.016657362
000390 db 47 03 bb f8 df f9 3c a6 08 d3 3c e5 73 ed bc
       -0.0020031843 0.030502304 0.02576096 -0.028985927
0003a0 50 5c 1c 3c 51 64 c2 3b 78 18 89 3c d6 b2 f8 3b
       0.009543493 0.005932369 0.0167353 0.0075896783
0003b0 f5 f7 f9 3c 57 bc 41 bb 06 1d a1 bc ce ee d8 3c
       0.030513743 -0.0029561722 -0.01966716 0.026481058
0003c0 d3 67 0c bd 8f df 5d 3c 07 96 98 b9 c4 81 29 3a
       -0.034278702 0.01354207 -0.00029103478 0.0006466175
0003d0 a4 dd 6b bb d6 4f d3 3c d1 03 d6 3c 00 56 9c bc
       -0.0035990262 0.025794905 0.026124867 -0.019083977
0003e0 b1 fe a5 bc 8e b1 ac ba 92 f4 c4 bb 25 37 52 bc
       -0.020263048 -0.0013175474 -0.0060106004 -0.01283053
0003f0 f9 19 0a bb e1 5e b6 3c 01 ef 09 ba 20 9e 1d 3c
       -0.002107261 0.022262039 -0.00052617496 0.0096202195

bn1.weight f4 [400]
000000 b1 be c7 3d 9f 7f 2b 3e c7 4b a8 3d 6e 96 0e 3f
       0.097531684 0.16747902 0.082175784 0.5569829
000010 dd 15 81 3e 94 ec b2 3e cb 84 ee 3d 20 f7 2a 3e
       0.25211993 0.3494612 0.11646422 0.16695833
000020 8d d9 10 39 fb 6f 5f 3e a6 01 0c 3e ea 12 47 39
       0.00013813954 0.21820061 0.13672504 0.00018985165
000030 d3 12 92 3c fb 99 e5 ba 91 3e 66 3f 79 9d 3e 3e
       0.017831242 -0.0017517203 0.8993922 0.18614759
000040 23 ff f8 39 e7 e8 02 3e f0 bf 2d 3f cc cc 27 bb
       0.00047492338 0.12784158 0.67871 -0.0025604246
000050 90 29 24 3e d4 49 d6 3e eb 9f 8d 3d 57 e7 c2 3d
       0.1603148 0.418532 0.069152676 0.09516781
000060 58 e9 56 3f ac 45 7f b9 7d 4e e7 3e 35 37 8b 3e
       0.83949804 -0.0002434465 0.4517707 0.27190557
000070 f0 5b d7 3e e8 29 37 3e d1 a2 ee 3e db 48 62 3e
       0.4206233 0.1788708 0.46608594 0.22098105
000080 41 5c 31 3f ee 9e 2d 3a 7b a6 61 3d f4 52 6c 3e
       0.69281393 0.00066231086 0.05509041 0.23078519
000090 8d ee 9c 3a 13 6e 7b 3d bd bd de 3d 3d 99 83 3e
       0.0011972949 0.06138427 0.108760335 0.2570285
0000a0 29 f6 10 39 e0 d6 e4 3d 0a b2 b5 3e 33 83 aa 3e
       0.00013824612 0.11173797 0.35487396 0.33303222
0000b0 3d 1e 02 bb 46 35 85 3d 70 f2 bf 3a de 8a 19 3e
       -0.001985445 0.06504302 0.0014644396 0.1499438
0000c0 5f 10 08 3a a7 bd 01 3d cf eb a9 39 b6 75 2e 3e
       0.0005190428 0.031675007 0.00032409883 0.1703709
0000d0 77 44 08 3b d6 2e 20 bf 99 ad 8c 3e d9 28 cd 3d
       0.0020792761 -0.62571466 0.27476195 0.10017557
0000e0 0f e4 b6 3d 0d ca bc 39 c4 96 20 3d 80 b3 81 3d
       0.089302175 0.00036008694 0.03920628 0.06333065
0000f0 ad 44 11 3e 86 6b a3 3d 20 23 8d 3d 89 7e 90 3c
       0.14186354 0.07979493 0.06891465 0.017638462
000100 b1 ce bb 3a 13 6e 1b 3f ec 95 07 3f 72 39 89 3d
       0.0014328567 0.60714835 0.5296314 0.0670041
000110 92 1b f7 3d 6f 28 90 3e 6f 82 25 ba 45 7a 35 3e
       0.120658055 0.28155848 -0.00063136866 0.17722423
000120 c0 dc bc 3e 40 80 cb 3d da d9 17 3e 34 4d 03 3e
       0.3688717 0.09936571 0.14829198 0.1282242
000130 75 1d 08 3e cd c4 a9 3e 16 d0 b3 b9 b9 be bf 39
       0.13292487 0.3315796 -0.00034296577 0.00036572458
000140 30 07 2e 3c 39 fe 4e 3e 06 1d 75 3d 27 95 b2 39
       0.010621831 0.20214166 0.059842132 0.00034061933
000150 6d aa ee 3e ae 47 db 3d 9d 50 0b 3e 96 5c cc 3d
       0.466144 0.10707031 0.1360497 0.09978597
000160 46 4d 17 ba 74 ef da 3a d6 97 9d 3d a9 e5 4f 3e
       -0.00057717075 0.0016703443 0.07694976 0.20302452
000170 c5 dc c7 3d a8 f6 21 3e d8 70 75 3e 18 f0 97 3d
       0.09758905 0.15816748 0.23968828 0.07418841
000180 6b 0c 5b 3e 30 f5 f1 39 95 0e c9 bb c4 b2 7e 3e
       0.21391456 0.0004614978 -0.0061357715 0.24872881
000190 cf 0c 1e 3e 22 8e 25 3e 32 34 99 3e 8e 78 29 3e
       0.15434574 0.161675 0.29922634 0.16549894
0001a0 46 aa a5 39 68 90 85 3e c7 4f 39 3e e4 06 09 3e
       0.00031598116 0.26086736 0.18096839 0.13381535
0001b0 73 0f e4 38 6c c1 5a 3d fb ff c6 3d c0 ab 5e b9
       0.00010874765 0.053407118 0.09716793 -0.00021235552
0001c0 d6 88 e7 3d f1 2c 57 b9 fe ef ed 3d c4 e5 76 38
       0.11305396 -0.0002052074 0.116180405 5.8864956e-05
0001d0 63 c5 39 39 f4 de de bc 52 ca d7 3d 06 a9 eb 3d
       0.00017716507 -0.027205922 0.105366364 0.11506848
0001e0 11 ba 08 3e 8e 6f 77 3e 3e ca 39 3e 37 20 ef 3d
       0.13352229 0.24163648 0.18143556 0.11676066
0001f0 8f e5 cf bc 2b 11 81 bb 7e 39 3a 3e d3 a5 6a 3e
       -0.025378017 -0.003938814 0.18185994 0.2291482
000200 fc 7c 32 3e d2 18 0c 3e 44 e5 41 3e a3 e4 10 3d
       0.1743049 0.13681343 0.18935114 0.035374295
000210 b4 c2 32 3e c3 42 0d 3f 71 10 71 3a d5 9a b5 3d
       0.17457086 0.55179995 0.00091958704 0.088674225
000220 c6 7b 2c 3e a4 f4 d1 3d a3 24 9c 39 10 16 44 3e
       0.16844091 0.102517396 0.00029781935 0.19149041
000230 99 49 d0 3d a4 e1 49 3e 12 7e 00 3f 90 cc 78 39
       0.10170288 0.19714981 0.5019237 0.00023727329
000240 49 22 79 3e 7a 8e 9b 3a 67 17 2c 3e 69 a9 92 3d
       0.24329485 0.0011868023 0.16805802 0.07161219
000250 1c f5 cc 39 d6 4c 31 3e c4 a1 d1 3e f7 bf 2d 3d
       0.00039092533 0.17314467 0.4094373 0.0424194
000260 62 4b cf 3e 0f 69 0c 3f fd 10 12 3e c4 e0 8e 3e
       0.404872 0.54847807 0.14264293 0.27905858
000270 01 c5 bd 3d 8c 8f 0a 3e b7 e1 8c bd 1f fe 13 ba
       0.09266091 0.13531321 -0.06878989 -0.0005645472
000280 94 2d 1d 3e 86 b5 17 ba ae 74 52 3e 74 3e 59 3e
       0.15349418 -0.0005787242 0.20552322 0.2121523
000290 a2 89 74 3e 07 55 03 3e 89 3e 36 3f 4e d8 41 b9
       0.23880628 0.12825404 0.7118917 -0.00018486494
0002a0 97 d8 39 3e 31 55 56 3e af 69 db 3d c4 ba 81 3d
       0.18149029 0.20930935 0.10713517 0.06334451
0002b0 7a 94 94 3e cb 16 80 3a 0f 56 85 3d 28 5a 11 3c
       0.2901953 0.0009772418 0.06510555 0.008871593
0002c0 27 dd 03 3e a1 05 ae 3d e7 4d ce 3e 00 66 23 3e
       0.12877332 0.084971674 0.4029381 0.15956879
0002d0 e2 cd a7 3a 7e d7 b3 3f c6 3f 02 3f f0 a7 63 3f
       0.0012802447 1.4050138 0.5087856 0.8892813
0002e0 65 d8 db 3d 5a b7 20 3f ee 9f 99 bb d6 21 13 3e
       0.10734633 0.6277977 -0.0046882546 0.14368376
0002f0 cf 23 c2 3e 20 45 fb 3e 94 82 bd 3d 74 2a c9 3d
       0.37917945 0.49076176 0.092534214 0.098225504
000300 84 38 f3 3b 5e 49 30 3d d8 6e 90 3e 5e f2 72 b9
       0.0074225087 0.04303872 0.28209567 -0.00023169207
000310 8d a0 8d 3e 17 1f 43 3f f0 1f 25 ba c1 88 a7 3d
       0.27661553 0.76219314 -0.00062990095 0.081803806
000320 2f 16 09 3f 3b a0 2c 3e 2e 58 43 3e 06 7c 7b 3e
       0.53549474 0.16857998 0.19076607 0.2455903
000330 a3 33 ab 3e 7d 50 4f bd c1 a9 be b9 e7 e8 ef ba
       0.33437833 -0.05061387 -0.000363661 -0.0018303663
000340 c0 cd 09 3e 5a 41 98 3d 80 e4 c9 3d 49 5a 27 3e
       0.13457394 0.0743434 0.09858036 0.16343035
000350 9d 12 94 b8 b8 e2 56 3d 4f e2 ea 3d 1b 8e 13 bb
       -7.060657e-05 0.05246231 0.11468946 -0.0022515121
000360 d6 85 70 3e c1 a5 3f 3e 9e 7d b4 b9 b3 08 31 3e
       0.23488554 0.18715574 -0.00034425867 0.17288475
000370 20 dc 4b 3d 01 0e 01 3e c0 b4 38 bb a7 36 cf ba
       0.049770474 0.12602998 -0.0028183907 -0.0015809134
000380 f6 32 5d 3e 57 9e e4 3d 44 63 dc 3d 4a 0b ce 3d
       0.21601471 0.111630134 0.10761121 0.10060747
000390 84 6a f8 3e d2 72 2e 3e ad f0 b7 3e df 05 a1 3d
       0.48518765 0.17035988 0.3592581 0.07862448
0003a0 2b 0d c2 3d a6 02 26 3e 10 05 02 3e 3e 4e 9c b9
       0.09475168 0.16211948 0.12697244 -0.00029812934
0003b0 87 42 0f 3e ae cc 8b 3a cd 0e 33 3e 7c 2d 2f 3e
       0.13990222 0.0010665858 0.17486115 0.17107195
0003c0 ef a0 f2 37 ad c6 ef b8 c5 a0 0b 3f 09 d1 15 3d
       2.8923589e-05 -0.00011433414 0.5454219 0.036576305
0003d0 22 6f 17 3a 94 c1 ae 3d 4e 61 8a 3d 12 70 8c 39
       0.0005776753 0.08533016 0.06756841 0.0002678638
0003e0 64 02 4a 3e 6e d2 94 b9 6e 47 2f ba f7 f5 21 3e
       0.19727474 -0.00028385542 -0.0006686364 0.15816484
0003f0 42 2b 71 3e e7 0e 84 3e db d6 78 3d 59 28 86 3d
       0.23551658 0.2579262 0.060751777 0.065506645

bn1.bias f4 [400]
000000 54 c5 50 bb 34 7f 89 bc f8 29 99 bb c2 41 c3 3d
       -0.0031855898 -0.016784288 -0.0046741925 0.09534027
000010 33 17 5f 3d 93 d5 36 3d c6 4c 91 3c 14 89 79 3d
       0.054465484 0.044637274 0.017736804 0.060921744
000020 5c e3 81 b8 de dd c0 ba 5d cf 2c 3d 09 17 54 39
       -6.193548e-05 -0.0014714559 0.042189945 0.00020226477
000030 40 f9 61 bb 7c f3 fd b7 5c f6 34 3e 7e 04 4b 3d
       -0.003448084 -3.0273332e-05 0.17672104 0.04956483
000040 5d e3 14 3a bd af ce 3d fd 0d 59 3d 82 e0 4a b9
       0.0005679632 0.10092113 0.052991856 -0.00019347857
000050 ce f7 32 3d 3e 2f 22 3e 53 9a 0d 3c 91 5b a9 3c
       0.043693356 0.15838334 0.008642751 0.020673545
000060 ac 4f 10 3e ce 46 ed b8 4e 1d 79 3c 54 19 1d 3e
       0.14092892 -0.00011314229 0.015204741 0.15341693
000070 3a a4 07 3e bf af 14 3d 79 89 2a 3e bc fe 2f 3d
       0.13246241 0.036300417 0.16654004 0.042967543
000080 09 f1 92 3d 1a f5 32 b7 5b 6c 0d 3c 5f 55 03 3d
       0.0717488 -1.0666694e-05 0.008631791 0.032063838
000090 fa 54 2b 39 0c c2 7b bb c7 f9 65 3d 73 97 9f 3d
       0.00016339487 -0.0038415221 0.05614641 0.077925585
0000a0 dd a0 fa 38 0d 1c d0 39 69 90 82 3c 49 2d ee 3d
       0.00011950892 0.0003969375 0.015938 0.11629731
0000b0 46 6b 6d 38 41 3a 78 3b bf 91 6a b9 e9 e4 64 3c
       5.660511e-05 0.003787652 -0.00022370274 0.013970592
0000c0 75 44 b5 39 48 77 b4 3a 20 cd f2 38 dd 9c 44 3d
       0.00034574015 0.0013768459 0.00011577667 0.04800116
0000d0 3c e9 42 39 e5 de 90 be 3d 26 07 3e b3 90 9c 3c
       0.00018588168 -0.28295055 0.1319818 0.019111967
0000e0 6d e6 11 bd f7 66 bf 39 b7 c0 2b ba b1 bf 4f 3e
       -0.03562014 0.00036507074 -0.0006551849 0.20287968
0000f0 44 7a 81 3d 1c 2b 0c bd 6c de 8c 3b f6 c9 47 bb
       0.063221484 -0.0342208 0.0042989757 -0.0030485368
000100 9c 2c 2a b9 47 b5 5d 3e 7c 5a 93 3d 25 66 e4 bb
       -0.00016229082 0.21651183 0.07194993 -0.0069701844
000110 ed 2a 9e 3d d8 f5 80 3d 0f 60 10 38 79 22 53 bd
       0.07723031 0.06296891 3.4421737e-05 -0.051546548
000120 4d 9b 84 3d 7c f0 9a bb 7f 39 41 3d 70 e8 b6 3d
       0.06474934 -0.004728375 0.047173973 0.08931053
000130 ea 9c 61 3d 6e 99 27 3e 53 be b4 b8 c6 b5 ee 37
       0.055081286 0.16367123 -8.6185195e-05 2.8456456e-05
000140 27 e6 cf 3a 75 a9 7f 3d d7 c1 c3 b9 ad 6d 08 39
       0.0015861437 0.062417466 -0.0003733772 0.00013010828
000150 fb b9 0b bd cd fc e7 3c 66 36 2f 3d 11 68 fc 3c
       -0.03411291 0.028318787 0.042776488 0.030811341
000160 52 5d a5 36 a3 86 d5 39 ce 88 2a bb e9 02 3c 3d
       4.928247e-06 0.00040726838 -0.0026021483 0.045901213
000170 c8 58 6a 3b e1 2a 8b 3d 7d fa 28 3d 0f 50 23 3c
       0.0035758484 0.06795288 0.04125451 0.009967818
000180 7b 76 89 bc 13 f9 8e b8 5d f6 36 ba 77 31 57 3d
       -0.016780129 -6.817481e-05 -0.000697946 0.052537408
000190 d3 1a 10 3d f3 07 60 3c b3 ae 3d 3d c4 8a 08 3d
       0.03518183 0.01367377 0.046309184 0.033335462
0001a0 22 c2 d5 37 76 3e e3 3c 82 97 ca 3d b7 8e c4 3c
       2.5481979e-05 0.027739745 0.09892179 0.023993833
0001b0 ee 28 45 39 92 10 71 3b 6b 26 de bb 91 c3 38 b7
       0.00018802632 0.0036783558 -0.006779482 -1.10127885e-05
0001c0 40 50 41 3d 42 81 0a 3a 5b 7e af 3c 98 cd 5b b7
       0.047195673 0.0005283543 0.021422556 -1.3101286e-05
0001d0 f1 32 a2 b7 d1 f3 b8 ba 42 1e b7 ba 56 db 06 3d
       -1.9335626e-05 -0.0014110749 -0.001397081 0.03292402
0001e0 8c 04 33 bc 89 d0 62 3d 9c 31 f6 3b 55 34 a0 3d
       -0.010926377 0.055374656 0.007513238 0.078224815
0001f0 b8 f3 00 bb 46 bb 20 ba 9d 3f 5d 3e 73 c7 0e 3d
       -0.0019676518 -0.00061314215 0.21606298 0.03485818
000200 0f 8b d0 3c ad 96 4c 3c f9 92 16 b9 d1 6e 49 3c
       0.025456933 0.012487096 -0.00014359866 0.012294487
000210 af f4 15 3d 60 c2 79 3e 03 63 a2 b9 9c 55 09 3d
       0.0366103 0.24390554 -0.00030972817 0.03352891
000220 60 7a f6 3c 64 ec 89 3c e2 6f 8c b7 e1 97 87 3d
       0.03008765 0.016836353 -1.67414e-05 0.066207655
000230 7d 5a c4 bb fb 22 80 bd dd 30 2a 3e 0e 39 8e 39
       -0.0059922324 -0.06256672 0.16620202 0.0002712686
000240 62 fe 87 3d 97 ed 00 b9 05 f3 09 bc be 88 18 3a
       0.066403165 -0.0001229554 -0.008419757 0.0005818716
000250 fd e4 4a 39 09 03 0e 3d d7 a9 83 3c 77 e7 94 3e
       0.00019349526 0.034670863 0.016072197 0.29082844
000260 2d 85 37 3d 0c 4b 66 3e 74 c1 2c 3d 88 5c 41 3d
       0.04480474 0.22489566 0.04217668 0.047207385
000270 ea a7 24 bc ad e2 42 3c 53 21 ea 3d 55 3a 56 b9
       -0.010049799 0.011894864 0.11432137 -0.00020430361
000280 cd 2d c4 3d 6a 69 0b 3a cb c4 70 3d fe e8 38 3c
       0.09579048 0.0005318137 0.058781426 0.011286018
000290 ca a0 bc 3d 08 67 a2 bb 3a 8e 1f 3e bf c2 46 b9
       0.092103556 -0.00495613 0.15581599 -0.000189553
0002a0 26 a5 17 3d 0c 48 19 3e 48 dd 50 3d bc fc e0 36
       0.037022732 0.1496889 0.05099228 6.7051424e-06
0002b0 c4 78 32 3d 98 a1 0d ba 0a cc 05 3b 05 6f 81 be
       0.043572202 -0.00054028025 0.0020415806 -0.25280014
0002c0 2b 52 8b 3d 6b ff e8 bb 83 c3 24 3d c9 eb b5 3d
       0.06802782 -0.0071105263 0.040225517 0.08882863
0002d0 2d b1 61 39 c5 d0 0a 3e 16 a2 eb 3d 8e b6 00 3e
       0.00021523675 0.13556202 0.11505525 0.12569639
0002e0 31 50 4f 3d 74 f3 1d 3e 64 b4 bd b9 75 35 20 3d
       0.050613586 0.15424901 -0.0003618329 0.03911348
0002f0 b1 f6 bd 3d e5 0b 61 3e b4 78 35 be 00 c2 04 3d
       0.09275568 0.21977194 -0.17721826 0.032411575
000300 85 fc 7a ba 15 b6 6b 3c ef ab 25 3d 7f 8d 17 ba
       -0.00095743715 0.014386673 0.04044717 -0.00057812774
000310 99 2f af 3d 25 d1 94 3d 27 e9 cb b8 b5 ca 57 3d
       0.085540004 0.07266454 -9.723222e-05 0.05268355
000320 b4 7b 51 3d 88 ea 33 3d f8 82 5a 3d 8a ca db bc
       0.051143363 0.04392484 0.053347558 -0.026829977
000330 0e 41 c2 3d 9a 74 6c bb 3c a8 92 39 30 2e e0 b9
       0.094850644 -0.0036080242 0.00027972634 -0.00042759022
000340 1f ff 5e 3d ee 3e f7 ba ca 1a ad 3c 07 bb 2a 3d
       0.05444252 -0.0018863359 0.021130938 0.04168227
000350 e9 0c 31 b8 1d 0f 38 3c e7 75 c1 3a b6 d4 3c ba
       -4.2212112e-05 0.011234072 0.0014759869 -0.0007203327
000360 1e 16 e3 3c 98 68 6f 3d 0e 21 d4 38 c4 a1 96 3d
       0.027720507 0.058449358 0.00010115105 0.07355073
000370 63 1c 3b b9 4e bc b6 3c 95 64 8c b9 02 48 97 38
       -0.00017844285 0.022306588 -0.0002677782 7.2136536e-05
000380 e4 63 10 3d 2f f5 d7 bc b9 f7 37 3c 03 6e 5b 3c
       0.035251513 -0.02636203 0.011228495 0.013392928
000390 31 bb e0 3d e3 99 04 3d ad 59 d3 3d de 2d e5 3a
       0.10973204 0.03237332 0.10319839 0.0017484983
0003a0 51 4d 3d bb 1a 87 eb bc 48 80 53 3d 81 1f 0a 39
       -0.0028885195 -0.028750945 0.05163601 0.00013172442
0003b0 2d 08 60 3d 50 c2 13 3a 55 5a 86 3b e1 f7 79 3d
       0.054695297 0.000563656 0.004100124 0.06102741
0003c0 ec 36 41 37 36 12 17 b8 d3 68 88 3d c2 32 18 3c
       1.1516484e-05 -3.6018166e-05 0.06660619 0.009289445
0003d0 74 f4 61 39 59 50 2f 3b 94 84 9b 3e 87 6e c8 b8
       0.00021548738 0.0026750772 0.30374587 -9.5573305e-05
0003e0 64 0d f0 3c 4e 1b 7f 39 53 12 4e ba 92 1e 26 3d
       0.02930326 0.00024328867 -0.0007861007 0.040556498
0003f0 5e 4e cd 3d 9e 7d e1 3d b4 b8 e4 bb 7c 7f c7 3d
       0.10024713 0.11010288 -0.006980026 0.097411126
