weight1/checkpoint_actor_local_0.pth (torch_old, 531550 bytes, 10 tensors)

fc1.weight f4 [400, 24]
-0.059832618 -0.09019855 -0.017308779 -0.076252684 -0.057023928 -0.06566164 -0.056709863 -0.08611638
-0.030040449 -0.06892924 -0.012525875 -0.035383686 0.0022718597 -0.0075862976 -0.01886329 0.017370254
0.012424165 0.013758555 -0.009233839 0.0032126694 -0.055084273 0.056926575 -0.031914696 0.026780717
-0.04577965 0.0064432556 0.028076444 0.026821267 0.06755067 0.14243315 0.013926691 0.019203736
-0.034009352 0.02206286 -0.03418867 -0.015247444 -0.0064711613 0.14051765 0.035171334 0.025120504
0.02220435 -0.023793355 -0.004222552 -0.040729668 -0.030735986 0.08716023 0.009170975 -0.009832165
0.0036944565 0.087517925 0.054288696 0.05543863 -0.020328565 -0.0905962 0.048284452 0.00026151293
0.00018202252 0.043865312 0.008602765 0.047873214 -0.025718454 -0.08854006 -0.011965377 0.03995716
-0.03260174 0.091234446 -0.007880862 -0.03098488 0.019679727 -0.08602484 0.010909579 -0.009009377
0.043266363 0.043174114 -0.00933894 0.026078124 -0.028161554 -0.0484639 -0.0043831207 0.006562927
0.054902103 0.058935404 0.011228597 0.07408004 0.008927578 0.018298982 0.0073557217 0.07824351
0.06664496 0.07265748 0.006282447 0.039254986 0.010238453 -0.07941602 0.0051854453 0.068591334
-0.058183346 -0.014652537 0.035851143 0.05072594 -0.07751678 -0.008019407 0.019651774 0.014353976
-0.033875056 0.028920257 0.029296145 0.021238292 0.008899196 -0.06847255 -0.06208661 0.028452935
-0.0029089095 0.043281276 -0.0042701787 -0.017685672 -0.043048102 -0.18451624 -0.010959132 0.0060621253
-0.028927157 -0.068086095 0.0041535823 -0.010426948 0.027181668 -0.07976188 -0.014043078 0.004934568
-0.008172721 -0.08606576 -0.010749346 0.008771606 0.004557499 -0.040711474 -0.01962521 0.007418705
0.024575789 -0.10425353 0.04118426 -0.026470179 -0.06498918 -0.12813345 -0.045905836 -0.048537564
-0.0042782645 0.101763174 -0.028985452 -0.008080269 0.018909551 -0.070453115 0.03155499 -0.026079055
-0.008147549 0.054895416 -0.007975662 0.0052669896 -0.009425434 -0.15129772 0.0076312227 -0.033080332
0.0312616 -0.010201988 -0.044383943 0.05324855 -0.019829461 -0.23331517 0.045723673 -0.03254343
0.022669464 0.024783647 0.058715295 -0.004712741 0.0133490255 -0.02046346 0.033731867 -0.016729044
0.023772841 0.011329289 -0.038444445 -0.056406863 -0.0026109505 -0.008160938 -0.051174775 0.03806858
-0.0036392242 -0.006716205 0.016202437 0.052980576 0.044704713 -0.024440074 -0.0022675516 0.041329317
-0.015028427 0.027960032 -0.017650468 -0.03268633 -0.002363022 0.032334846 0.025183462 -0.015762558
0.028516278 0.036342967 -0.018369943 -0.0069154967 -0.011554144 0.15075979 0.03505844 -0.05431334
-0.040235594 -0.009437948 0.023486711 -0.022165427 0.0034201043 0.19719471 -0.024766773 0.006513835
0.02631 0.12070011 -0.02340899 0.008788704 -0.09471451 0.04703319 0.024310993 0.016710846
0.034754362 0.17053123 -0.038419046 0.028209124 -0.07040704 -0.027368473 0.047802746 0.034388784
0.13444987 0.13847227 0.0017395538 0.012141344 -0.00734674 -0.11187274 -0.0035383678 0.021033324
-0.02049379 -0.007853362 0.0053574643 0.016552871 -0.02452995 -0.012077529 0.036300875 0.03697186
-0.033037458 0.01153956 0.02489197 -0.004949287 0.020260533 -0.06829314 0.015346153 -0.002287641
00000000: 0c13 75bd 04ba b8bd 24cb 8dbc 5e2a 9cbd
00000010: ec91 69bd 9c79 86bd 9a48 68bd c95d b0bd
00000020: 6317 f6bc c62a 8dbd 5439 4dbc 7cee 10bd
00000030: 7be3 143b 7a96 f8bb 3087 9abc 104c 8e3c
00000040: ba8e 4b3c 906b 613c 8749 17bc a68b 523b
00000050: 0ca0 61bd d72b 693d fcb8 02bd 3c63 db3c
00000060: 7183 3bbd f221 d33b 9200 e63c 46b8 db3c
00000070: 0158 8a3d ffd9 113e c72c 643c 2751 9d3c
00000080: 644d 0bbd 2cbd b43c 6b09 0cbd 6ad0 79bc
00000090: 090c d4bb dce3 0f3e d10f 103d 84c9 cd3c
000000a0: e6e5 b53c 48ea c2bc 555d 8abb 27d4 26bd
000000b0: 09ca fbbc 1081 b23d db41 163c 1717 21bc
000000c0: b21e 723b 993c b33d d35d 5e3d 9e13 633d
000000d0: 1788 a6bc 808a b9bd ebc5 453d ac1b 8939
000000e0: 4cdd 3e39 1dac 333d 9df2 0c3c b416 443d
000000f0: 82af d2bc 7e54 b5bd 6e0a 44bc 1eaa 233d
00000100: 6789 05bd 20d9 ba3d bb1e 01bc 01d4 fdbc
00000110: 6137 a13c cb2d b0bd 17be 323c 119c 13bc
00000120: 1238 313d 57d7 303d 5a02 19bc caa1 d53c
00000130: 0fb3 e6bc 1582 46bd 48a0 8fbb d20d d73b
00000140: 07e1 603d 4066 713d 26f8 373c 47b7 973d
00000150: fa44 123c bfe7 953c 4408 f13b 223e a03d
00000160: 277d 883d 72cd 943d fcdc cd3b d6c9 203d
00000170: 2fbf 273c dea4 a2bd abea a93b 9d79 8c3d
00000180: a951 6ebd 3211 70bc a6d8 123d 01c6 4f3d
00000190: 1ec1 9ebd d563 03bc c2fc a03c f02c 6b3c
000001a0: 92c0 0abd 2dea ec3c 78fe ef3c edfb ad3c
000001b0: efcd 113c 563b 8cbd 874e 7ebd 2116 e93c
000001c0: 67a3 3ebb b547 313d dbec 8bbb 8be1 90bc
000001d0: 3553 30bd d3f1 3cbe ee8d 33bc cba4 c63b
000001e0: a5f8 ecbc b970 8bbd c61a 883b cad5 2abc
000001f0: 17ac de3c 325a a3bd f014 66bc 28b2 a13b
00000200: e0e6 05bc 3f43 b0bd 061e 30bc c8b6 0f3c
00000210: 1357 953b 13c1 26bd 0cc5 a0bc 9c18 f33b
00000220: 2a53 c93c e082 d5bd d4b0 283d fdd7 d8bc
00000230: 0c19 85bd 6a35 03be c207 3cbd 53cf 46bd
00000240: af30 8cbb 3669 d03d e672 edbc 1b63 04bc
00000250: 34e8 9a3c b949 90bd ce3f 013d bea3 d5bc
00000260: 4c7d 05bc 04da 603d 5aac 02bc b696 ac3b
00000270: 236d 1abc caed 1abe 560f fa3b 3e7f 07bd
00000280: 2a0c 003d 3d26 27bc f0cb 35bd 271b 5a3d
00000290: 6571 a2bc 2cea 6ebe bf48 3b3d 424c 05bd
000002a0: 50b5 b93c 1307 cb3c 737f 703d 566d 9abb
000002b0: dfb5 5a3c fca2 a7bc 6d2a 0a3d 590b 89bc
000002c0: 43bf c23c 7b9e 393c ec77 1dbd e20a 67bd
000002d0: 7b1c 2bbb 74b5 05bc a49c 51bd cded 1b3d
000002e0: 0d80 6ebb 9c13 dcbb f9ba 843c 2902 593d
000002f0: 4a1c 373d 8d36 c8bc 349b 14bb ee48 293d
00000300: cb39 76bc 700c e53c b797 90bc 1ae2 05bd
00000310: eedc 1abb 8b71 043d 8c4d ce3c 7b20 81bc
00000320: f89a e93c 5ddc 143d 907c 96bc 649b e2bb
00000330: 984d 3dbc c660 1a3e 7099 0f3d aa77 5ebd
00000340: 14ce 24bd a0a1 1abc 3467 c03c 4594 b5bc
00000350: d423 603b 69ed 493e b0e3 cabc 0272 d53b
00000360: 1288 d73c 9f31 f73d 36c4 bfbc 7ffe 0f3c
00000370: aef9 c1bd e0a5 403d d927 c73c 2fe5 883c
00000380: 975a 0e3d bd9f 2e3e 4a5d 1dbd d216 e73c
00000390: 9131 90bd d933 e0bc d0cc 433d 41db 0c3d
000003a0: 3aad 093e adcb 0d3e bd01 e43a 7dec 463c
000003b0: ecbc f0bb 891d e5bd f6e3 67bb 144e ac3c
000003c0: 98e2 a7bc 63ab 00bc ab8d af3b e399 873c
000003d0: 09f3 c8bc d4e0 45bc 3ab0 143d ce6f 173d
000003e0: 4952 07bd 6c10 3d3c 3fea cb3c a12d a2bb
000003f0: 6bf9 a53c 46dd 8bbd 6e6e 7b3c 3fec 15bb

fc1.bias f4 [400]
-0.09624397 -0.049842298 0.08091685 -0.28180256 0.06735598 0.02112513 0.04841172 -0.21484308
-0.053924482 -0.052674774 0.14504702 0.06723391 -0.12016067 -0.1913199 0.1690666 -0.00492407
-0.12986812 -0.24098457 -0.10537838 0.06130585 0.027841609 0.15710038 0.13851683 0.099876374
-0.15780325 -0.15293404 0.09073222 0.083188 -0.2750709 0.0066429465 -0.21376535 -0.0013417595
0.006824957 0.11978235 -0.12842375 0.009131325 0.13759038 -0.036611646 -0.14581019 0.02213747
0.08292506 -0.027369024 -0.03915059 0.15356815 -0.014563612 0.1404301 -0.20114635 0.042909645
-0.0013399329 0.028478598 -0.01220322 -0.08446457 0.017077178 -0.15524645 -0.19872022 -0.23807363
-0.29748037 -0.21374445 0.050221194 -0.17188996 0.0592983 -0.17670885 0.10681625 0.026490005
-0.057954255 -0.17065713 -0.14389399 0.09243813 0.075945154 0.1750649 -0.21358049 -0.12412781
-0.1981141 -0.0539633 0.09629416 -0.10379857 0.16572738 0.08422684 -0.12850143 -0.08200807
0.06450918 0.016298158 0.043578386 -0.22393142 -0.22699802 -0.08889428 0.08422873 -0.14014713
0.123090886 -0.16474216 -0.02631292 0.10434193 -0.21512298 0.14821647 -0.044670805 0.029172584
-0.06377356 -0.15841363 -0.1958749 -0.07957969 0.010272609 -0.078683145 0.14507952 0.03190895
-0.26535755 -0.16084868 -0.034591872 0.05733051 0.13619737 0.106170245 0.13923128 -0.042810727
-0.11580001 -0.16761148 0.13838238 -0.0055203848 -0.088712476 -0.0004498306 -0.14174518 0.058080226
0.011988899 -0.017801113 0.014776444 -0.07947032 -0.10627702 0.033509478 -0.052084394 0.15029459
-0.12044452 -0.13859828 -0.01250856 0.09451328 -0.101624385 -0.13918442 -0.05222494 -0.2112574
0.002554824 -0.09935662 0.08626053 -0.0984487 -0.1580485 -0.039219573 -0.21767062 -0.21007307
-0.038405094 -0.2472143 0.09016111 -0.00041962342 0.078747936 -0.09840662 -0.11122826 0.14050041
0.060088467 -0.096629746 0.004310333 -0.08509394 -0.07417645 -0.08541076 -0.09845315 0.09564989
0.038282454 -0.1360121 -0.15234885 0.024776751 0.2163249 0.048268445 -0.016173491 -0.04468617
0.11098459 -0.1360452 0.038720634 -0.10896036 -0.1538498 0.02665231 0.027199944 0.14119457
0.04779329 -0.090580165 -0.1656966 -0.041495364 0.06334142 0.023450112 -0.1280136 -0.012242748
-0.21446243 -0.23052703 -0.14207792 -0.046674997 0.003191095 -0.12825844 -0.13374126 0.030016081
-0.19365121 -0.13608359 -0.12199722 0.19034901 -0.007794711 -0.26480708 -0.093144864 0.12176393
0.12550883 -0.05374302 0.14152968 -0.18260852 -0.21598203 -0.060262762 -0.123109095 -0.17464195
0.19111055 -0.16179848 0.16015966 0.06481273 0.011936167 -0.10945276 -0.18021786 -0.10254554
0.024500238 -0.18692312 -0.090603046 -0.2003367 0.04503715 -0.18230216 0.120303355 0.024034414
-0.14237328 -0.08393652 -0.18811008 0.07892897 -0.18832555 -0.07678429 -0.16109018 0.08178844
-0.09141314 -0.0037961372 -0.016529096 -0.03941832 -0.053808134 0.15589288 0.1195514 -0.03559187
-0.20021665 0.16702552 0.10890921 -0.15709813 0.16179025 -0.03152221 0.07928752 -0.044780605
-0.22308259 -0.054186434 0.03254405 0.08526275 -0.09442767 -0.23727499 -0.079081036 0.04304896
00000000: 8f1b c5bd 7027 4cbd bcb7 a53d 6d48 90be
00000010: eff1 893d 9c0e ad3c 5e4b 463d d3ff 5bbe
00000020: ebdf 5cbd 81c1 57bd 3587 143e efb1 893d
00000030: cc16 f6bd 5de9 43be cb1f 2d3e 185a a1bb
00000040: 26fc 04be a9c4 76be 9fd0 d7bd d81b 7b3d
00000050: 1614 e43c ecde 203e 5bd7 0d3e fc8b cc3d
00000060: 2d97 21be be9a 1cbe d0d1 b93d 785e aa3d
00000070: 18d6 8cbe 13ad d93b 4ee5 5abe fadd afba
00000080: e4a3 df3b 7350 f53d 8481 03be 8e9b 153c
00000090: 7ee4 0c3e 18f6 15bd 444f 15be a459 b53c
000000a0: 9dd4 a93d 0135 e0bc 5e5c 20bd f840 1d3e
000000b0: 379c 6ebc e8cc 0f3e 4ff9 4dbe 06c2 2f3d
000000c0: b0a0 afba f34b e93c 04f0 47bc c3fb acbd
000000d0: 70e5 8b3c edf8 1ebe 507d 4bbe 93c9 73be
000000e0: 594f 98be d3df 5abe bdb4 4d3d ec03 30be
000000f0: c6e2 723d 2af3 34be 7ac2 da3d 9101 d93c
00000100: 7161 6dbd bec0 2ebe f258 13be 3450 bd3d
00000110: 2289 9b3d 3744 333e d8b4 5abe b936 febd
00000120: 6cde 4abe 9f08 5dbd df35 c53d 5894 d4bd
00000130: 70b4 293e 1f7f ac3d e195 03be d9f3 a7bd
00000140: 641d 843d b783 853c 407f 323d 474e 65be
00000150: 2b72 68be 340e b6bd 1d80 ac3d bb82 0fbe
00000160: 1317 fc3d 2bb2 28be 318e d7bc 39b1 d53d
00000170: 3349 5cbe 0fc6 173e bcf8 36bd 58fb ee3c
00000180: b69b 82bd 2f37 22be 6e93 48be adfa a2bd
00000190: 724e 283c a124 a1bd ba8f 143e f6b2 023d
000001a0: f2dc 87be 84b5 24be 35b0 0dbd 66d3 6a3d
000001b0: 5377 0b3e c96f d93d a592 0e3e 4d5a 2fbd
000001c0: 8e28 edbd 58a2 2bbe 1cb4 0d3e 58e4 b4bb
000001d0: e3ae b5bd 3ed7 ebb9 a625 11be 88e5 6d3d
000001e0: 166d 443c a4d3 91bc e618 723c 56c1 a2bd
000001f0: c4a7 d9bd 3c41 093d 7256 55bd d3e6 193e
00000200: 9eab f6bd b5ec 0dbe b4f0 4cbc 2e90 c13d
00000210: 7220 d0bd 5c86 0ebe d2e9 55bd dc53 58be
00000220: d66e 273b 7c7b cbbd 5ca9 b03d 799f c9bd
00000230: 77d7 21be b4a4 20bd 0ce5 5ebe 651d 57be
00000240: a94e 1dbd bf25 7dbe 63a6 b83d e700 dcb9
00000250: 9946 a13d 6989 c9bd a4cb e3bd 57df 0f3e
00000260: 531f 763d d1e5 c5bd b23d 8d3b bb45 aebd
00000270: d3e9 97bd d6eb aebd cea1 c9bd 17e4 c33d
00000280: 10ce 1c3d c246 0bbe 5601 1cbe 9df8 ca3c
00000290: 4684 5d3e 22b5 453d 457e 84bc d808 37bd
000002a0: e44b e33d 6f4f 0bbe 8799 1e3d 9c26 dfbd
000002b0: cd8a 1dbe f255 da3c 6bd2 de3c 4f95 103e
000002c0: e6c2 433d 1882 b9bd 5fac 29be 0bf7 29bd
000002d0: 25b9 813d 731a c03c ff15 03be cf95 48bc
000002e0: 0a9c 5bbe 470f 6cbe e07c 11be 482e 3fbd
000002f0: b121 513b 2e56 03be 78f3 08be 49e4 f53c
00000300: 814c 46be 7f59 0bbe aed9 f9bd daea 423e
00000310: c66a ffbb cb94 87be bcc2 bebd 5e5f f93d
00000320: 6385 003e a421 5cbd 28ed 103e bafd 3abe
00000330: 652a 5dbe 16d6 76bd 9f20 fcbd 57d5 32be
00000340: 7cb2 433e 80ae 25be e500 243e 89bc 843d
00000350: ea8f 433c c528 e0bd 088b 38be 6503 d2bd
00000360: b9b4 c83c c668 3fbe 178e b9bd 1025 4dbe
00000370: e078 383d 6bad 3abe 9b61 f63d d2e3 c43c
00000380: 4dca 11be e9e6 abbd ee9f 40be 83a5 a13d
00000390: 6ad8 40be 1541 9dbd d3f4 24be b380 a73d
000003a0: d036 bbbd 9dc8 78bb 0768 87bc 1b75 21bd
000003b0: eb65 5cbd 62a2 1f3e 5dd7 f43d c8c8 11bd
000003c0: 9805 4dbe bd08 2b3e cb0b df3d 55de 20be
000003d0: 58ac 253e 6f1d 01bd 7f61 a23d de6b 37bd
000003e0: c36f 64be 98f2 5dbd e94c 053d 3d9e ae3d
000003f0: 4b63 c1bd 37f8 72be 3df5 a1bd 1b54 303d

fc2.weight f4 [300, 400]
-0.03763682 0.053809643 0.0054906267 0.019810274 0.029221363 -0.042667683 0.09705457 0.046139095
0.0626163 0.06454232 0.027162092 0.00040325223 0.062299702 0.059351135 0.072628476 -0.06314359
0.027005367 -0.03568549 -0.047625568 -0.14611894 -0.039349545 -0.013063695 0.027835952 -0.0295225
0.052870333 0.043199528 -0.02969569 0.05363541 -0.086741194 -0.04917525 0.020975119 0.068050876
-0.008649272 0.04748125 -0.02387272 0.06449714 -0.0445258 0.005406238 0.032860383 -0.07223669
0.012551606 -0.03597876 0.13123177 0.11361833 0.051327247 -0.05117713 0.040978964 -0.011114181
-0.014857054 -0.014856921 -0.052404217 0.020924931 -0.05972675 -0.009666093 0.06845506 -0.036659285
0.080332786 -0.08216788 0.059112154 0.03482247 0.09059393 -0.10706336 0.041391004 0.06859517
0.058846164 -0.06775232 -0.018891338 -0.10699949 0.072767064 -0.032472443 -0.018926712 -0.07233107
0.023071568 0.034539625 -0.035123505 -0.13766183 -0.039280955 -0.14212213 -0.0065155155 -0.014929051
0.036238126 -0.009619444 0.09019454 -0.012230139 -0.1380229 -0.00933228 -0.013087229 0.026693158
0.0016578119 -0.12153913 -0.0511867 -0.09478938 0.06512917 0.057424344 -0.010413449 0.096338466
-0.0153787965 0.06556724 0.036182117 -0.028455334 -0.060999855 0.027337799 -0.032297537 -0.06141117
0.069250874 -0.043430097 0.0059099533 -0.002371108 0.030833354 -0.017451862 0.07899014 -0.0015257369
0.008052696 -0.044235177 -0.039978884 0.013725336 -0.044876892 -0.03528868 0.09953375 -0.00038957462
-0.050362855 0.0051488867 0.052461587 0.039550792 -0.05546125 0.012723981 0.032611985 -0.021047963
-0.062316597 0.12330008 0.019781336 0.061211042 0.062029872 -0.07619435 0.041294552 0.098489575
-0.0037682927 -0.06005802 -0.047668982 0.06419167 0.06708601 0.047693726 -0.010409247 -0.09245912
-0.04579009 0.049062964 -0.027709048 0.06243816 0.048752613 -0.029613191 0.0042443536 0.018943315
-0.07212832 -0.05130614 0.005706708 -0.075381115 0.0052201906 -0.17136483 0.0062882346 0.09155356
-0.031829435 -0.059459455 -0.016652778 0.0015508919 -0.04855333 -0.0005492883 0.010469501 0.06898935
0.07092207 0.031146789 0.02569423 0.011375369 -0.0039239074 -0.0049190344 -0.07528203 -0.038942385
0.028527072 0.03230141 0.004351412 0.05202665 -0.08274656 -0.019566242 -0.0056489385 0.002243985
-0.10247563 -0.05766291 0.019265609 -0.06534279 -0.02763605 0.03370931 -0.008918947 0.09752815
-0.10722254 0.056403186 -0.033939436 0.029628767 0.08094971 0.0059668985 0.02856611 -0.02320062
0.018164974 0.00035049627 -0.0947355 -0.0283128 0.02718151 -0.061307043 0.1148511 -0.02904811
0.029630255 0.038932033 -0.1116041 -0.15709698 0.12094689 -0.044852592 0.051080402 -0.036607664
0.033869416 0.037548687 -0.024536906 -0.0017175984 -0.041662637 -0.008130782 -0.11138803 0.0050181183
-0.043983016 -0.06424031 -0.031127296 -0.023760019 0.013429486 0.059960317 0.0017594823 0.034497526
0.066167325 -0.19381465 0.07903044 0.03458134 0.010506357 0.086481914 0.073236026 0.022834191
0.03353644 -0.033301525 0.018305577 -0.041114338 -0.016476935 0.051988613 -0.0669753 0.004764677
0.030608466 -0.03669986 0.042243112 -0.10389873 0.07106913 0.08253607 0.054807685 0.028639736
00000000: 1129 1abd 8067 5c3d b7ea b33b 2849 a23c
00000010: a461 ef3c 4fc4 2ebd 8cc4 c63d 59fc 3c3d
00000020: fa3c 803d c42e 843d 0983 de3c 996b d339
00000030: f92d 7f3d 2d1a 733d 3dbe 943d 6d51 81bd
00000040: 5c3a dd3c f32a 12bd 0713 43bd 34a0 15be
00000050: fd2c 21bd 1c09 56bc 3908 e43c 2bd9 f1bc
00000060: 908e 583d fdf1 303d 6044 f3bc ceb0 5b3d
00000070: 5ea5 b1bd fd6b 49bd 03d4 ab3c 425e 8b3d
00000080: adb5 0dbc b37b 423d b990 c3bc 1417 843d
00000090: af60 36bd d026 b13b 9c98 063d d4f0 93bd
000000a0: 40a5 4d3c 775e 13bd 9f61 063e bab0 e83d
000000b0: 853c 523d 1c9f 51bd 8fd9 273d 4118 36bc
000000c0: 006b 73bc 716a 73bc cea5 56bd c36a ab3c
000000d0: 09a4 74bd 885e 1ebc 2b32 8c3d 0c28 16bd
000000e0: 8485 a43d a247 a8bd 961f 723d 02a2 0e3d
000000f0: 4f89 b93d 0944 dbbd 9d89 293d a07b 8c3d
00000100: ad08 713d bac1 8abd 02c2 9abc 8c22 dbbd
00000110: e606 953d d301 05bd 310c 9bbc 5022 94bd
00000120: 9600 bd3c 6c79 0d3d aadd 0fbd 39f7 0cbe
00000130: 11e5 20bd 7788 11be 1b80 d5bb fa98 74bc
00000140: 6e6e 143d df9a 1dbc eab7 b83d ec60 48bc
00000150: e055 0dbe 6be6 18bc d16b 56bc 9cab da3c
00000160: f04a d93a 82e9 f8bd 25a9 51bd ef20 c2bd
00000170: 7162 853d ca35 6b3d 2c9d 2abc 1a4d c53d
00000180: 59f7 7bbc 1e48 863d b333 143d 291b e9bc
00000190: fcda 79bd 85f3 df3c 6c4a 04bd 478a 7bbd
000001a0: 67d3 8d3d c2e3 31bd 48a8 c13b 9764 1bbb
000001b0: 3b96 fc3c 35f7 8ebc 95c5 a13d 3cfb c7ba
000001c0: 74ef 033c f22f 35bd e6c0 23bd 3be0 603c
000001d0: d5d0 37bd dd8a 10bd 5ad8 cb3d d23f ccb9
000001e0: 4849 4ebd feb7 a83b f6e1 563d 0300 223d
000001f0: 562b 63bd 3f78 503c 2594 053d c76c acbc
00000200: b03f 7fbd c184 fc3d 780c a23c 6eb8 7a3d
00000210: 0913 7e3d c90b 9cbd 7a24 293d e7b4 c93d
00000220: 76f5 76bb 66ff 75bd 8d40 43bd ec76 833d
00000230: 6464 893d 7f5a 433d 8c8b 2abc 355b bdbd
00000240: 648e 3bbd 3ff6 483d 16fe e2bc 28bf 7f3d
00000250: d2b0 473d 5d97 f2bc 3814 8b3b 032f 9b3c
00000260: 03b8 93bd 6326 52bd 56ff ba3b 6a61 9abd
00000270: 220e ab3b 437a 2fbe 890d ce3b 6f80 bb3d
00000280: 955f 02bd c28b 73bd 686b 88bc 4c47 cb3a
00000290: dbdf 46bd 1dfe 0fba 4588 2b3c 4a4a 8d3d
000002a0: 973f 913d 8d27 ff3c b57c d23c c15f 3a3c
000002b0: 1f94 80bb da2f a1bb 772d 9abd 0d82 1fbd
000002c0: 9bb1 e93c 7c4e 043d 4a96 8e3b e619 553d
000002d0: 0777 a9bd 6249 a0bc bb1a b9bb d20f 133b
000002e0: bede d1bd f22f 6cbd e9d2 9d3c 71d2 85bd
000002f0: ff64 e2bc c612 0a3d c620 12bc d7bc c73d
00000300: 7e97 dbbd 0707 673d 1404 0bbd 07b8 f23c
00000310: f6c8 a53d f985 c33b 7a03 ea3c 3a0f bebc
00000320: b6ce 943c d0c2 b739 b004 c2bd 3ff0 e7bc
00000330: c2ab de3c 181d 7bbd 0e37 eb3d 4df6 edbc
00000340: 26bb f23c 3277 1f3d b190 e4bd 08de 20be
00000350: 01b3 f73d 5ab7 37bd af39 513d ebf1 15bd
00000360: a8ba 0a3d a7cc 193d 9f01 c9bc 0a21 e1ba
00000370: 71a6 2abd f936 05bc 681f e4bd 076f a43b
00000380: 8927 34bd 6c90 83bd acfe febc 5fa4 c2bc
00000390: 5907 5c3c f398 753d 6e9e e63a 474d 0d3d
000003a0: bc82 873d 5977 46be b6da a13d 2aa5 0d3d
000003b0: db22 2c3c 6e1d b13d c5fc 953d c50e bb3c
000003c0: 825d 093d 2e67 08bd 94f5 953c 8267 28bd
000003d0: a3fa 86bc 03f2 543d 592a 89bd 0221 9c3b
000003e0: 9bbe fa3c 9852 16bd 1d07 2d3d dbc8 d4bd
000003f0: b18c 913d ac08 a93d 067e 603d e19d ea3c

fc2.bias f4 [300]
0.033908572 0.010574923 0.016000155 0.027212089 -0.021024028 0.04894384 0.0606523 0.008968208
0.12136247 0.031227687 0.042214204 0.050010066 0.08602611 0.042306066 0.044939797 0.024488172
0.03363079 0.03766812 0.022798182 0.09011686 0.08238216 0.08990423 0.0150116375 0.068748266
0.005584485 0.03073791 -0.024550295 0.071218446 0.014798615 0.135348 0.013802972 -0.0018994124
0.050567858 0.05750707 0.06556557 0.044287708 0.020232804 0.077346444 -0.0068706824 0.043410834
0.008708181 0.00828969 0.035105217 0.013232081 0.05756146 0.067711726 0.0065631196 0.09712693
0.06468222 -0.0026120069 -0.01701624 0.08121961 0.049995977 -0.027839134 0.019745206 0.044281002
-0.013000594 0.10453534 0.0366712 0.06419057 0.06004947 0.10929252 0.0006884693 0.08229223
0.14127769 0.12522283 0.02312739 0.027458232 0.045064054 0.09486115 0.03772916 -0.004939809
0.11791235 0.061371654 -0.056623295 0.085059226 -0.00025635466 0.0010306204 0.17495185 0.077400774
0.006791221 0.04339873 0.089405715 0.013535818 0.0054361816 0.09285221 0.055622824 0.10914544
0.0712422 0.020914955 0.051747233 0.04135011 0.016282953 -0.00584483 0.06261545 -0.009499984
0.0731175 0.024844903 0.030554483 -0.032072525 0.035855625 0.029807521 0.0056007453 0.09425183
0.042184178 0.010432115 0.079394415 0.05022103 0.04768587 0.029711671 0.119692065 0.0019583972
-0.06137114 0.015887821 0.10547143 0.013655229 0.027960848 0.04444938 0.09136836 -0.0050694062
0.105363734 -0.021683944 0.055921834 0.19412507 0.04115924 0.081360444 0.00036620564 -0.002969932
0.057705265 0.06540747 0.09206789 -0.031675454 0.10377598 0.01604057 0.044221498 0.04074975
0.029166972 0.023686688 -0.0117080305 0.015897531 0.1165613 0.09529129 0.049730644 0.078882396
0.047481168 0.0145393275 0.014890121 0.05799814 0.11132276 0.085108995 0.005173051 0.08442772
0.023098316 0.048105966 0.09866991 0.0019560012 0.021328406 0.062155787 0.07981186 0.080705345
0.10593786 0.054856762 0.082048416 0.064467005 0.05087736 -0.0014550985 0.09272426 0.124916546
-0.024126224 0.12724988 0.035677798 0.036456645 0.032328468 0.055991083 0.07859687 0.042360455
-0.0054921973 0.014582642 0.10125123 0.07437178 0.051114276 0.049999144 0.060199916 -0.0008989367
-0.0056858766 0.08837431 -0.038556077 0.096406385 0.04979625 0.059890237 0.074414074 -0.011082698
0.018108858 0.04801081 0.0064494344 0.09416664 0.024473244 0.08150382 0.05856992 0.0661195
-0.032174245 -0.01552389 0.06865749 -0.017900521 0.068150885 0.09331105 0.033823937 0.076985136
-0.010569929 0.023228552 0.07492588 0.043114822 0.053317524 0.078851245 0.10156161 0.050804168
-0.013801324 -0.029711831 0.01040399 0.04475507 0.07534815 0.0755764 0.06255565 0.058505908
0.080600984 -0.0031856124 0.0053703273 0.034308825 0.03571723 0.01946648 0.08947404 0.045185257
0.07036618 0.013462602 0.08508688 -0.0027561188 -0.017424103 0.021237804 0.0500631 0.06445187
0.058543302 -0.0123537015 0.049091715 0.07944388 -0.0013625079 -0.018830713 -0.026907394 0.032879185
0.119109154 0.035211846 0.04172632 0.026976613 0.084183164 0.15057139 0.060873065 0.05355313
00000000: b7e3 0a3d 7142 2d3c c212 833c e3eb de3c
00000010: 953a acbc 5679 483d 8c6e 783d 64ef 123c
00000020: e38c f83d 35d1 ff3c cde8 2c3d 5bd7 4c3d
00000030: 752e b03d 2049 2d3d cb12 383d 6b9b c83c
00000040: 70c0 093d e349 1a3d 41c3 ba3c 308f b83d
00000050: fab7 a83d b51f b83d 5ff3 753c e4cb 8c3d
00000060: 0efe b63b 12ce fb3c b31d c9bc fada 913d
00000070: e475 723c ab98 0a3e dc25 623c b4f5 f8ba
00000080: 3e20 4f3d 898c 6b3d 3e47 863d 0767 353d
00000090: 44bf a53c d067 9e3d 7623 e1bb 8fcf 313d
000000a0: c2ac 0e3c 7bd1 073c 7dca 0f3d 5fcb 583c
000000b0: 91c5 6b3d 72ac 8a3d 700f d73b 7cea c63d
000000c0: 1d78 843d 342e 2bbb a465 8bbc 7856 a63d
000000d0: 95c8 4c3d e50e e4bc b3c0 a13c ff5f 353d
000000e0: 7200 55bc a016 d63d 8a34 163d 5876 833d
000000f0: 6ff6 753d c2d4 df3d 657a 343a d488 a83d
00000100: 19ab 103e 6a3a 003e a775 bd3c 16f0 e03c
00000110: 1695 383d 9046 c23d e489 1a3d 1fde a1bb
00000120: 087c f13d d860 7b3d d4ed 67bd 8833 ae3d
00000130: 5767 86b9 e215 873a 9426 333e 4c84 9e3d
00000140: e488 de3b dec2 313d 581a b73d 56c5 5d3c
00000150: ff21 b23b 4d29 be3d c2d4 633d a587 df3d
00000160: 6ee7 913d d755 ab3c e8f4 533d bc5e 293d
00000170: d463 853c fd85 bfbb 873c 803d d2a5 1bbc
00000180: a1be 953d 8a87 cb3c 654d fa3c 7b5e 03bd
00000190: 59dd 123d e72e f43c 7586 b73b 1a07 c13d
000001a0: 51c9 2c3d 76eb 2a3c 8a99 a23d 91b4 4d3d
000001b0: 4252 433d e465 f33c 1d21 f53d 7458 003b
000001c0: 4e60 7bbd 2d27 823c 6801 d83d 2eba 5f3c
000001d0: 260e e53c 8e10 363d 561f bb3d 431d a6bb
000001e0: f1c8 d73d 87a2 b1bc 4b0e 653d b9c8 463e
000001f0: 9796 283d 4ea0 a63d 4aff bf39 31a3 42bb
00000200: 5b5c 6c3d 5af4 853d 178e bc3d 1fbe 01bd
00000210: 8088 d43d 8367 833c 9a21 353d 36e9 263d
00000220: 93ef ee3c 960a c23c 0ad3 3fbc 8a3b 823c
00000230: b1b7 ee3d 1428 c33d 5cb2 4b3d 188d a13d
00000240: 9d7b 423d 5c36 6e3c b2f5 733c 758f 6d3d
00000250: 30fd e33d a04d ae3d b282 a93b 71e8 ac3d
00000260: ae38 bd3c c30a 453d 7313 ca3d 4130 003b
00000270: e9b8 ae3c 1197 7e3d 6774 a33d d848 a53d
00000280: f3f5 d83d 7cb1 603d 0009 a83d 4707 843d
00000290: c764 503d 01b9 beba 38e6 bd3d 3fd4 ff3d
000002a0: 5ca4 c5bc cb4d 023e e222 123d 9053 153d
000002b0: db6a 043d e856 653d 65f7 a03d 2882 2d3d
000002c0: e4f7 b3bb 09ec 6e3c ce5c cf3d 3b50 983d
000002d0: 345d 513d e7cb 4c3d 3094 763d 9fa6 6bba
000002e0: 9750 babb 97fd b43d faec 1dbd b670 c53d
000002f0: 27f7 4b3d 774f 753d 6866 983d 3494 35bc
00000300: 0759 943c fca6 443d c755 d33b 70da c03d
00000310: 1d7c c83c 7aeb a63d 03e7 6f3d a969 873d
00000320: 24c9 03bd ea57 7ebc 4c9c 8c3d 1da4 92bc
00000330: b192 8b3d dd19 bf3d f88a 0a3d 62aa 9d3d
00000340: 7f2d 2dbc ce49 be3c bd72 993d 2b99 303d
00000350: 7a63 5a3d c37c a13d 89ff cf3d 0818 503d
00000360: f31e 62bc 3a66 f3bc 7f75 2a3c 1851 373d
00000370: 2250 9a3d cdc7 9a3d 2d1d 803d e4a3 6f3d
00000380: 2112 a53d b5c5 50bb 92f9 af3b 6987 0c3d
00000390: 3b4c 123d 2b78 9f3c 2a3e b73d 2d14 393d
000003a0: 251c 903d 3f92 5c3c 0842 ae3d 00a0 34bb
000003b0: febc 8ebc e7fa ad3c f70e 4d3d 58ff 833d
000003c0: 1acb 6f3d 2e67 4abc 6514 493d 79b3 a23d
000003d0: 2e96 b2ba de42 9abc e56c dcbc 53ac 063d
000003e0: 80ef f33d 4c3a 103d 38e9 2a3d 0ffe dc3c
000003f0: 3968 ac3d 632f 1a3e 0956 793d 875a 5b3d

fc3.weight f4 [2, 300]
0.15118526 0.13914974 -0.0007512952 0.19403078 -0.1191632 0.08857525 -0.049796935 -0.10468903
0.06634003 0.10354899 -0.14909929 0.070864454 0.14001554 0.16435525 0.08996762 0.12676689
-0.063258395 -0.096705094 0.1809042 -0.11209028 0.024102723 -0.13256823 -0.13685729 0.10867284
0.22753446 -0.030177172 0.14658247 0.14932999 -0.06870855 -0.1769696 -0.11136209 -0.027656972
-0.15759124 -0.15442112 0.08068921 -0.123463616 0.098184735 -0.14296666 -0.109023705 0.13579439
0.05083841 0.03659079 -0.11869166 0.111016355 -0.133968 -0.09704937 0.20613731 0.163334
0.18390353 -0.04755398 0.15587048 -0.1196268 -0.07695883 0.09215777 -0.106338 -0.02680411
-0.07197697 -0.15296677 -0.12779494 -0.113883406 -0.12727119 0.17834602 0.13021362 -0.14824572
-0.12856773 -0.11827703 -0.17527705 0.1537837 -0.1292319 -0.01977627 -0.0032375986 -0.13187642
0.04470626 -0.12566252 0.17059916 -0.15937604 0.09962761 -0.09418014 0.005088084 0.013257334
-0.13933703 -0.14285235 -0.14227393 -0.12795308 0.19989938 -0.070771895 -0.15413818 -0.14483355
0.081423044 0.11840792 0.09745203 0.060854547 0.10280806 0.073654056 -0.10685564 -0.08205343
0.09065341 0.021238629 0.053516783 0.041007277 0.123519585 0.117173396 -0.062284626 0.09858212
0.0136008095 -0.14034094 0.14698063 0.2117519 -0.12167957 0.10879891 0.008300564 -0.15276991
-0.024214324 0.18415253 -0.16327871 0.08570644 -0.04346422 0.15330528 0.031052401 0.24360003
-0.14959696 0.0561292 0.1568128 0.018185904 0.15542904 0.058129106 -0.12634473 0.1328155
0.15502341 -0.12675495 -0.10935375 0.112683505 -0.019326432 0.15738852 -0.13741484 -0.0826203
0.21370229 -0.034302782 -0.062173784 0.2636858 0.18400808 -0.12379849 -0.070870794 0.13604261
0.07035372 -0.14310785 0.063521594 -0.1363465 0.017574469 0.012943461 0.16161829 0.06117928
-0.13133022 0.053542957 0.10468265 0.04645231 0.12758522 -0.14752893 -0.13419844 0.062264804
-0.15422878 -0.16166823 0.16683708 0.073672116 0.045985214 0.22546639 0.16595188 -0.14650412
-0.0703035 0.029922849 0.22186723 -0.11201463 0.10886854 0.15343632 0.14493336 0.07527117
0.091187835 -0.054470494 -0.1349603 -0.07857707 -0.121870264 -0.16369121 -0.16731104 -0.079963654
0.12610985 -0.10498792 0.13250968 -0.07074958 0.040068742 0.06378754 -0.08810734 0.024766078
0.116677806 -0.09556829 0.07733931 0.16539292 -0.14268266 -0.15843575 0.16127941 0.12821153
-0.084887564 -0.008414676 0.008402043 0.0982913 0.04305716 -0.13845158 -0.104649246 -0.16413909
0.099521 0.054566983 0.13695486 -0.11795009 0.1762118 0.1124775 0.10937084 0.13374686
-0.093110755 0.19113944 -0.061460495 0.032415412 0.15623224 -0.12634426 -0.15140279 -0.1447858
-0.009082819 -0.07479723 -0.15859944 0.10927369 -0.11632935 -0.15002002 -0.13945153 -0.031485192
-0.09852269 -0.07988903 -0.17024091 -0.06580585 0.10292355 -0.052761864 0.06329242 0.015282034
-0.1261724 -0.11191979 0.15069163 0.106887124 -0.12780957 0.08394051 0.09643691 0.122192845
-0.03512335 -0.1455753 -0.019479364 -0.039918896 -0.04564946 0.05810392 -0.16904128 -0.15565498
00000000: 4fd0 1a3e 457d 0e3e 91f2 44ba 01b0 463e
00000010: d60b f4bd f166 b53d dff7 4bbd 3467 d6bd
00000020: 48dd 873d 7e11 d43d 7cad 18be 6221 913d
00000030: 3c60 0f3e be4c 283e f240 b83d 2ecf 013e
00000040: 9e8d 81bd 520d c6bd f33e 393e 978f e5bd
00000050: 1373 c53c f7bf 07be 5124 0cbe de8f de3d
00000060: cbfe 683e 1e36 f7bc b719 163e f6e9 183e
00000070: 11b7 8cbd 8537 35be cf11 e4bd e090 e2bc
00000080: 995f 21be 9220 1ebe 6240 a53d 7eda fcbd
00000090: 1415 c93d da65 12be d247 dfbd af0d 0b3e
000000a0: f03b 503d 39e0 153d 9d14 f3bd 8b5c e33d
000000b0: e82e 09be d2c1 c6bd a915 533e 0741 273e
000000c0: 3551 3c3e f6c7 42bd 839c 1f3e e5fe f4bd
000000d0: 979c 9dbd 37bd bc3d bdc7 d9bd 4b94 dbbc
000000e0: a968 93bd 52a3 1cbe addc 02be b43b e9bd
000000f0: 6153 02be 57a0 363e b856 053e bacd 17be
00000100: 42a7 03be 3a3b f2bd d47b 33be 7979 1d3e
00000110: 5e55 04be d801 a2bc e42d 54bb 9d0a 07be
00000120: e91d 373d adad 00be 8cb1 2e3e 7933 23be
00000130: 8f09 cc3d 84e1 c0bd f1b9 a63b 4a35 593c
00000140: 5eae 0ebe e347 12be 42b0 11be 2206 03be
00000150: 6cb2 4c3e dbf0 90bd 66d6 1dbe 3f4f 14be
00000160: 20c1 a63d da7f f23d ee94 c73d 9e42 793d
00000170: 088d d23d f0d7 963d 21d7 dabd a10b a8bd
00000180: 7fa8 b93d a2fc ad3c 6a34 5b3d 3ff7 273d
00000190: d6f7 fc3d 9bf8 ef3d 2a1e 7fbd 6ce5 c93d
000001a0: eed5 5e3c 89b5 0fbe 1782 163e 7dd5 583e
000001b0: 2333 f9bd f7d1 de3d 17ff 073c b76f 1cbe
000001c0: 1e5d c6bc 7b92 3c3e 8932 27be dc86 af3d
000001d0: 8a07 32bd 0ffc 1c3e 9b61 fe3c 4972 793e
000001e0: f22f 19be bbe7 653d 8993 203e 9bfa 943c
000001f0: ca28 1f3e c918 6e3d 8360 01be c900 083e
00000200: 75be 1e3e 0dcc 01be dcf4 dfbd 9cc6 e63d
00000210: 7752 9ebc 752a 213e 7ab6 0cbe d534 a9bd
00000220: c6d4 5a3e 1381 0cbd f0a9 7ebd d301 873e
00000230: 9d6c 3c3e 108a fdbd b524 91bd c14e 0b3e
00000240: 9c15 903d dd8a 12be 9c17 823d 6b9e 0bbe
00000250: 55f8 8f3c cf10 543c 447f 253e 2097 7a3d
00000260: 6e7b 06be dc4f 5b3d db63 d63d c744 3e3d
00000270: b3a5 023e d311 17be 516b 09be 6109 7f3d
00000280: 26ee 1dbe 5b8c 25be 57d7 2a3e 68e1 963d
00000290: fe5a 3c3d a9e0 663e 4aef 293e 2d05 16be
000002a0: 48fb 8fbd c320 f53c 2a31 633e ed67 e5bd
000002b0: 78f6 de3d 691e 1d3e 6969 143e c527 9a3d
000002c0: b0c0 ba3d 741c 5fbd 0833 0abe 04ed a0bd
000002d0: 1e97 f9bd ab9e 27be 9653 2bbe fcc3 a3bd
000002e0: f122 013e e803 d7bd 9eb0 073e 28e5 90bd
000002f0: 1f1f 243d 0ba3 823d 9f71 b4bd 3be2 ca3c
00000300: c6f4 ee3d 4fb9 c3bd 1264 9e3d c35c 293e
00000310: 671b 12be fb3c 22be 6e26 253e e249 033e
00000320: 88d9 adbd b6dd 09bc b9a8 093c f34c c93d
00000330: b45c 303d 40c6 0dbe 5852 d6bd 1414 28be
00000340: abd1 cb3d a181 5f3d e53d 0c3e d18f f1bd
00000350: de70 343e 9b5a e63d d2fd df3d f0f4 083e
00000360: dab0 bebd 0fba 433e 00be 7bbd 06c6 043d
00000370: 58fb 1f3e 6460 01be 5509 1bbe bb42 14be
00000380: 1bd0 14bc 4a2f 99bd e467 22be e2ca df3d
00000390: 153e eebd d99e 19be 62cc 0ebe 9ef6 00bd
000003a0: 44c6 c9bd dc9c a3bd a253 2ebe 38c5 86bd
000003b0: 95c9 d23d d31c 58bd 759f 813d 7f61 7a3c
000003c0: 5633 01be 3436 e5bd e84e 1a3e a3e7 da3d
000003d0: 83e0 02be 01e9 ab3d b780 c53d 3e40 fa3d
000003e0: 80dd 0fbd b111 15be 3093 9fbc ff81 23bd
000003f0: eefa 3abd 60fe 6d3d 2819 2dbe 0564 1fbe

fc3.bias f4 [2]
-0.08347288 -0.019671485
00000000: d4f3 aabd 1826 a1bc

bn1.weight f4 [400]
0.7860417 1.0134712 0.47591075 0.76235205 0.49285546 0.5622668 0.53923666 0.21013288
0.49703014 0.7922863 0.052902643 0.5507403 0.5778958 0.33610746 0.3086996 0.5335991
1.0560725 0.661838 0.086040124 0.43994763 0.18756287 0.69995916 0.1923149 0.76037633
0.5102761 0.079028785 0.37169582 0.9054398 0.78828055 0.97829634 0.13275883 0.50491035
0.40553308 0.042485893 0.30441225 0.8718191 0.95922464 0.28427106 0.9658177 0.51314914
0.4463784 0.20752843 0.61895573 0.19611748 0.49406978 0.65866095 0.17702073 0.7952332
0.6480201 0.72789353 0.77096784 0.49626735 0.962816 0.18717806 0.35334286 0.29763797
0.7993344 0.21062702 0.79438835 1.024709 0.67609924 1.0172443 0.41217068 0.31673
0.7956029 0.51587486 0.2179061 0.8863063 0.58458924 0.11248874 0.99479693 0.4077394
0.97889084 0.7985681 0.98135597 1.0589479 0.8267812 0.78707516 1.009867 0.8495476
0.4194772 0.5070172 0.43311584 0.49972582 0.32202142 0.46343613 0.5296312 0.45077512
0.13624431 0.5725281 0.9276604 1.027312 0.21038932 0.97544825 0.907716 0.21570985
0.803174 0.5775556 1.0529789 0.7357056 -0.25330362 0.49932456 0.18301019 0.79928213
0.32923132 0.66313267 0.6154411 0.6488248 0.1584812 0.106052406 0.98094946 0.49986303
0.91549546 0.8618484 0.4073277 0.3497443 0.46308166 0.73679197 0.63647586 0.22298025
0.15071887 0.940854 0.5441879 0.3248974 0.44670942 0.25072235 0.4129819 0.32237414
0.40996426 0.15182073 0.4012903 0.21778199 0.894367 0.67946565 0.09656023 0.26382852
0.8187497 0.59650844 0.18199664 1.0669937 0.8195323 0.1487594 0.29661992 0.9168633
0.8703875 0.26984456 0.86391544 0.3231075 0.93217766 0.7639899 0.67302394 0.19755997
0.6820181 0.87266254 0.8663616 0.21411942 0.2318984 0.43528804 0.47724295 0.72952294
0.43107554 0.9991731 0.47638488 0.7022324 0.4640654 0.2710828 0.25654876 0.9410595
0.14931782 0.4803138 0.7620777 0.79642147 0.38221434 0.792864 0.32161555 0.8443051
0.25005147 0.89273 0.80113256 0.77777743 0.3309784 0.7242938 0.58268607 0.81536585
0.9279703 0.9551194 0.48785537 0.6719377 0.70870125 0.50155723 0.26511395 0.53298855
0.49333254 0.80250645 0.91543895 0.5863275 0.1068434 1.0184324 0.24980946 1.0855149
0.66903067 0.5644139 1.0430322 0.6169135 0.501344 0.66807437 0.23549563 0.92009467
0.61529917 0.6123952 0.42035544 0.4530688 0.71687275 0.43690893 0.7987502 1.1095232
0.44385564 0.99427396 1.0141189 0.9660573 0.6482655 0.5097177 0.5124544 0.6474717
0.16989246 0.3540816 0.5613552 0.8061075 0.109876536 0.6026264 0.9769888 0.4277676
0.9540001 0.62295455 0.8105139 0.32622683 0.64135695 0.94702256 0.44545063 0.2407493
0.5905059 0.3765789 0.22164756 0.24064577 0.82101595 0.18332314 0.85355175 0.68958914
0.8562586 0.2259364 0.38737312 1.0603366 0.2976342 0.9802804 0.4287491 0.98949254
00000000: 073a 493f 6db9 813f 93aa f33e 8129 433f
00000010: 8d57 fc3e b8f0 0f3f 6a0b 0a3f 132d 573e
00000020: bc7a fe3e 46d3 4a3f 71b0 583d 51fd 0c3f
00000030: fbf0 133f 4716 ac3e e00d 9e3e f399 083f
00000040: 622d 873f 376e 293f ce35 b03d d140 e13e
00000050: 7b10 403e 8630 333f 32ee 443e 06a8 423f
00000060: 74a1 023f d8d9 a13d ea4e be3e e7ca 673f
00000070: c1cc 493f a171 7a3f eef1 073e ce41 013f
00000080: 08a2 cf3e b005 2e3d ecdb 9b3e 892f 5f3f
00000090: bf8f 753f fa8b 913e d43f 773f be5d 033f
000000a0: b68b e43e 5582 543e e273 1e3f 05d3 483e
000000b0: b7f6 fc3e 019e 283f ec44 353e 6794 4b3f
000000c0: a5e4 253f 3b57 3a3f 265e 453f c116 fe3e
000000d0: 1c7b 763f 9bab 3f3e 5be9 b43e 0164 983e
000000e0: 2ea1 4c3f 9cae 573e 095d 4b3f aa29 833f
000000f0: d714 2d3f 1035 823f 0908 d33e 6f2a a23e
00000100: a2ac 4b3f 6010 043f c722 5f3e f8e4 623f
00000110: a4a7 153f 7f60 e63d 03ab 7e3f 38c3 d03e
00000120: 9798 7a3f f66e 4c3f 253a 7b3f 9b8b 873f
00000130: efa7 533f c27d 493f 5243 813f f47b 593f
00000140: b7c5 d63e e1cb 013f 5cc1 dd3e 10dc ff3e
00000150: fedf a43e 8047 ed3e e995 073f ffcb e63e
00000160: a183 0b3e 3491 123f 277b 6d3f f67e 833f
00000170: 4c70 573e fab6 793f 1360 683f 0be3 5c3e
00000180: d09c 4d3f afda 133f 03c8 863f 3457 3c3f
00000190: 03b1 81be 78a7 ff3e 0667 3b3e c19d 4c3f
000001a0: 0291 a83e 10c3 293f 8c8d 1d3f 6219 263f
000001b0: e548 223e 0132 d93d 811f 7b3f 0cee ff3e
000001c0: e95d 6a3f 19a2 5c3f 428d d03e af11 b33e
000001d0: 0a19 ed3e 669e 3c3f 15f0 223f ef54 643e
000001e0: 0c56 1a3e cfdb 703f e64f 0b3f f458 a63e
000001f0: 19b7 e43e ae5e 803e 5d72 d33e 390e a53e
00000200: d6e6 d13e e576 1b3e ec75 cd3e 3e02 5f3e
00000210: 3cf5 643f 76f1 2d3f 5fc1 c53d 8814 873e
00000220: 9599 513f c7b4 183f 545d 3a3e 4093 883f
00000230: decc 513f 6254 183e 91de 973e 8eb7 6a3f
00000240: b7d1 5e3f 1129 8a3e 9029 5d3f 596e a53e
00000250: 32a3 6e3f d894 433f 4c4b 2c3f 294d 4a3e
00000260: bd98 2e3f d066 5f3f e0c9 5d3f 1f42 5b3e
00000270: c676 6d3e 13de de3e 3059 f43e 04c2 3a3f
00000280: efb5 dc3e cfc9 7f3f b8e8 f33e 81c5 333f
00000290: fb99 ed3e 5dcb 8a3e 5c5a 833e 47e9 703f
000002a0: c5e6 183e b1eb f53e 8617 433f 47e2 4b3f
000002b0: 99b1 c33e 23f9 4a3f cbaa a43e 6124 583f
000002c0: bf06 803e f489 643f 0617 4d3f 6c1c 473f
000002d0: 0076 a93e 526b 393f ea2a 153f d1bb 503f
000002e0: 768f 6d3f b482 743f 2ec8 f93e 1c04 2c3f
000002f0: 726d 353f 0e66 003f 04bd 873e f071 083f
00000300: 1596 fc3e 1071 4d3f 355a 6a3f 8f19 163f
00000310: b6d0 da3d fe5b 823f 0dce 7f3e 27f2 8a3f
00000320: 9845 2b3f 6e7d 103f 1482 853f 0bee 1d3f
00000330: 1558 003f ec06 2b3f c425 713e 538b 6b3f
00000340: 3f84 1d3f efc5 1c3f d438 d73e a2f8 e73e
00000350: f984 373f 87b2 df3e e57a 4c3f db04 8e3f
00000360: 0c41 e33e bd88 7e3f a6ce 813f 884f 773f
00000370: baf4 253f dc7c 023f 3630 033f b5c0 253f
00000380: 4af8 2d3e 2f4a b53e f9b4 0f3f 105d 4e3f
00000390: f306 e13d b945 1a3f f01b 7a3f 5b04 db3e
000003a0: 5a39 743f f379 1f3f d77d 4f3f 3407 a73e
000003b0: f82f 243f 1270 723f 1b12 e43e fc86 763e
000003c0: 652b 173f f3ce c03e 94f7 623e d86b 763e
000003d0: 1a2e 523f 10b9 3b3e 5e82 5a3f ea88 303f
000003e0: c333 5b3f df5b 673e c555 c63e 1cb9 873f
000003f0: 8363 983e a8f3 7a3f 0185 db3e 624f 7d3f

bn1.bias f4 [400]
0.04794837 -0.04344041 -0.0026266426 0.025267724 -0.06536861 -0.011589399 0.01686858 0.031746536
0.00415651 -0.008852985 -0.17136237 -0.02234507 -0.0033877236 0.0031365508 -0.030358326 -0.03851513
-0.019884871 0.020115493 0.040127717 -0.029209537 -0.052963294 0.01043244 0.05658252 -0.008254553
-0.024110831 0.11623825 -0.017560221 -0.006055511 0.07110685 0.010900804 -0.10108785 -0.049105912
0.025096122 0.09167491 -0.0003313625 -0.051391967 0.054678865 -0.025568813 -0.018777274 -0.035318006
-0.043932416 -0.045760695 0.06806953 -0.034266524 -0.015842922 -0.055361148 0.12018667 0.023973571
0.01602402 0.008893044 0.047008835 -0.09105814 -0.024114849 0.0069315364 0.009727202 0.023328928
-0.003078966 -0.11755625 -0.019313592 -0.0059768613 0.0033404995 0.048635308 -0.023665326 -0.04551635
-0.012527827 -0.048759565 0.045620546 -0.0077249417 0.052029155 -0.016056072 -0.028745253 -0.05082496
-0.009868565 -0.044331253 -0.041863266 -0.020190919 -0.029935205 -0.005198736 -0.01796895 -0.0019142053
0.003525425 0.00912609 0.0020443418 -0.020056872 -0.022122102 0.032842 -0.07547943 0.05885303
-0.008150155 0.015639529 0.033418074 0.018718032 0.02904613 -0.006631062 -0.011249629 0.022055337
-0.024824629 0.029198429 -0.01910678 -0.023588687 -0.21526983 0.017141944 -0.047761675 -0.01502785
0.004391483 0.049817707 -0.035179235 0.03515048 0.085679114 -0.009171506 -0.0027830263 0.102865815
-0.03324271 0.024143115 -0.030817151 -0.019314114 -0.02703875 0.014220073 -0.07424122 -0.016574604
-0.014155268 -0.011567704 -0.08221875 -0.028266748 -0.003160112 -0.009038908 -0.08922357 0.008583714
-0.027124533 -0.061435707 -0.011420445 0.11983867 0.018121341 0.012441358 0.18364702 0.0332162
0.0015898088 -0.07238478 0.096941076 0.010414507 0.020870078 0.03052825 0.044703383 -0.027437527
-0.02180138 0.006278711 -0.05163117 -0.051063165 -0.0010599538 -0.045186833 -0.0029024668 0.040411357
-0.024126837 0.007217418 -0.0034247367 -0.21164104 -0.10826381 -0.036253925 -0.017281452 -0.019969823
0.0054577137 0.017705988 0.019035961 -0.022622067 0.030137049 0.005859 0.0011644328 -0.04338945
0.09400881 0.012119324 -0.012342945 0.0051800883 -0.032850534 -0.061896794 -0.03465834 0.022222051
-0.076074846 0.04761892 -0.009463943 0.0044279355 -0.01759705 -0.011179496 -0.024314322 -0.034706987
-0.014675762 -0.00077353034 -0.0141544845 -0.015263608 0.0054818606 -0.004433142 -0.12032286 -0.0033728534
-0.033544324 -0.018444408 -0.01815397 0.01744356 0.034401797 -0.024005817 -0.088058345 -0.008750915
0.049074754 0.017680155 -0.009269487 0.010145863 0.027656322 -0.010589465 0.0008217087 0.011289519
-0.034214273 -0.0059039467 -0.022647317 0.0072078123 -0.0917046 -0.053011976 -0.0037367297 0.014700227
0.014193552 -0.02378773 -0.011210311 -0.019334942 -0.03843058 0.046293348 -0.028387707 -0.020987507
-0.007900999 -0.004598262 0.0031842345 0.024746763 0.102315694 -0.03897495 -0.01222401 0.0022454748
-0.017677862 0.054964997 -0.058194213 -0.09233001 0.04470035 -0.01733634 0.008815188 0.051574163
-0.005676292 -0.015416329 -0.0055305255 -0.08056319 0.011256861 -0.13075228 0.0014162407 -0.014536164
-0.014299249 -0.022141222 -0.0564091 0.021868568 0.020364953 -0.07870365 0.010679406 -0.0130171385
00000000: 8365 443d 92ee 31bd c023 2cbb 42fe ce3c
00000010: fadf 85bd 76e1 3dbc fa2f 8a3c a808 023d
00000020: 5533 883b 1c0c 11bc 9e79 2fbe 020d b7bc
00000030: 9204 5ebb 978e 4d3b 06b2 f8bc 0ac2 1dbd
00000040: 99e5 a2bc 3fc9 a43c f65c 243d d748 efbc
00000050: 0af0 58bd d3ec 2a3c 13c3 673d 1b3e 07bc
00000060: 1484 c5bc 520e ee3d 74da 8fbc 4f6d c6bb
00000070: 78a0 913d 4999 323c 2607 cfbd 4823 49bd
00000080: 6296 cd3c 0ec0 bb3d b9ba adb9 6280 52bd
00000090: f2f6 5f3d b075 d1bc ccd2 99bc 9da9 10bd
000000a0: 7af2 33bd 916f 3bbd 0a68 8b3d 0e5b 0cbd
000000b0: 04c9 81bc 5fc2 62bd 6e24 f63d 3964 c43c
000000c0: ce44 833c 21b4 113c 568c 403d b17c babd
000000d0: 818c c5bc f121 e33b d85e 1f3c 4f1c bf3c
000000e0: 7ac8 49bb 55c1 f0bd 8a37 9ebc 8cd9 c3bb
000000f0: 48ec 5a3b d135 473d c9dd c1bc 5a6f 3abd
00000100: 8441 4dbc 1cb8 47bd 9cdc 3a3d 8221 fdbb
00000110: 861c 553d 0688 83bc 2a7b ebbc d52d 50bd
00000120: c3af 21bc b094 35bd d178 2bbd 6d67 a5bc
00000130: ad3a f5bc 295a aabb 9f33 93bc 12e6 faba
00000140: d10a 673b 9985 153c 5dfa 053b 4f4e a4bc
00000150: 6939 b5bc 5585 063d f694 9abd e00f 713d
00000160: 3a88 05bc 781e 803c 64e1 083d 8f56 993c
00000170: 26f2 ed3c 6149 d9bb 5d50 38bc 65ad b43c
00000180: 055d cbbc 8b31 ef3c d285 9cbc 103d c1bc
00000190: b26f 5cbe 436d 8c3c bfa1 43bd 5f37 76bc
000001a0: 6ee6 8f3b a70d 4c3d 1a18 10bd f3f9 0f3d
000001b0: 8878 af3d 1644 16bc 6f63 36bb 50ab d23d
000001c0: 8229 08bd c8c7 c53c 4074 fcbc a238 9ebc
000001d0: 5e80 ddbc 4ffb 683c c80b 98bd 77c7 87bc
000001e0: 7feb 67bc 7886 3dbc 4e62 a8bd ab8f e7bc
000001f0: e219 4fbb ee17 14bc d9ba b6bd b5a2 0c3c
00000200: 4534 debc 02a4 7bbd d11c 3bbc fa6d f53d
00000210: 3573 943c d6d6 4b3c f70d 3c3e b60d 083d
00000220: 2261 d03a 793e 94bd 0b89 c63d 9ca1 2a3c
00000230: baf7 aa3c 6116 fa3c e51a 373d aac4 e0bc
00000240: cf98 b2bc a5bd cd3b 357b 53bd 9c27 51bd
00000250: 26ee 8aba d415 39bd 5037 3ebb 6186 253d
00000260: a5a5 c5bc 1780 ec3b 8c71 60bb 6eb8 58be
00000270: 6bb9 ddbd ff7e 14bd d591 8dbc c197 a3bc
00000280: 9fd6 b23b 260c 913c 4ef1 9b3c ea51 b9bc
00000290: f9e1 f63c dbfc bf3b e29f 983a 23b9 31bd
000002a0: b187 c03d 2190 463c 103a 4abc bbbd a93b
000002b0: 488e 06bd 7e87 7dbd e7f5 0dbd 050b b63c
000002c0: 21cd 9bbd 0f0c 433d a70e 1bbc 3718 913b
000002d0: b027 90bc 342a 37bc d42e c7bc ea28 0ebd
000002e0: 9b72 70bc bec6 4aba 36e8 67bc 3614 7abc
000002f0: 2ea1 b33b e443 91bb d56b f6bd 170b 5dbb
00000300: c665 09bd ba18 97bc a2b7 94bc cce5 8e3c
00000310: e6e8 0c3d d9a7 c4bc ef57 b4bd ff5f 0fbc
00000320: 9c02 493d f9d5 903c 0cdf 17bc d53a 263c
00000330: 838f e23c 6f7f 2dbc f067 573a adf7 383c
00000340: 4424 0cbd e575 c1bb de86 b9bc 832f ec3b
00000350: 9fcf bbbd 1623 59bd ece3 74bb 39d9 703c
00000360: 128c 683c 7cde c2bc 74ab 37bc 5064 9ebc
00000370: 6269 1dbd 189e 3d3d 568d e8bc feed abbc
00000380: 3173 01bc 04ad 96bb 97ae 503b b9b9 ca3c
00000390: e48a d13d 32a4 1fbd 3747 48bc d128 133b
000003a0: 2ad1 90bc fa22 613d 0e5d 6ebd 8417 bdbd
000003b0: b717 373d f104 8ebc 946d 103c 6e3f 533d
000003c0: 3000 babb c594 7cbc 6939 b5bb 50fe a4bd
000003d0: b26e 383c ede3 05be 27a1 b93a 1729 6ebc
000003e0: 6647 6abc 8261 b5bc 3a0d 67bd b625 b33c
000003f0: 67d4 a63c 612f a1bd adf8 2e3c d645 55bc

bn1.running_mean f4 [400]
0.7160216 2.168468 0.96213734 0.070434526 0.38909745 0.05326076 0.012471608 0.5479732
1.7539134 0.042227965 0.70355374 2.4953532 0.46530733 1.7873179 1.3905231 0.6858841
0.21212417 0.892882 0.18490623 0.019849991 0.97229594 0.66565156 1.0537783 0.2281836
0.9183159 2.0151222 0.80167884 1.3581191 0.26310137 0.49857765 0.10108868 0.16739453
0.19379252 1.2575481 0.89885306 0.37551835 0.6428535 0.7119583 0.12937254 0.01690603
0.046318177 0.4275999 0.015655866 1.589891 1.340098 0.66638356 0.00061630714 0.46621397
0.77816427 0.04565062 1.5425807 0.9571539 0.13937098 0.27885818 1.8555171 0.74875045
0.07409898 1.4344804 1.9891496 0.2316385 1.1971059 0.024290204 0.5439585 0.3949761
0.30736473 0.4364257 0.6393335 0.01623272 0.9002694 1.5882591 0.5509996 0.0018258133
0.25192344 0.7931135 1.367386 0.015009246 0.40076044 0.0750579 0.31112593 0.4806526
2.2487423 0.52365136 0.43353695 0.10601456 0.50750506 0.3557339 0.64304906 0.74180186
0.5704957 0.28929314 0.40121096 0.0700446 0.117946975 0.17674518 0.12876345 0.63174355
0.039608426 0.80365574 0.041644905 0.042974725 1.1362649 0.26890293 0.47460315 0.36238647
0.26786685 0.45105875 2.3592453e-07 0.3243576 1.1772566 0.80199325 0.53765225 0.4432818
0.11225982 0.10117456 0.9505972 0.63940454 0.52067447 0.13123238 0.11831887 0.22811596
0.5562666 1.8221067 0.45700133 0.6810728 0.00253503 0.63080865 0.010716506 0.35106122
0.17061146 0.16693519 0.3210659 0.030994365 1.0774754 0.030831689 1.7949476 1.0253003
0.66471875 0.107354395 0.16373324 0.6385232 0.20666231 2.255395 0.16971901 0.064463414
0.015630491 0.6378187 0.046484563 0.4340619 1.6723185 0.44235036 0.029595958 0.90052515
0.03576144 0.11702667 0.097740784 0.009938835 1.2476922 0.09046093 0.55715036 0.8075711
0.47984833 7.485812e-07 0.59218043 1.4807417 1.4129839 0.77595264 2.667343 0.11428965
0.54164356 0.38447282 0.1375752 0.5991415 0.18913181 0.100190915 0.065583736 0.50565875
0.3747381 0.8888482 1.3211317 1.4007475 0.28969973 0.10590266 0.02168303 0.12710851
0.07749418 0.5713651 1.3998935 0.12534465 0.13218558 0.49828765 0.52745825 0.4400627
0.16734752 0.118364304 0.04655419 1.8389915 0.21812423 0.18789618 0.14285026 0.031941134
0.30643338 1.021896 0.06485262 0.15978381 0.2142145 0.95308894 3.2589062e-06 1.1529714
1.7009681 0.055988837 0.07423553 0.44617826 1.3947877 1.9661732 0.41512308 0.6272652
0.31074944 0.0045352126 0.12265684 0.047553692 1.1509162 0.009317369 0.77258515 1.8170738
0.82933885 0.4429294 3.058358e-35 0.43176267 0.33810055 0.21552767 0.44480422 0.073799
6e-45 0.27938464 0.20669211 0.50006825 3.2753367 1.9142057 0.5112977 0.74922305
0.6806207 0.6916331 1.217792 0.9043687 0.73846453 0.0036175582 0.13794066 0.69934404
0.4691837 0.24381004 0.78956693 0.27271596 0.59856135 0.21982428 0.7280786 0.48868093
00000000: 314d 373f 2ec8 0a40 a24e 763f fa3f 903d
00000010: c837 c73e f427 5a3d b755 4c3c f947 0c3f
00000020: 3c80 e03f 3bf7 2c3d 191c 343f deb3 1f40
00000030: c33c ee3e d5c6 e43f a9fc b13f 1a96 2f3f
00000040: 1437 593e ea93 643f 0f58 3d3e 739c a23c
00000050: 63e8 783f 2468 2a3f 35e2 863f f6a8 693e
00000060: c016 6b3f c3f7 0040 d33a 4d3f d9d6 ad3f
00000070: 39b5 863e 9245 ff3e 9507 cf3d 7969 2b3e
00000080: 8c71 463e 56f7 a03f 3c1b 663f f143 c03e
00000090: 0c92 243f e642 363f 3c7a 043e 847e 8a3c
000000a0: 21b8 3d3d 60ee da3e bb40 803c 8c81 cb3f
000000b0: 5588 ab3f 1d98 2a3f ac8f 213a 99b3 ee3e
000000c0: c635 473f 25fc 3a3d 4973 c53f 0a08 753f
000000d0: 44b7 0e3e 80c6 8e3e 9681 ed3f 1cae 3f3f
000000e0: 35c1 973d 0e9d b73f 749c fe3f a532 6d3e
000000f0: c43a 993f 40fc c63c dd40 0b3f 4f3a ca3e
00000100: e95e 9d3e 3073 df3e 5cab 233f 7bfa 843c
00000110: 0e78 663f 134c cb3f 4f0e 0d3f 2150 ef3a
00000120: 1cfc 803e 7d09 4b3f 8106 af3f 57e9 753c
00000130: 7930 cd3e f5b7 993d e64b 9f3e 1918 f63e
00000140: 65eb 0f40 040e 063f 8ef8 dd3e 291e d93d
00000150: daeb 013f c122 b63e dd9e 243f bae6 3d3f
00000160: 020c 123f 3b1e 943e 866b cd3e 8b73 8f3d
00000170: 2f8e f13d b0fc 343e 91da 033e f2b9 213f
00000180: 723c 223d 62bc 4d3f d993 2a3d 4406 303d
00000190: 2171 913f a5ad 893e 2fff f23e b88a b93e
000001a0: d825 893e 2cf1 e63e 7152 7d34 3312 a63e
000001b0: 58b0 963f 6e4f 4d3f 94a3 093f d5f5 e23e
000001c0: 7ae8 e53d 9c34 cf3d 575a 733f 04b0 233f
000001d0: ec4a 053f c861 063e 2a51 f23d 3b97 693e
000001e0: 7d67 0e3f cb3a e93f 14fc e93e c95a 2e3f
000001f0: bf22 263b ad7c 213f 4994 2f3c 4cbe b33e
00000200: c5b4 2e3e 0ff1 2a3e c062 a43e e5e7 fd3c
00000210: b7ea 893f bd92 fc3c d8c0 e53f 0a3d 833f
00000220: 022b 2a3f 9fdc db3d b0a9 273e 4276 233f
00000230: 499f 533e 6458 1040 d2ca 2d3e 6505 843d
00000240: 840b 803c 1648 233f 9966 3e3d 5d3d de3e
00000250: 880e d63f bf7b e23e 3973 f23c d188 663f
00000260: 967a 123d aeab ef3d 522c c83d 7fd6 223c
00000270: 61b4 9f3f 9443 b93d 68a1 0e3f fbbc 4e3f
00000280: aeae f53e 1cf2 4835 2399 173f f288 bd3f
00000290: a8dc b43f d5a4 463f bfb5 2a40 b110 ea3d
000002a0: 27a9 0a3f 9fd9 c43e 83e0 0c3e 5661 193f
000002b0: c5ab 413e e530 cd3d c450 863d da72 013f
000002c0: acdd bf3e 8e8b 633f d81a a93f b24b b33f
000002d0: 8653 943e 7ee3 d83d 9ca0 b13c bc28 023e
000002e0: 45b5 9e3d fc44 123f b62f b33f 595a 003e
000002f0: a85b 073e 8f1f ff3e 8107 073f e64f e13e
00000300: 265d 2b3e fc68 f23d 9baf 3e3d 1364 eb3f
00000310: f55b 5f3e db67 403e 5747 123e b5d4 023d
00000320: d6e4 9c3e 7dcd 823f 73d1 843d 5e9e 233e
00000330: 0c5b 5b3e a3fd 733f 95b3 5a36 9194 933f
00000340: 53b9 d93f 8d54 653d cc08 983d 7a71 e43e
00000350: 6788 b23f 90ab fb3f 038b d43e 7494 203f
00000360: 8d1a 9f3e 1f9c 943b 8233 fb3d a9c7 423d
00000370: 3951 933f e1a7 183c 24c8 453f e095 e83f
00000380: 8d4f 543f a4c7 e23e 369c 2206 ff0f dd3e
00000390: 841b ad3e 49b3 5c3e 61bd e33e ee23 973d
000003a0: 0400 0000 810b 8f3e 19a7 533e 7904 003f
000003b0: 1e9f 5140 b104 f53f 68e4 023f 15cd 3f3f
000003c0: 283d 2e3f de0e 313f 9ce0 9b3f b584 673f
000003d0: 030c 3d3f 8e14 6d3b 5140 0d3e 3608 333f
000003e0: d938 f03e 57a9 793e 0f21 4a3f 6da1 8b3e
000003f0: 513b 193f 9e19 613e 5c63 3a3f 6334 fa3e
