weight1/checkpoint_critic_local_0.pth (torch_old, 575149 bytes, 9 tensors)

fcs1.weight f4 [400, 52]
00000000: c2fe c8bd 21e3 e8bd 0e8f cebc d035 f03d
00000010: f2f6 873d df84 0fbf cf6c adbc a44b f83d
00000020: 990b ebbd d239 913d ed16 a0bd 338e cd3e
00000030: ac5c 4dbd 2868 1dbf d3ef 2ebd 0047 e43e
00000040: 000f 86be 6c65 413e 6dd3 8dbc f80b 123f
00000050: 793e 8bbd 524e 69be 73f8 c23c 1111 023f
00000060: 3b80 ff3d dce1 a3bd fee2 bf3b 7732 c0be
00000070: d7a7 9abd 47dc 13bf 063a 463d f78a bbbe
00000080: e09f ce3e 756a c4bd ba00 f3bc b642 ecbe
00000090: 514a fd3c 4c74 1fbf 668d 0e3d 1410 eebe
000000a0: 76d5 b83e b2a4 b6be 4f6e 67bc f460 febe
000000b0: a204 cf3d 6f89 79be c1ff 75bd edac 04bf
000000c0: 73d4 0b3f 31da 513f 8796 923d 1d10 7d3e
000000d0: eb55 033d 9a34 2bbf 56b0 28bd 204d 87be
000000e0: e590 9dbe c3a5 03bf f710 5cbd f60b a2be
000000f0: 33dd e73c ce7e 15bf e82d a0bd c5d1 18be
00000100: 6f24 37be a9b1 00bf aba0 f6bd 68fc d4bd
00000110: 7834 37bd 3510 3bbf 9a92 37be eaf0 a63e
00000120: cd81 02be 92b4 563c ae5d f8bd 5edf 8d3e
00000130: 89c4 c53e a0ac 893f a15b 1ebc 5605 d7be
00000140: 9c81 9f3e df9d 18bf af6c 933c 1b93 a4be
00000150: 8221 223e f643 6e3f c3f3 e4bb b178 04bf
00000160: f00b 363e f62b 0fbf 9512 713d 3e7e efbe
00000170: c7bf 46be 22e1 ff3e e422 e13d 2e52 d2be
00000180: cf52 c53d 3873 4e3c b1da c73d 5316 dbbe
00000190: 6db2 0c3f 44af 89be c5cf b03d 3bd9 1fbf
000001a0: 07ee 99bc 21c5 6d3d 7d45 35be 79c1 09bf
000001b0: fa6a e8bd d902 8fbe 5feb 3dbe 2000 16bf
000001c0: d275 453c 58ac 4c3b d4f6 3abc e7e2 a53d
000001d0: 00be 86bd 223b 0ebf 6a16 99bd 05ac 3c3d
000001e0: 5f3f d1bd 57b9 a5bd 3ea8 09ba 6456 8abe
000001f0: e6a2 c8bd 481b 68bf 40d3 ac3b b146 74be
00000200: d23e 23be 059a cd3e 0cc8 473d df98 96bd
00000210: 7e62 043e c2ca 8dbe 33c8 f13c eea1 c5bd
00000220: 5f0a 41be f4a9 d93e f5d2 0d3e 759d d7bd
00000230: 18c0 3e3d 575e 10bf 9cb1 d63d ba7f 06be
00000240: c89b 1ebe a764 003f de6b 85bd e53e 80bd
00000250: bac3 c83d ad2c 5dbf 7d5e 6dbd 812f b8bc
00000260: e2f6 823e 558b 9dbe 2c1a 3c3f 27d1 5abe
00000270: b231 043e 2257 12bf deff 15bd c69a 80be
00000280: aab5 693e a972 ad3e bea8 5cbc 7071 50be
00000290: d425 723e cf08 0fbf 2c87 6fbd fa4e 56be
000002a0: 29d1 0cbe 8e3c d63e dc98 c63c d056 85be
000002b0: 4e41 ed3e 8edf 1cbf ee67 8b3c 1310 53be
000002c0: 440f 57bf 9fdd bb3e 12c4 a83b ef0e 4bbe
000002d0: 6c19 0abe 4f34 b6be 6976 553d 4327 84bc
000002e0: 14cc 47be 7c6a b73e 59e4 56bb 92be 1d3d
000002f0: 5b5a 553e 2fe4 c8be e974 7a3d 83ff dd3d
00000300: dc46 2a3e 546b d43e ba9d be3c c997 e13d
00000310: 6c32 763e eb5a 79be 903c b43c fc28 bb3e
00000320: c472 593f 4e22 af3e 0fae c0bb 427e c33e
00000330: d5a2 823e 69ae a83e dc5e d2be 027b c73e
00000340: 229e 27be 99ae d23f 960c 87bb 2c7a febd
00000350: 5d7d d0bd cf89 55be c5a3 db3c 7e56 19be
00000360: 94b2 10bd f14f ae3f 6c8e 9a3c 3be9 b1be
00000370: 0658 ecbd 3e5e 213e f129 1abc 798d c0be
00000380: 7975 753d 86bd 923f 43c1 0dbd b019 54be
00000390: 5e3b 293e b194 0a3f 53d2 c0bd 08e9 1cbe
000003a0: c10c 533d a266 1cbf fa75 ffbc 3c69 f63d
000003b0: cadf 883d 5968 58be 3898 423b 2be6 993d
000003c0: 5232 953d 7224 11bf f52b d83a 3360 523e
000003d0: 309d de3d 0bd5 113e bb0f 873d 40b4 423e
000003e0: 8828 fa3d 4464 bebe 0515 823d 4f9b 463f
000003f0: 8f60 1cbe 4e40 0d3f ae68 0f3d 9c2a 493f
-0.09814216 -0.113714464 -0.025214698 0.11729014 0.06638898 -0.5606212 -0.021170048 0.12123802
-0.114768215 0.070911065 -0.07816873 0.40147552 -0.050137207 -0.61487055 -0.042709183 0.4458542
-0.2618332 0.18886346 -0.01731273 0.5704951 -0.06799025 -0.22783783 0.02380011 0.5080729
0.1247563 -0.08002064 0.005855917 -0.37538502 -0.07551544 -0.5775799 0.04839518 -0.3662946
0.4035635 -0.095906176 -0.029663432 -0.46144646 0.030919226 -0.6228683 0.034802817 -0.46496642
0.36100358 -0.35672528 -0.014125421 -0.49683344 0.101083055 -0.24368833 -0.06005836 -0.51826364
0.54621047 0.8197356 0.07157617 0.24713178 0.03206436 -0.6687714 -0.041183792 -0.2642603
-0.30774608 -0.5142481 -0.053727116 -0.3164975 0.028303718 -0.58396614 -0.07821256 -0.1492377
-0.17884992 -0.5027109 -0.12042364 -0.10399705 -0.044727772 -0.73071605 -0.17927018 0.32605678
-0.12744828 0.013104575 -0.12127243 0.27709478 0.38626507 1.0755806 -0.009665401 -0.41996258
0.31153572 -0.5961589 0.01799616 -0.32143483 0.15833095 0.9307245 -0.0069870665 -0.5174666
0.17777991 -0.55926454 0.05885561 -0.46776003 -0.19409095 0.4997645 0.10992983 -0.41078323
0.09634935 0.0126007125 0.09758509 -0.4279047 0.54959756 -0.2689153 0.08633379 -0.6244084
-0.018790258 0.058049325 -0.17702289 -0.5381084 -0.11348529 -0.2793186 -0.18546818 -0.5859394
0.012052016 0.0031230655 -0.0114113875 0.08099919 -0.065792084 -0.5555898 -0.07474978 0.046062488
-0.10217165 -0.080919914 -0.00052512053 -0.27019036 -0.097966954 -0.9066663 0.0052742064 -0.23855092
-0.15941933 0.4015657 0.048774764 -0.073533766 0.12928197 -0.27693754 0.029514408 -0.09650026
-0.18851613 0.42512476 0.13850005 -0.105280794 0.046569914 -0.5639395 0.10483095 -0.13134661
-0.15489113 0.50153583 -0.06514715 -0.06261996 0.09802957 -0.86396295 -0.05795144 -0.02248359
0.25578982 -0.30770364 0.73477435 -0.21368848 0.12909582 -0.57164204 -0.036620967 -0.25118083
0.22823206 0.3387654 -0.013467966 -0.20355773 0.23647243 -0.55872816 -0.05847852 -0.20928565
-0.13751663 0.41843075 0.02424281 -0.26042795 0.46338886 -0.6127862 0.017017331 -0.206116
-0.8400767 0.3669252 0.0051503265 -0.19829915 -0.1348626 -0.35586783 0.052114878 -0.016132003
-0.19511443 0.3582343 -0.0032789914 0.03851182 0.20835249 -0.3923659 0.06114665 0.108397506
0.16628593 0.41488135 0.02326857 0.11015279 0.24042672 -0.24351089 0.022001535 0.36554706
0.84940743 0.3420586 -0.0058801244 0.38182265 0.25514856 0.32945564 -0.41087997 0.38961035
-0.16368917 1.6459533 -0.0041213734 -0.12425646 -0.10180161 -0.20853351 0.02681149 -0.149744
-0.035326555 1.3618146 0.01886674 -0.34748253 -0.11540227 0.15758607 -0.009409414 -0.37607935
0.059926484 1.1464088 -0.034608137 -0.20712924 0.16526553 0.54133135 -0.09415116 -0.1532327
0.051525835 -0.61094105 -0.031184185 0.120317906 0.066833094 -0.21133555 0.002969278 0.07514604
0.072849885 -0.56696236 0.0016492592 0.2054451 0.10869825 0.14241426 0.06594797 0.19014072
0.12214762 -0.37185872 0.063516654 0.7758073 -0.15271209 0.55176246 0.03501194 0.7858064

fcs1.bias f4 [400]
00000000: 1848 ae3d b843 71be f4a2 4abe f45b 39bf
00000010: be25 e0bd 190a b1be 6c92 c6bb 290e 10be
00000020: 4ea9 823d 4a77 dabe d5a2 8fbe 4dc8 23be
00000030: 7171 b0be 4b3d 9e3c 04da b8be 415d 25be
00000040: 63b2 0fbe 0e79 16be deff 6dbe 62e8 21be
00000050: 4292 4dbe 7c4a a2be 1eaf 7fbc 7249 edbe
00000060: a16d e1bd 52b3 5fbd 7a5c cbbe db27 93bd
00000070: 4542 53be 9401 0cbe 0ed4 51be 4137 86be
00000080: ffc3 fabd 2b19 873d b3c3 323d 6f7f fabe
00000090: 0467 1fbd 46fa 96be aca8 7abe bea9 36be
000000a0: 184c 4f3d 7d4a ffbe f18d c5be a21f 98be
000000b0: 233c 913c 454d abbe 9c26 c0bd 5e4d ddbe
000000c0: 4cab 09be 8feb 34be 53a6 1ebd 6b64 2e3e
000000d0: 1265 433b 1a85 cebd 74b7 80be bc04 80be
000000e0: 9f35 fdbd 2a0f 31be f989 b3bd 9247 eb3c
000000f0: 9fd9 cabe 18bf 9dbd 99ea 22be b523 d0bd
00000100: 1dad 32be 00c4 1abe e287 f6be e1c7 cebd
00000110: be54 86bd d041 0abe 7340 73bd 4181 79be
00000120: a9d6 55bc c4e0 e9be ce73 2abe 8b7c 95bd
00000130: 9b71 dabe 6200 39bf 2f98 45bd fe97 86bd
00000140: 23ec 3dbe 0c64 85bd 5b24 00bf 7b17 22be
00000150: bf7c 5dbf 2bfe 873d 797a febe e4bd a7be
00000160: a648 42be e3e0 7f3d 2dca a53c 9765 3dbe
00000170: 7c99 13bf 32f7 36be bb90 4f3d 5ab8 e8be
00000180: 8c63 dbbe 53eb b93d 82ba 37be 0a8d 58be
00000190: 5b39 91bc 0665 01bf c017 ebbe 65f8 7dbe
000001a0: 9c82 6ebe 1415 e7be 03a1 0dbf 8688 d0be
000001b0: 37ed f8bd e6c4 9cbe ae9c 8fbe d975 863d
000001c0: c951 e3bd f1c1 28be 653b c8be 73a8 74bd
000001d0: cc08 7abd a265 c2bd 4113 65bd fde8 c1be
000001e0: 6631 8e3d 0d89 0abf ab90 20bf 13b4 e5bc
000001f0: ad30 44bd 933c 35be 2183 bb3d 1d5b 56be
00000200: d8fb 5dbf 4b4a 17be c0d7 1ebe 0292 47bd
00000210: 9ca6 91bd ba4a 3ebf 1e7d 973d d6f0 edbe
00000220: 574a 01bf 31e6 cdbd 041e c0bd 7f78 f4bd
00000230: a5fb 8cbe a060 de3d 67f3 ba3d 537b 24be
00000240: fdd7 993d 1153 bd3d 0964 25bf 5571 fdbe
00000250: 4c2b fdbc c343 c9bd 7895 78bf e58b a3be
00000260: 5fe7 6dbf 2f9b 17be 8ab8 d7be 3a91 1fbf
00000270: b388 1ebe 73c9 25bd 196c 1fbe 1bf1 f4bd
00000280: a6d3 c2be 85e6 2bbd 83b1 0dbf 4541 08bd
00000290: 6acb dcbe 7430 16bf 9ca5 303e e9e4 0abe
000002a0: c40a 15be 52e2 e5be be7d 97be 141d 16be
000002b0: e7ac 2bbf 3af6 9cbd 2e81 cdbe 27ab a5bd
000002c0: bfde 6d3e 427d 1bbe 013e a8be 2351 76bd
000002d0: 0b8f 49bd bd88 b0be 2341 a5be 812b 5cbd
000002e0: b0c8 ebbd c5ad fabe 7711 cb3d b381 0cbf
000002f0: eb16 1cbf 4a90 9d3e cf5a 9e3d 217d 8dbe
00000300: df2b 50be 3aa5 bfbe 6d09 d2be 0ee9 713d
00000310: 3872 edbd 30d6 463d 634a 1b3c 0f99 e7bd
00000320: 7fed 5d3e bc14 b4be a177 0fbf 2bb2 52be
00000330: d31f d6be 605d 4fbd f5f9 1fbe 3168 cabd
00000340: bede d03e 12e2 8dbe 095e 3dbe 5c5c 11be
00000350: f072 bebd 3569 0abd d65f 72be d209 87bd
00000360: c21c 77bf 2a9c 26bf 5628 703d c427 5bbe
00000370: 7936 c5be 281b 09be f1ee e7bc a436 013c
00000380: 7fc1 aebe f723 5bbe a8b6 843e d190 22bf
00000390: 7177 2c3e 61ca e3be 58cc 0fbe 506d 99be
000003a0: 81a8 bfbd 878d 8a3d 0eff c4be 3928 703d
000003b0: b278 d8be 85dd 4ebe 0f59 9dbd 6b39 cebe
000003c0: bb15 42bd ae36 01be cd64 08bf 6e01 1cbe
000003d0: 4c63 6cbb 6c79 08bf ace4 abbe b19c 943c
000003e0: 60e5 d5be 0eab 893a c79f 113e 0788 d7be
000003f0: 3845 2abe 4925 60bf 5000 7cbe 33eb 1fbe
0.085098445 -0.23560989 -0.19788724 -0.72405934 -0.10944699 -0.34578016 -0.0060599353 -0.14067902
0.063799486 -0.42669135 -0.28053918 -0.15994377 -0.3446155 0.019316336 -0.36103833 -0.16148855
-0.14032893 -0.14694616 -0.23242137 -0.15811303 -0.20075324 -0.31697452 -0.015605716 -0.46345097
-0.11007238 -0.054614373 -0.39718992 -0.07185336 -0.20630749 -0.13672477 -0.20491049 -0.2621403
-0.122444145 0.06596597 0.043643665 -0.4892535 -0.038916603 -0.29487818 -0.24478406 -0.17838189
0.050609678 -0.49861518 -0.38584855 -0.29711634 0.01772887 -0.3345739 -0.09382364 -0.4322309
-0.13444251 -0.17667983 -0.038732838 0.17030494 0.0029814881 -0.10083981 -0.25139964 -0.25003612
-0.12363743 -0.17290941 -0.087665506 0.02872065 -0.39619157 -0.07702464 -0.15909804 -0.101630606
-0.1744885 -0.1511383 -0.48150545 -0.100967176 -0.06559132 -0.13501668 -0.059387635 -0.24365713
-0.013051667 -0.45679295 -0.16645738 -0.07299145 -0.426648 -0.7226621 -0.048240837 -0.06571959
-0.1854711 -0.06513223 -0.50055474 -0.1582927 -0.8651847 0.066402756 -0.49702814 -0.32762063
-0.18973026 0.062470328 0.020238006 -0.18495785 -0.57656074 -0.17867735 0.050675135 -0.4545315
-0.42849386 0.09078088 -0.17942241 -0.21147552 -0.017727545 -0.50544775 -0.45916557 -0.24801786
-0.23292011 -0.4513327 -0.5532381 -0.4072916 -0.1215462 -0.30618972 -0.28049225 0.065654464
-0.11099584 -0.16480233 -0.39107814 -0.05973096 -0.061043546 -0.09492041 -0.055926565 -0.37873068
0.06943016 -0.5411537 -0.62720746 -0.028039968 -0.047897983 -0.17698888 0.0915587 -0.20933194
-0.8671241 -0.14774434 -0.1551199 -0.04872323 -0.07111856 -0.74332774 0.07396911 -0.46472806
-0.5050406 -0.10053671 -0.09380725 -0.11937045 -0.2753574 0.108582735 0.091284566 -0.1606267
0.075118996 0.09244359 -0.64605767 -0.49500528 -0.030904435 -0.09827378 -0.9710307 -0.3194267
-0.9293117 -0.14805292 -0.4213298 -0.62330973 -0.15481834 -0.04047532 -0.1556858 -0.1196005
-0.380521 -0.041967887 -0.55348986 -0.03326537 -0.43123943 -0.58667684 0.17250675 -0.13563885
-0.14554888 -0.4489923 -0.2958812 -0.1465953 -0.67060703 -0.076641515 -0.4013762 -0.08089285
0.23229502 -0.15184501 -0.32859805 -0.06013597 -0.049208682 -0.34479323 -0.32276258 -0.053752426
-0.115128875 -0.489607 0.099154405 -0.54885405 -0.6097247 0.30774146 0.07732164 -0.27634528
-0.20329235 -0.37430745 -0.41022816 0.05906015 -0.11594051 0.04854411 0.009478184 -0.113084905
0.21672629 -0.3517207 -0.56041914 -0.20575778 -0.41821155 -0.05062616 -0.15622695 -0.09883154
0.4079494 -0.2771154 -0.18492903 -0.14195389 -0.09299266 -0.03379174 -0.23669371 -0.0659367
-0.96528256 -0.6508204 0.058632217 -0.21401888 -0.38518122 -0.13389266 -0.028312178 0.0078865625
-0.34132 -0.21400438 0.25920606 -0.6350222 0.16842438 -0.4449034 -0.14042795 -0.2996621
-0.093583114 0.067652754 -0.3847584 0.05863211 -0.42279583 -0.2020169 -0.07683002 -0.4027818
-0.047384005 -0.12618515 -0.5327881 -0.1523492 -0.0036069928 -0.53310275 -0.335729 0.018141123
-0.41776562 0.0010503249 0.14221106 -0.42095968 -0.16627967 -0.8755689 -0.24609494 -0.15617065

fc2.weight f4 [300, 400]
00000000: ff49 08bd e5f0 1cbd 1eca 06bd 1062 04bc
00000010: b29a 71ba 0d39 823d c62d bc3c 4b00 4abd
00000020: 7daf d13c 0645 503d f34a f03c 768c 193c
00000030: 42ef 39bd 936d 743c 3bc8 dbbb e9ea b6bd
00000040: da57 c9bd ec55 d5bd 7bd1 883d fd3e 16bd
00000050: ed32 1fbe ba9d 3abd 6df6 a43c c9db 9f3c
00000060: 83da a2bd 56d8 293d 222f aabc bae6 3c3d
00000070: b4ed 90bc e471 36bd 1388 89bd 20cf 24bc
00000080: 9f9b 8abc 84dc 87bd 896e e4bc b152 c1bc
00000090: dc6e ebbc 5840 12bd 5cff e9bc a1c7 d2bc
000000a0: d350 203c 44f2 1ebc 80ce bb3c 5a05 773c
000000b0: 8eb2 04bd 77e1 70bc e27e 1e3d 9b68 4ebd
000000c0: 1da9 5f3c 9577 2abd dec0 86bb f62c 08bd
000000d0: 523e d5bc c286 d53d 2612 db3a 7749 abbd
000000e0: b7c7 183e 5271 2b3d 0a22 3a3c 59ea 11be
000000f0: ac8c f63d 4bb2 0bbd c681 bfbd 652b 523b
00000100: 0139 1cbd d586 703c afe9 ce3c 035d 953d
00000110: dbde cdbb c4d5 1ebc 8cf9 63bd 57e5 243d
00000120: 98ac 6cbd 8f4d c4bc f81e 07be 9afd 29be
00000130: 0f2b a8bd f3aa 0bbc eb1f 633d a16d 6ebb
00000140: 4087 fb3c 910e 2c3c 84af 453d f75e 0cbd
00000150: 8a37 af3a 2aba 5a3d 9a9a 48bd dec4 b3bd
00000160: bc46 493d 8459 f13b e1b4 0f3c 5d77 543d
00000170: aefd f73c 1b41 c4bd db53 31ba f36c 2a3d
00000180: c74c 143d 13a8 433c 06d4 2e3a 85dc 57bd
00000190: fe58 03be 98c3 dbbc 06b4 ae3c 329e 9b3d
000001a0: 4c46 563d f904 8b3d 7518 d5bc ac08 d7bc
000001b0: 70e9 bc3c 9d72 bfbd 35b3 62bc 5f19 cdbb
000001c0: 715f 94bd 22b4 d6bd a916 87bd d379 19bd
000001d0: f250 2ebd 9ff9 14bd 9ceb f3bc e8de 3f3d
000001e0: 9072 96bd de79 21bd e7fc 1fbc 134c 35bd
000001f0: d707 3b3d c199 e43c d2b5 2fbe 3de6 543a
00000200: 4cb9 5e3d 4a8d 99bd 42bd 4e3d fb21 793d
00000210: 53bf 44bc 08fe ca3c 5a3f cfbc 4501 273d
00000220: f4b3 59bc 4b0c 69bd 3871 023c cecc e53c
00000230: 059f 33bd a8f9 973d e359 cfbb ec9d 81bc
00000240: 326b 77bd 97d4 da3c d202 593d 5515 6cbb
00000250: c297 c13c 0a21 d3bc 2bfb 5b3d af59 73be
00000260: 89f9 b1bc 55b6 d13c 144c cc3c c022 8d3d
00000270: 28ca 083b 40e5 353b 1c69 1bbe fee2 af3c
00000280: c493 2dbb 0190 9ebc 1e45 5a3d 1526 153d
00000290: 5243 1b3d 3077 ce3c aba7 5e3d 667b 27bd
000002a0: 1ffb 9bbd a86a 7fbd 2cf1 653c 4eaa 1d3c
000002b0: c24d 3f39 663d ac3c b5ba 333d f18a 203e
000002c0: 80a5 76bd 1176 063d 4374 02bd 2fdd d1bb
000002d0: 7d8a ab3b e882 023a ee48 df3c 1941 f43b
000002e0: e53d abbd cb1e 38bd 8caa 113b 4dfa 98bc
000002f0: ebc1 c43c b2b4 233d 1c96 ed3d 4ae6 e0bc
00000300: 5ae9 003d 280d eb3b c1a9 a5ba 74f5 b3bc
00000310: 9be5 c6bc a490 91bd b2f7 26bd 9009 01be
00000320: 9684 153d 0321 e03c 07e1 253d ad06 c8ba
00000330: 101c c0bd b42d 52bd 6edb a0bd 6038 dabb
00000340: 3a52 923b 086c a8bd d0db a6bc 6935 87bc
00000350: d84c 443d c970 cabc 5777 50bc 55ca 953d
00000360: 0fbb 8dbd 8f4b efbc 941b 11bd eb3d 44bd
00000370: fe9e 7b3d c0c1 8a3c ebb8 1abd 19d3 1ebd
00000380: 940c 58bd e7eb 333d fdb8 5bbc da3e 4f3d
00000390: 3dee 3bbd 19d6 c13c 1a0f 8b3d a1e0 c3bd
000003a0: 2292 183d d7dc 4a3c e2c1 cc3d 114d 88bd
000003b0: 29d5 babd edbe a7bd 9574 073d bece 273d
000003c0: da22 323d 923a acba af33 fd3b 032a d6bc
000003d0: 06e7 a7bd 2041 8f3c 05c6 1dbe b25f cd3c
000003e0: 7b0f 6a3d 7131 5abd fa98 873d 71aa 85bd
000003f0: bd3d c5bc af24 38bd 903d fabb baab 4cbe
-0.033273693 -0.038315672 -0.032907598 -0.008080021 -0.0009216472 0.06358538 0.022971045 -0.049316686
0.025596375 0.050847076 0.029332614 0.009371867 -0.04539419 0.014918703 -0.006707219 -0.08931524
-0.098312095 -0.10416779 0.0668058 -0.036681164 -0.1554677 -0.045560576 0.020137036 0.019513981
-0.07951834 0.04146608 -0.020774428 0.046118475 -0.01769147 -0.04454221 -0.06715407 -0.010059148
-0.016919909 -0.06633857 -0.027884739 -0.023599 -0.028739385 -0.035705894 -0.028564148 -0.025729956
0.009784895 -0.009701315 0.022925615 0.0150769595 -0.032396846 -0.0147021925 0.038695224 -0.05039273
0.01365116 -0.04161795 -0.004112347 -0.033246003 -0.026030693 0.10426094 0.0016713783 -0.08363622
0.14919935 0.041856118 0.011360655 -0.14249553 0.1203855 -0.03410558 -0.09350924 0.0032069322
-0.0381403 0.014680584 0.025257913 0.07293131 -0.00628267 -0.00969452 -0.05565791 0.040257778
-0.057781786 -0.023962764 -0.13195407 -0.16600648 -0.08211338 -0.008524644 0.05545036 -0.0036381262
0.03070414 0.01050152 0.048263088 -0.034270253 0.0013367992 0.053400196 -0.048975565 -0.08777784
0.049139723 0.0073654074 0.008771152 0.051871646 0.030272331 -0.095827304 -0.00067645096 0.04160781
0.036206033 0.0119419275 0.0006669167 -0.05270054 -0.12826917 -0.026826665 0.021326076 0.07598533
0.052313134 0.06788058 -0.026012639 -0.026249252 0.02306053 -0.093480326 -0.013836672 -0.006259128
-0.072447665 -0.10483576 -0.06596119 -0.037469696 -0.042557664 -0.03637087 -0.029775433 0.04684344
-0.0734607 -0.039422862 -0.009764886 -0.044262003 0.045661774 0.027905347 -0.17159203 0.00081214664
0.05437593 -0.07497652 0.05047346 0.060823422 -0.012008506 0.024779335 -0.025298763 0.040772695
-0.013287533 -0.05689649 0.007961564 0.02805176 -0.043852825 0.07420665 -0.006327854 -0.015822373
-0.060404964 0.026712699 0.052981205 -0.0036023457 0.023631934 -0.02577259 0.05370633 -0.2376468
-0.021725433 0.025599638 0.02493862 0.06891394 0.0020872448 0.0027755052 -0.15176815 0.021470543
-0.002648578 -0.019355776 0.05328857 0.03641327 0.037906 0.025203317 0.05435912 -0.040889166
-0.07616257 -0.062357575 0.014034551 0.009623123 0.00018244146 0.02102537 0.04387923 0.15678002
-0.060216427 0.03282744 -0.031849157 -0.006404541 0.005235015 0.0004978613 0.027256455 0.0074540493
-0.08361415 -0.04495124 0.0022226898 -0.01867404 0.024018249 0.039967246 0.11600897 -0.02745356
0.03147254 0.007173199 -0.0012639092 -0.021967627 -0.024279406 -0.07107666 -0.040763564 -0.12601304
0.036503397 0.027359491 0.040497806 -0.0015260779 -0.093803525 -0.051313117 -0.07854353 -0.0066595525
0.0044653686 -0.0822373 -0.020368487 -0.01650496 0.047924846 -0.024711983 -0.012723765 0.073139824
-0.06920444 -0.029210834 -0.03542669 -0.047910612 0.061430924 0.01693809 -0.037774008 -0.038775537
-0.05274637 0.043926146 -0.013410804 0.05059705 -0.0458815 0.02366166 0.0678999 -0.09564329
0.037248738 0.012381754 0.09997918 -0.06655324 -0.09122688 -0.08190713 0.033070166 0.04096865
0.04349027 -0.0013140014 0.0077271084 -0.02614308 -0.08198361 0.017487109 -0.1540757 0.025070045
0.05714367 -0.053269807 0.06620975 -0.0652665 -0.02407729 -0.04495686 -0.0076367334 -0.19987383

fc2.bias f4 [300]
00000000: 1fe8 13be 9ad0 fcbd 0d4a 82bd fd24 a1bd
00000010: 2e90 a7bd d2a8 bbbd b100 f5bd 6ca6 86bd
00000020: c779 b6bd 4d2d b8bd 2b6e 1abe 2f23 08be
00000030: 8ab4 a0bd e8aa 5bbd ea22 2ebd 701e b6bd
00000040: 9a5c 47be e824 d0bd 43db f6bc 3240 b8bd
00000050: 9d08 9fbd a3bc a6bd 4a9d 99bd d7bb 0ebe
00000060: b75e dcbd 5e52 15be 91fc 44bd 8d8e 3dbd
00000070: 8815 50bd fa54 0abe f5c4 ffbd 40d3 1bbe
00000080: 55e5 32be 47a2 e6bd 5add d1bd 87e3 f1bd
00000090: 69b5 edbd e0bb 35be e4fc 97bd 781f b1bd
000000a0: 8620 01be 30c8 15bd 9a30 afbd 7c7b c7bd
000000b0: f80e 83bc b64b 79bd 356f 8ebd b7bc 26be
000000c0: e11b a9bd 3fe3 ccbd ead3 26be 4a0e 00be
000000d0: 56bd 1ebe ebc2 c7bd 097a d7bc 5c15 42bd
000000e0: fd65 9ebd 2f6b 08be b5c8 07be fafd 30be
000000f0: 60d0 17bd 9794 8bbc d681 c1bd 7051 bbbd
00000100: f485 89bd 7b5c fcbd 203b 3cbe c03a 84bd
00000110: fd78 96bd 6422 82bd 99f9 4bbd 0414 d6bd
00000120: f463 30be 54a4 cfbd 2346 94bd 566f babd
00000130: 2dd2 c7bd dee7 f7bd 0ad7 48be 6274 67bd
00000140: bf84 04be 6c54 88bd e178 1dbe 2e5a 35be
00000150: b3d4 81bd 6ec3 2fbe eb35 8abd 483f fabd
00000160: 4191 33bd fc5a 9abd a244 83bd c16f 14be
00000170: 38aa 4fbe addf 7bbe 1abd a4bd f9a2 75bd
00000180: 3d29 84bd ef35 b2bd a7aa e0bd 9f50 11be
00000190: 2d37 1bbe ce3a 57bd fe70 11be 0d92 81bd
000001a0: 3b73 08bd 295b 2cbe 95d2 16be 7bd6 bebd
000001b0: 362c 11be 3153 11be 1174 0dbe f688 a0bd
000001c0: 084e 3bbd 40de 74bd e581 14be aaf4 6ebd
000001d0: 5066 eabd e35e 2cbe 365c 19be 79a7 2ebd
000001e0: ad19 b4bd 3cd6 70bd ae84 e1bd ad84 26be
000001f0: a18d ecbc 57f5 af3b 4ad7 98bd 74fe a3bd
00000200: 0acc 99bd 5ff3 03be 6e21 b0bd d697 82bd
00000210: 0bab 9fbd 6182 08be e76b f2bd ad77 f1bd
00000220: 1128 76bd 0b90 aebd 5efe 6dbd 776c 58bb
00000230: db10 aebd 865b d3bd 0603 bbbd 0b92 7dbd
00000240: 7398 0dbe 0a67 0ebe edd1 03be 4ec2 25be
00000250: f7fb 5dbd f894 1dbe 92fd 0cbe a2a1 03bd
00000260: e06e 1dbe e24e a9bd ca16 f3bd e5f4 0bbe
00000270: c64d 0abe bfc7 e8bd 4afd e1bd 4053 a0bd
00000280: a3d2 e3bd 33f9 90bd c95a 52bd c765 04be
00000290: c88f b1bd bde8 ccbd f21a 04bd 81c4 c6bd
000002a0: 6def 85bc 242f 0fbe 9ce3 70be a890 95bd
000002b0: 9d60 d3bd c637 11be a19d fbbd 5e96 97be
000002c0: b4f1 fcbd af4c 57be 4f6f cabd 86f6 e5bd
000002d0: 0a52 d8bd c0b4 e4bd 8e2e bdbd 438c d9bd
000002e0: 6cc4 24be 2302 01be e6c4 7fbd f59f d73c
000002f0: 7156 46be e336 86bd 7917 e2bd f233 0bbe
00000300: 7892 5fbd 5416 c9bd f3be a1bd 4912 04be
00000310: 7873 c0bd cebc f3bd f52f d8bd 576e 8abd
00000320: 5419 95bd 47ee e5bc 0d9a 96bd 444d cfbd
00000330: 9a85 31be 0a1d 02be 78ae b7bd e39f 1ebe
00000340: 429f 0cbe b0a2 81bd fb41 d5bd 78c6 1fbe
00000350: 816f d6bd 429f 43bd 7365 36bd 3f4a eabd
00000360: 878e 19be 96e6 d1bd fda6 fabc aa03 22be
00000370: 6fa2 95bd 7ffd 79bd d0ec bebd 8d66 babd
00000380: c8bb d4bd 2ecf eebd 3c76 98bd ff14 e0bd
00000390: 7b4e c4bd 3b89 9bbd 025b 22bd 2a07 f9bd
000003a0: 0619 f9bd 4f0e 91bd 6132 c6bd fbc7 25be
000003b0: fd98 bcbd a9d4 cb3b 9e5e e9bd 66b7 02be
000003c0: 0320 14be 1c93 b6bd db3d c5bc cb27 26be
000003d0: 0275 7dbd 9bd0 87bd 9a27 a6bd 418e 06be
000003e0: f7b1 26be e8b3 adbd 9d20 abbd 044b a5bd
000003f0: 5731 92bd 12aa c6bd 4038 03be 116d c0bd
-0.14444016 -0.12344475 -0.0636178 -0.07868383 -0.08181797 -0.09163059 -0.119630225 -0.06574711
-0.08909946 -0.089930154 -0.15081088 -0.13294671 -0.07846935 -0.053629786 -0.042513765 -0.08892524
-0.19468918 -0.10163289 -0.030133849 -0.08996619 -0.07765315 -0.08141448 -0.07500704 -0.13938843
-0.10760253 -0.14582202 -0.04809243 -0.046278525 -0.050801784 -0.13508978 -0.124887384 -0.15217304
-0.17470296 -0.11261421 -0.102472976 -0.118109755 -0.11606867 -0.1774745 -0.07421282 -0.0864858
-0.12610063 -0.036567867 -0.08554192 -0.0974035 -0.015998349 -0.06086322 -0.06954805 -0.16282926
-0.082572706 -0.10004281 -0.16291776 -0.12505451 -0.15501913 -0.097539745 -0.026303308 -0.04738365
-0.077342965 -0.13322137 -0.13260157 -0.17284384 -0.037063956 -0.017038627 -0.09448592 -0.09146392
-0.06715003 -0.12322327 -0.1838193 -0.06456518 -0.073472954 -0.06354216 -0.04979858 -0.104530364
-0.17225629 -0.10138765 -0.0723994 -0.09103267 -0.09756885 -0.12104772 -0.19613281 -0.056507476
-0.12941264 -0.06656727 -0.15378143 -0.17710182 -0.06339397 -0.17164394 -0.06748565 -0.12219101
-0.043839697 -0.07536885 -0.06409575 -0.14495756 -0.20279777 -0.24597044 -0.08043881 -0.059969876
-0.06453178 -0.08701693 -0.10970049 -0.14190911 -0.15157767 -0.052546315 -0.1420326 -0.06326685
-0.033313017 -0.1683165 -0.14728768 -0.09318253 -0.14177021 -0.14191891 -0.13813807 -0.07838623
-0.045728713 -0.059782267 -0.14502676 -0.0583388 -0.11445296 -0.16833071 -0.14976582 -0.042640183
-0.0879396 -0.05879806 -0.11011635 -0.1626155 -0.028876128 0.005369823 -0.07462938 -0.080075175
-0.075096205 -0.12885807 -0.08600126 -0.06376617 -0.07796296 -0.13330986 -0.11836987 -0.117904045
-0.060096804 -0.08523568 -0.05810391 -0.0033023634 -0.08499309 -0.10320191 -0.09131436 -0.061906856
-0.13827686 -0.13906494 -0.12873049 -0.16187403 -0.05419537 -0.15388858 -0.13768604 -0.032136567
-0.15374327 -0.08266999 -0.11869581 -0.13667639 -0.1350623 -0.113662235 -0.11034639 -0.07828379
-0.1112416 -0.07078781 -0.05135611 -0.1292945 -0.08670002 -0.10005329 -0.03225226 -0.09705449
-0.016349519 -0.13982826 -0.23524326 -0.073029816 -0.10321162 -0.14181432 -0.12285925 -0.2960691
-0.12350789 -0.21025346 -0.09884512 -0.11228661 -0.10562523 -0.11167288 -0.09237395 -0.10622456
-0.16090554 -0.12598471 -0.062443636 0.02632139 -0.19368912 -0.065534376 -0.11039633 -0.13594034
-0.054583043 -0.09818712 -0.07897749 -0.128976 -0.09397024 -0.11901246 -0.10556022 -0.06759327
-0.072802216 -0.028067721 -0.073536016 -0.10122159 -0.17336121 -0.1270639 -0.08968824 -0.1549068
-0.13732627 -0.06329858 -0.104129754 -0.15603054 -0.104704864 -0.047759302 -0.044530343 -0.114399426
-0.14995776 -0.10249059 -0.030597204 -0.1582171 -0.073063724 -0.06103277 -0.09322512 -0.09101591
-0.10387379 -0.1166061 -0.074444264 -0.10941505 -0.095852815 -0.07594534 -0.039637573 -0.121595696
-0.12162976 -0.07082807 -0.09677578 -0.16189568 -0.09208868 0.0062204194 -0.11395 -0.12765273
-0.14465337 -0.08914778 -0.024077347 -0.16226117 -0.061879165 -0.06631585 -0.08113022 -0.13140203
-0.16278826 -0.0848158 -0.0835583 -0.08070949 -0.07138317 -0.09700407 -0.12814426 -0.09395803

fc3.weight f4 [1, 300]
00000000: e3d4 1a3c 6d70 93b9 584b c53c e9cf 29bc
00000010: aa07 d43c 7579 39bc 0796 b83b 35f1 863c
00000020: f68f 0fbc c7be 79ba db3f 06bb f819 77bc
00000030: ce7e 033b f0ce 0e3c 1faa 48bc ccf0 19bb
00000040: f522 9dbc e617 6dbb 8b9c e0b8 5e2e 4ebc
00000050: b469 84bc 4b8c 3cb8 d5e9 f23c cbcd fabc
00000060: 4163 c63b 41a6 9a3c 1aab 103c cd01 14bb
00000070: c6d1 53bc d800 30bc 141b 113c b66b 733c
00000080: fe3b 13bd b3ec c5bb edd7 87bc b439 743c
00000090: 9bcd b4bc 0e4f 5a3c be65 0bbc 2343 52bc
000000a0: cfd8 dc3c bd7a 88bc 47ee 963c dd8a df3a
000000b0: 27c1 083c 3ed1 cf3a bff7 3a3c 05f5 aebc
000000c0: 3f4d 3ebc 6df4 023c 6184 9bbc 0194 f6bb
000000d0: 5621 653b 24cd debc efa9 8aba f3f2 2bbc
000000e0: 8a44 47bc 4017 953c fdf6 d13c 48d2 edbb
000000f0: 7bf6 793a 48f1 783a 5fa8 89ba d924 83bc
00000100: dc53 fabc 7615 0a3d 01e6 a4bb a404 963c
00000110: b803 75bb b8d8 d8bc 1f17 d13c 5bfb 1dbc
00000120: 0e81 6bbc 9c4e c33c 562a 543c 525c 343c
00000130: 7bc4 253d d33c 5cbc e8ce e73c c49d 6f3c
00000140: 687e 35ba 1653 5b3c d63f 4bbc 9050 feb9
00000150: 9647 e33c f8a6 9d3c 53fd 983b 308d 193c
00000160: e7bf c83c b813 10bb 448e 90b9 2b85 693c
00000170: ac6c d03c 2819 123c e812 94bc 3562 71ba
00000180: c66c c3bc e8c6 60bb 22ae a93a 8819 a33c
00000190: 8c4f 3e3b a385 7f3b 7f81 013d d542 c83c
000001a0: 255f b1bc 39d8 b73c 4d2f c4bc 5ebb 89ba
000001b0: bd7c d23c f4f3 a43c 8d59 f43a 8294 60bc
000001c0: 797a c23c 339e f9bc bd8a 173d 5721 f2bb
000001d0: 1e84 77bb f497 f23b 8f63 963c ea93 afbc
000001e0: d7e8 693b 0583 8a3b 455e fcbc 4b21 8e3a
000001f0: dc84 ebbc ff41 003d b8af dd38 0d42 17bc
00000200: ea65 78bc a52f e33c e06c 003d a511 70ba
00000210: 6dd3 3fb9 9cf5 0dba 0611 fd3b bb0c e0bb
00000220: eca5 b0bb 8921 573a 49f6 cf39 35b1 dbbc
00000230: 2502 c2bb 276b 893b ca82 88bc 632b 59bc
00000240: 10af 87ba e231 dfbc 66dc 033d 3881 003c
00000250: 6c9c 3e3a ce23 ce3c a7c8 b1bb 2af3 573c
00000260: 027e 80ba 34fa abbc 9d56 2bbc 91fa 7a3c
00000270: 0ba4 5fbc 2388 97bb 93f8 d8bc 962b 92bb
00000280: 2341 5fbc bb13 bc3b 68e8 9d3c eee0 8ebc
00000290: ccb2 243c 4315 9ebc 5eca 8638 f40f bb3a
000002a0: 4d47 e1bc f326 8d3c db1d f33b 5a35 b9bc
000002b0: 0bb7 7b3c c3ca 3dbc 4255 323a 4ad6 bcbc
000002c0: ef81 e23c 0640 be3c 7606 e1bc ec6c b63c
000002d0: 2905 3fbc bbc1 b6bc 10c4 d33b ec9f 943c
000002e0: 62cf b7bc d6cb 40ba 7b9b f2bc 3a38 b93c
000002f0: b7d1 0ebb 40e7 0f3d e5f1 033b 59e2 af3a
00000300: e3ec 1d39 20cb 2abc 22c7 7fbb 9580 f8ba
00000310: ece1 703b 134c a9bb e253 973c 7096 103c
00000320: 5ccb 95bb e462 093b b3bb 5abc 1c3f fb3c
00000330: a604 e13c e126 ce3c 0b45 8bbc da94 d53b
00000340: bcc7 053c 1819 c5bc 9cfd fabc 1af8 62bc
00000350: cfbb a73a 0a5e a13c b968 cfbc 78b5 e4bc
00000360: bab0 283c 07e6 7d3c 6f20 643c 6bd2 493c
00000370: 88ce 8abc 2332 843c aa5f 053c 973d cc3c
00000380: 7c76 09bb 17cf d13c 9ad1 1a3a 5245 893c
00000390: 3b48 03bb 6e4d f93c ac64 f03c 1275 edbc
000003a0: 2c9f c1bb a664 c23b 80ec 8a3c 70b3 f83b
000003b0: aa65 fa3c e2b8 41bb 4555 5fbc 155f d93c
000003c0: d467 0cbd f1da 5d3c c1d8 97b9 9d29 2c3a
000003d0: 62dd 6bbb a32f e53c 9305 d63c 4159 9cbc
000003e0: 4601 a6bc 28b3 acba ccf2 c4bb 2035 52bc
000003f0: d11a 0abb fec5 bf3c fcf0 09ba fe9c 1d3c
0.00945017 -0.0002812179 0.024083778 -0.010364511 0.02588256 -0.0113204615 0.005633119 0.016472438
-0.00876235 -0.0009527024 -0.0020484838 -0.015081875 0.0020064595 0.00871633 -0.012247591 -0.0023489473
-0.019181708 -0.0036177575 -0.00010710311 -0.012584297 -0.016163684 -4.495335e-05 0.029652515 -0.030615708
0.0060543125 0.018878104 0.008829856 -0.002258408 -0.012928432 -0.010742389 0.008856554 0.014857223
-0.035945885 -0.0060401796 -0.016582454 0.014906336 -0.022070697 0.013324512 -0.008508144 -0.012833389
0.026958851 -0.016660089 0.018424166 0.0017054934 0.008346832 0.0015855206 0.011411606 -0.021357069
-0.011615097 0.007992846 -0.018984022 -0.0075249677 0.0034962497 -0.027197428 -0.0010579209 -0.010494935
-0.012162337 0.018199563 0.025630469 -0.0072577335 0.00095353246 0.0009496403 -0.0010502449 -0.016008781
-0.030557565 0.033711873 -0.0050323014 0.01831276 -0.003738625 -0.026470527 0.02552372 -0.009642447
-0.014374031 0.023841195 0.012949547 0.011008339 0.04047058 -0.013442236 0.028296903 0.014625017
-0.0006923438 0.013386508 -0.012405356 -0.0004850668 0.027744096 0.019244656 0.0046688705 0.009372041
0.024505569 -0.002198441 -0.00027571816 0.014252941 0.025442444 0.0089171305 -0.018075421 -0.00092080544
-0.023855578 -0.0034298245 0.0012945572 0.019909635 0.0029039113 0.0038989566 0.031617638 0.02444593
-0.021651814 0.02244197 -0.023948336 -0.001050811 0.025694245 0.020135857 0.0018642411 -0.013707282
0.02374004 -0.030470943 0.036997546 -0.0073892283 -0.0037767957 0.007403368 0.01835802 -0.021432836
0.0035691762 0.0042270445 -0.03080667 0.0010843662 -0.028749876 0.03131294 0.000105708314 -0.009232056
-0.015161017 0.02773268 0.03135383 -0.00091579027 -0.00018293942 -0.0005415322 0.0077229766 -0.006837455
-0.005390873 0.0008206596 0.00039665613 -0.026817897 -0.005920666 0.0041936818 -0.016663928 -0.013254973
-0.0010351855 -0.027245466 0.03219261 0.007843308 0.00072712335 0.025163557 -0.005425531 0.013180533
-0.0009803178 -0.02099333 -0.010457662 0.015318529 -0.013649951 -0.004624383 -0.026485717 -0.0044607623
-0.01362637 0.0057396567 0.019275859 -0.01744124 0.010052394 -0.019297248 6.427312e-05 0.0014271722
-0.02749982 0.017230486 0.0074193305 -0.022608448 0.015363465 -0.011583987 0.00068028655 -0.0230514
0.027649848 0.023223888 -0.027468901 0.022268735 -0.011658945 -0.022309175 0.0064625815 0.018142663
-0.022437755 -0.00073545927 -0.029615154 0.022609819 -0.002179248 0.035132647 0.0020133194 0.0013418897
0.00015060934 -0.010424405 -0.0039028605 -0.0018959219 0.0036755754 -0.0051665395 0.018472616 0.00882493
-0.0045713615 0.0020963484 -0.013350415 0.030669741 0.027468037 0.025165023 -0.017000696 0.0065179886
0.008165296 -0.024059817 -0.030638508 -0.013853097 0.001279706 0.019698162 -0.02531849 -0.027918562
0.010296041 0.015496737 0.013923748 0.012318234 -0.016944185 0.016137188 0.008140484 0.024931712
-0.0020975163 0.025611443 0.0005905867 0.016756687 -0.0020032066 0.03043243 0.02934488 -0.028986488
-0.0059088673 0.0059324084 0.016958475 0.00758975 0.030566055 -0.0029559662 -0.01363117 0.026534596
-0.034278706 0.013540969 -0.0002896246 0.000656748 -0.0035990109 0.027976817 0.026125705 -0.019085528
-0.02026428 -0.0013175951 -0.006010389 -0.012830049 -0.0021073113 0.02340984 -0.0005262045 0.009619949

bn1.weight f4 [400]
00000000: 9853 b73d 3e8b 2a3e 1c35 963d a8b3 0d3f
00000010: 6411 863e a6b4 b13e dee0 013e 70ab 273e
00000020: e9c4 b5ba d3dc 5d3e 32bc 133e b5ae 54bb
00000030: 3857 6b3c 6967 75bb 6b6c 613f 50c7 393e
00000040: 8a9c 063b bd1f d83d 4e4a 2e3f 8807 89bc
00000050: bee8 1b3e 9fdb d33e dba5 953d 90b5 b83d
00000060: ba45 583f 3295 3d3b 1e5c e63e 8838 863e
00000070: b0f5 ce3e 2356 3b3e 371a ec3e 1235 583e
00000080: 5abe 323f 1d75 4fbb 7286 3a3d 93bd 773e
00000090: c3a2 c739 425b 443d 19ba c83d 16c9 7e3e
000000a0: 6882 24bb 9efc e43d 7bd7 b93e f3d4 a53e
000000b0: e7d2 c13a bbd4 6b3d 3b82 483b 992b 1c3e
000000c0: da7e a239 5a01 c83c b953 c6ba 0d0d 283e
000000d0: 5091 da39 522a 20bf f042 8b3e b17e e83d
000000e0: 2cae b63d 32f8 b83a c672 bc3c 42b2 783d
000000f0: f4e3 003e 3ac6 9e3d 1d8e 8f3d f486 7c3b
00000100: 1015 3fbb 08be 193f 24da 063f 6a45 623d
00000110: 8c1d f33d 993c 923e d725 20bb 95ba 363e
00000120: 65d5 ad3e ebd5 d13d c37c 233e dd5c 003e
00000130: a4b5 0c3e 87a5 a53e 5567 3a3b 6ce6 863b
00000140: 4505 823b f6a0 4c3e c958 6b3d ec96 18ba
00000150: 1bca ea3e 7a19 d93d 0159 063e 3426 ce3d
00000160: 8272 d73a 30c9 8536 f449 a13d a1e0 4e3e
00000170: a9ef c53d 4695 253e 7f07 633e 013a 9c3d
00000180: ade1 523e c19d 91ba 3715 60bc 7a7b 693e
00000190: e627 173e f23f 123e 3ccc 9c3e 3dc1 253e
000001a0: 1118 33ba 8f58 8b3e 4896 223e 6b4f 1c3e
000001b0: c202 cfb9 53ba 633d 4018 bc3d 1dc5 bfba
000001c0: 6040 f23d 8e17 423b a4fe ba3d 64d7 50bb
000001d0: d68b ad3a 4672 17bc 00bd d53d 68b2 f13d
000001e0: a264 0f3e 9609 743e 0541 3c3e 2aba f53d
000001f0: e858 ddbc e15c 95bc ed36 313e fa9e 6d3e
00000200: 96a4 363e 1e13 043e 078b 463e 594b 173d
00000210: 2200 233e c340 0e3f 91d8 253a 408e 873d
00000220: ff84 313e cb4f d33d 06cb bf38 08fd 493e
00000230: 31ab cc3d d8cb 4b3e 2367 003f 1d58 3d3b
00000240: c305 853e e9ce 023b 70a2 2b3e 7921 9b3d
00000250: 4ad7 e239 5057 2a3e 31e1 d43e c65b 1d3d
00000260: 38ba c83e 21eb 0b3f f3df 0d3e 9326 963e
00000270: fe7e c53d e588 f53d f34b 60bd 7ab8 87ba
00000280: a53e 243e 1be2 203b 5968 4f3e 30ad 573e
00000290: 234a 793e 6568 013e cc6c 363f 919f bfbb
000002a0: 350c 4f3e 17f8 543e c8f0 e03d b40a d73c
000002b0: 17dd 8d3e 94c9 bcba f518 953d d4b8 2c3c
000002c0: ee7d 063e e454 b73d 2589 cc3e a946 183e
000002d0: 9862 1e3c ef35 b43f 7545 023f d198 643f
000002e0: 79a6 df3d cc8b 1d3f 74ac b7bb 186d 103e
000002f0: 9de5 cf3e 27ae f13e 41d1 cf3d 29dd bd3d
00000300: ea42 163a 00a7 2a3d f8ad 8d3e b6d1 d03a
00000310: 3bb1 8d3e e988 443f dbf4 bfbb 1bef 9d3d
00000320: 1023 063f 9d88 313e 2bf5 3c3e 76c5 7c3e
00000330: 9083 a93e 98ab 3abd 8c45 063a 30e2 17bb
00000340: 45d5 ff3d 459f aa3d edf5 e13d a1a5 1d3e
00000350: 721a 30ba 6f4a 7b3d 577a ff3d c91e d2bb
00000360: cf89 793e bec3 353e ee7d 8bb9 eb94 1c3e
00000370: 0cc7 0b3d 1e94 063e 99d9 6939 af21 15bc
00000380: d98a 613e a426 fa3d 05d4 e03d 4920 ab3d
00000390: d222 fa3e b443 2d3e 2e63 b53e 57e0 af3d
000003a0: 953e dd3d 2334 1a3e 7fb5 053e a183 58bb
000003b0: 7bf9 093e e382 bd3b c7cb 2b3e f62b 223e
000003c0: cfc7 91ba f540 16bb 4e09 0a3f 85c5 4a3d
000003d0: 4c94 15ba 692c ab3d 8a96 703d eab8 033c
000003e0: c78b 423e 6323 cdb9 50cd 133b 16d1 183e
000003f0: 45cf 663e f6c2 773e 6750 733d 6190 8d3d
0.08951491 0.16654679 0.073343486 0.5535226 0.26185143 0.34708136 0.12683436 0.16373992
-0.0013867888 0.21666269 0.1442726 -0.0032452766 0.014364056 -0.003744567 0.8805606 0.18142438
0.0020540082 0.105529286 0.6808213 -0.016727224 0.15225503 0.41378495 0.07307025 0.09019005
0.84481394 0.0028928039 0.44992155 0.26215005 0.4042182 0.18294577 0.4611375 0.21113995
0.69821703 -0.0031655498 0.045538373 0.2419341 0.00038077505 0.047938593 0.0980112 0.24881396
-0.0025102142 0.111809954 0.3629721 0.3238903 0.0014787585 0.057575922 0.0030595202 0.15251006
0.0003099356 0.024414707 -0.0015131152 0.16411228 0.00041688466 -0.62564576 0.27199507 0.113522895
0.089199394 0.0014112054 0.023003947 0.060716875 0.12586957 0.077526525 0.07009528 0.0038532587
-0.0029156841 0.6005559 0.52676606 0.05524198 0.1187087 0.28561857 -0.0024436617 0.17844613
0.3395187 0.1024588 0.15965562 0.12535425 0.13741165 0.3235285 0.0028442938 0.004116824
0.0039679133 0.19983277 0.05745772 -0.0005820829 0.4585732 0.106005624 0.1311989 0.100658804
0.0016437324 3.98713e-06 0.078754336 0.20202877 0.09664852 0.16170225 0.22170828 0.07628251
0.20593901 -0.0011109636 -0.013676933 0.22801009 0.14761314 0.14282206 0.30624568 0.16186996
-0.0006831894 0.27216002 0.1587764 0.1526467 -0.0003948417 0.055597614 0.09184313 -0.0014630888
0.11828685 0.002961609 0.091306 -0.0031866664 0.0013240527 -0.0092435535 0.104364395 0.118016064
0.14003232 0.23831782 0.18384178 0.119983986 -0.027019933 -0.018232765 0.17306109 0.23205176
0.17836222 0.12897918 0.19388972 0.03693709 0.1591802 0.5556757 0.00063265214 0.06618929
0.1733589 0.10317954 9.145406e-05 0.1972543 0.0999359 0.19901979 0.50157374 0.002889163
0.25980958 0.0019959754 0.16761184 0.07574744 0.00043266482 0.1663487 0.41578057 0.0384176
0.39204574 0.54655653 0.13854961 0.29326305 0.096433625 0.11989001 -0.05475993 -0.0010354661
0.16039522 0.0024548832 0.20254649 0.2106216 0.24344687 0.1263748 0.7125976 -0.005847879
0.202195 0.20797764 0.109834254 0.02625022 0.2770774 -0.0014403337 0.07280151 0.010542113
0.13133976 0.089517385 0.39948383 0.14870705 0.009667061 1.4078959 0.50887233 0.8929568
0.10920424 0.6154144 -0.005605275 0.14104116 0.4060487 0.4720318 0.10147334 0.092706986
0.0005732017 0.04166317 0.2767179 0.0015931639 0.2767428 0.7677141 -0.0058580465 0.077116214
0.5239725 0.1733727 0.18452899 0.246847 0.33108187 -0.0455738 0.00051220576 -0.002317559
0.1249185 0.083311595 0.11033235 0.15395214 -0.0006717808 0.061350282 0.12474506 -0.0064123613
0.24368976 0.17750451 -0.0002660597 0.15291183 0.034125373 0.1314244 0.00022301673 -0.009102269
0.22025622 0.12214401 0.109779395 0.08355767 0.4885469 0.16920358 0.3542723 0.08587711
0.10802952 0.15058951 0.13057517 -0.0033037441 0.13474075 0.005783425 0.16776954 0.15837082
-0.001112217 -0.00229269 0.5392045 0.049504776 -0.0005705997 0.0835808 0.058737315 0.008039692
0.18998633 -0.00039127012 0.0022552796 0.1492351 0.22540005 0.24195465 0.05940285 0.06912304

bn1.bias f4 [400]
00000000: 9c08 01bb 046d 9bbc 5eec b6bb 144e c03d
00000010: 5211 5a3d ad70 303d 1e1e a93c 47c6 803d
00000020: e167 45b9 a86d 38bb 17a6 373d 4fbe 163a
00000030: 66d5 2abb fb33 f839 2abb 343e ac3d 463d
00000040: 5af5 85ba 9e85 c73d 33ef 4e3d cbd1 193b
00000050: 43f5 313d 069f 233e 33ea cc3b 3bd8 a23c
00000060: 19b5 133e dc8f 96b9 c397 713c 1f6c 1b3e
00000070: e94c 083e 19e8 153d 753c 293e 2d34 2e3d
00000080: 109c 993d 1d26 04bb 0ff0 2f3c ce06 f93c
00000090: b700 d138 2500 3fba 7482 703d 9524 a63d
000000a0: 8493 fd38 7750 01ba d16e 8f3c 9dd4 f23d
000000b0: dae9 15bb b76a 963b 91ac 5eba fed9 5f3c
000000c0: bc9c 67ba 2711 9a39 9a01 23bb b1aa 433d
000000d0: 3016 b6ba dbb4 8fbe e91d 063e 4c80 aa3c
000000e0: 05ef 13bd 9395 af3a aa24 f3ba bcb7 4b3e
000000f0: dceb 823d 2eb4 0cbd 1aff d13b fcd0 63bb
00000100: df09 d8ba 875f 5b3e e762 8e3d 8b96 23bc
00000110: 4d9b 9b3d 2ff6 893d e3f8 0bb9 3e96 58bd
00000120: d659 813d 2105 89bb ed89 443d 5174 b43d
00000130: 9bfb 513d d72d 213e ff10 7bb9 49bb 15ba
00000140: c3af 8e3a a737 803d 1cf6 deba d67e 13b9
00000150: ceb7 1bbd 779d e83c 5701 293d ed60 ea3c
00000160: 5ee5 fdba b036 a638 a8cf b7bb d4b5 323d
00000170: a919 1a39 115f 863d e794 363d ece1 1b3c
00000180: d979 99bc 00be f0b9 505f 02bb 32f6 5d3d
00000190: 4fc5 193d 7c1a 8a3c 6f39 343d 54b7 023d
000001a0: d3cb c3ba 4e80 f73c 9fb1 c63d fdcd b63c
000001b0: c06c 783a 17ad 343b 4509 edbb 73ed 6339
000001c0: 8e74 2d3d ffc4 27ba 7335 b03c 3bf7 51ba
000001d0: 78fa a8b9 bdc6 c8ba 760a 60bb 4641 0f3d
000001e0: 36ed 18bc 26ff 4e3d e3a3 fb3b 052f a23d
000001f0: 6024 84bb 5f21 56bb 00ae 5d3e d3e2 0d3d
00000200: fa3b ce3c fd47 423c cece 9c3a 21e1 153c
00000210: da01 153d a19f 793e 6dd0 3bba 9638 c33c
00000220: 4b96 023d fbe5 9c3c 5523 11ba 47f0 843d
00000230: 5f68 b9bb 2c12 68bd a097 2b3e f1c5 91b9
00000240: a889 893d 375f ceb9 d361 23bc e7e1 9139
00000250: f123 033b 5114 f23c 59bc 993c d48c 953e
00000260: cb74 323d 35c3 693e 046c 223d fa8f 4a3d
00000270: 95b2 45bc 78e1 173c 9edd e93d 27de 433a
00000280: 45cc c63d 8b3a 28b8 b3b7 6e3d 7559 353c
00000290: 741d bf3d 2913 8bbb 2786 223e 2c4e 4eba
000002a0: 11c8 193d a30e 173e dde3 483d 7960 6d3a
000002b0: ace4 2d3d 3bd9 0cba afd1 b4ba 4de7 81be
000002c0: ecbb 893d b8b2 edbb a1d0 2f3d 2c5a b03d
000002d0: f2c4 72b9 a043 083e a555 ee3d e308 043e
000002e0: c957 4d3d d140 1b3e 80ca f4b9 3082 2f3d
000002f0: ac6e bc3d 4d41 613e ef4f 36be ba2e db3c
00000300: 377f b2ba 3fd8 793c 9820 123d bf51 6bba
00000310: a41f ab3d 30b1 9c3d f731 e8ba ba50 483d
00000320: 1445 583d 19ad 393d b2c4 5a3d 5a90 ebbc
00000330: 701f c53d 051d 2fbb 7df7 a7b9 8f30 a7b9
00000340: 1e0a 563d 997f 1bbb 71f4 a23c 9d29 2e3d
00000350: 83d0 9739 b5d5 2b3c ff27 9eb9 2743 313a
00000360: 0983 ef3c 44df 773d c362 26b9 83da 8e3d
00000370: 220a 8db9 4c61 af3c 0169 1b3a e589 613a
00000380: 5393 f43c f701 e3bc 794c 2d3c 4de6 0b3c
00000390: 0a0a de3d 9194 003d 93e5 d73d 698d 3c3a
000003a0: 42b9 3dbb f505 04bd 4136 563d 50c2 8cba
000003b0: a560 653d 12f7 a0ba bfc1 38bb c6e4 7d3d
000003c0: 82bb 0738 0083 c6ba a10e 843d 77c4 d33b
000003d0: f668 0e39 bdc2 e7ba 6c13 9b3e 53a5 b9ba
000003e0: 5bb9 ec3c cb5b eeb9 7ed0 a5b9 dcd2 183d
000003f0: 452f cc3d 847f dc3d 4cde 07bc 02fd c03d
-0.001968897 -0.018972881 -0.0055823764 0.09389892 0.053239174 0.043076206 0.020644244 0.062878184
-0.00018826082 -0.0028141532 0.04483613 0.0005750404 -0.0026067137 0.00047340975 0.17649522 0.04839866
-0.0010220215 0.09742282 0.050521087 0.0023470994 0.04344679 0.15978631 0.0062535047 0.019878497
0.14424552 -0.00028717413 0.0147456555 0.15177964 0.13310589 0.0365983 0.16526969 0.042530227
0.0750047 -0.002016432 0.010738387 0.030398753 9.96603e-05 -0.00072860933 0.05871816 0.08112446
0.00012091457 -0.00049329497 0.017508896 0.11856959 -0.0022874982 0.004590358 -0.00084943423 0.013662813
-0.0008835306 0.00029385948 -0.002487278 0.047770206 -0.001389211 -0.2806767 0.13097347 0.02081313
-0.03611662 0.0013396017 -0.0018550355 0.19894308 0.06392643 -0.03435152 0.0064085843 -0.0034762016
-0.0016482434 0.2142316 0.06952458 -0.009984623 0.07597981 0.06736409 -0.0001334879 -0.052877657
0.06315963 -0.0041815196 0.0479831 0.08811248 0.05126534 0.15740143 -0.00023943557 -0.00057118066
0.0010886121 0.06260615 -0.0017010602 -0.00014066263 -0.038017087 0.028395398 0.041261043 0.028610671
-0.0019370725 7.925683e-05 -0.0056094714 0.043630436 0.00014696144 0.06561101 0.044575598 0.009514313
-0.01873486 -0.00045917928 -0.0019893236 0.05418987 0.037541684 0.016858332 0.044000085 0.031913117
-0.0014938064 0.030212548 0.09701847 0.02231502 0.0009476654 0.002756899 -0.007233771 0.00021736864
0.042347483 -0.0006399899 0.021509862 -0.00080095575 -0.0003223007 -0.0015318018 -0.0034185923 0.03497436
-0.009333899 0.050536297 0.007679449 0.079191245 -0.0040326566 -0.00326737 0.21648407 0.034640145
0.025175083 0.011857984 0.0011963488 0.009147913 0.03637872 0.243773 -0.0007164542 0.023830693
0.03188161 0.019152632 -0.0005536576 0.06491142 -0.005658194 -0.056657955 0.16757059 -0.00027804033
0.06715709 -0.00039362322 -0.009972054 0.00027824866 0.0020010436 0.029550703 0.018766569 0.29209006
0.043568414 0.22828372 0.039653793 0.049453713 -0.012066503 0.0092700645 0.11419223 0.0007471763
0.0970693 -4.0108844e-05 0.058280658 0.0110686915 0.093317896 -0.0042442274 0.15871488 -0.0007869925
0.037544314 0.14751677 0.049045432 0.0009055208 0.042454407 -0.0005372946 -0.0013795401 -0.2537178
0.067252964 -0.007253971 0.042923573 0.08610949 -0.00023152286 0.13307047 0.11637429 0.12894015
0.050132547 0.15161444 -0.0004669018 0.042848766 0.092007965 0.21997567 -0.1780393 0.02675568
-0.0013618235 0.015249311 0.035675615 -0.00089767197 0.08355644 0.07650983 -0.0017715086 0.04890511
0.052800253 0.045331094 0.05341024 -0.028755356 0.09625137 -0.0026720178 -0.00032037115 -0.000318889
0.052255742 -0.0023727177 0.01989195 0.042520154 0.00028956318 0.010487963 -0.00030165908 0.00067620206
0.029237287 0.060515657 -0.00015867785 0.069752716 -0.00026901165 0.0214087 0.00059284276 0.0008603617
0.029855406 -0.027710898 0.0105773145 0.008538795 0.108417585 0.031391684 0.10541835 0.00071927026
-0.0028949534 -0.032232244 0.052297834 -0.0010739062 0.05600037 -0.0012280664 -0.0028191654 0.061985753
3.236114e-05 -0.0015145242 0.06448103 0.0064626294 0.00013581276 -0.0017681938 0.30288255 -0.001416365
0.028896978 -0.0004546329 -0.0003162659 0.037310466 0.099699534 0.10766509 -0.008292746 0.094232574

bn1.running_mean f4 [400]
00000000: 4e7f 803f a682 2f40 05e2 963f ab5f 1441
00000010: 653e b040 52e5 bb3f dab6 8f3e 3879 a93f
00000020: 4e84 3f3e ed17 003f 9f6b 3340 9849 393f
00000030: d523 3041 3234 0440 9dea 8c3f aef4 8640
00000040: 3683 9340 6cc4 8340 830c 4e3e 0ca3 263d
00000050: 220a a83e 6977 1740 6f1b 243e c76a d83f
00000060: 2b40 b941 be21 0840 f401 7a40 9ba5 2740
00000070: 8d6f 063f b1eb 643f 47d2 5140 f3c6 d73f
00000080: a1c7 bc41 1c24 0240 cecf 2040 5f8e 9b40
00000090: 3cef 393f c02e b23f 4a4e 9640 378f 3640
000000a0: 8fa8 e73f 4146 dd40 9998 9b3f e324 8540
000000b0: f2ab 003f b417 1440 42de 163f 1891 be3e
000000c0: d0eb 1b40 2541 1e41 3c00 4240 a2da 3740
000000d0: dafc 513f 2c8d 1242 3fd9 243f 39b3 a53f
000000e0: d8b8 a63f e47b 1541 6f4e 163e 12a3 eb40
000000f0: 67f7 2840 f8d3 9141 7338 713f b49a 8d40
00000100: 30ae fb3f ea3a 1640 ba63 b040 4c81 c840
00000110: a610 6740 2b0f 9940 c438 bc3f d2c1 413f
00000120: d8f2 173e ef6b a13f 2c98 1c40 7481 ef40
00000130: cce2 3e40 beac 7d40 7ac4 1040 3f73 343f
00000140: 0bc6 a13f d6ad c640 8079 f940 f6eb 683f
00000150: 64f1 b541 2160 f03f 881b 3f3f 6836 1e3f
00000160: 4803 cb3e 17ec 0e3f 2ae9 cb3f e940 8640
00000170: 3081 813f 491f 1b40 ee19 553f 7fef bc3f
00000180: 45e4 1b41 058d 0040 ca6a 183e f3d0 0f3d
00000190: 5aa4 5f3f 6176 3140 278e b33f fcee 1e40
000001a0: f6cc 0e3f e3ca e13f b061 3240 5a00 113e
000001b0: 7843 533f 980e 483f c825 3040 f824 c940
000001c0: 5ff4 2441 0e56 a03f 0990 4f3f 0c87 423f
000001d0: 6593 fe3f 6b34 533b 781e 8a40 111c e23e
000001e0: 06a7 833f 3db2 1040 6607 4040 d2bf cf3f
000001f0: 06e3 a23e b307 3a3d d431 4641 495a 7a3f
00000200: d94d 893f e607 cc3f ebee a33f c0b4 853f
00000210: 7eb9 1d3e 9e7b 2e40 98bb bd40 6551 ad3f
00000220: 0da7 b03e 4c03 f33e 8bc3 0341 eedf 4a40
00000230: 5a19 7e3f d0f3 f03f 4a59 5e3f 1b5d 413f
00000240: fa34 5b3f 00f5 d53f 3606 2c40 ca9b d43e
00000250: 37a6 d93e 7dbe b340 7384 2640 8778 1140
00000260: 1d02 123f 1305 a841 a020 5d40 bfe6 c83e
00000270: bcb4 9240 9200 1a40 6f37 0a3f f86b 203f
00000280: 188b 9f40 9c8b 933f 7cd1 5440 e7bb cf3e
00000290: 7220 4040 0222 313f 1c91 8541 c2d8 3c3f
000002a0: f00c 7a3f a388 c440 35d5 8b3f 041c 253c
000002b0: d7cf 2a3f 2ef8 e33e 659e c03f e545 7841
000002c0: f767 4c40 dc79 253f 7e84 1140 ed03 3840
000002d0: e831 b13e 41c9 d241 7ece 5b3f e9ed b641
000002e0: c015 573f 1085 373f d48f 7a3f 6b7b 5440
000002f0: 1256 113f 01d5 5c40 8795 f540 0836 0f40
00000300: 83bd 5941 b280 b83e 0c8d 0040 38dd 8e3f
00000310: fb26 3040 2f69 c841 e58d 2e3f e2c4 0341
00000320: f96c 013f db7a 893f a446 cb3f f399 3740
00000330: 849b 833e 3f37 8c3e 4d5f 0340 779e 803f
00000340: 0aff 7140 a38f 973f c6ae 0f40 c54e 0f40
00000350: 7fb3 3441 5034 c840 9921 823f 5269 673f
00000360: e108 fa3f 70c7 903f 34d8 db3e 3956 813f
00000370: 980f 5d40 dcc1 db3f 7d50 da3e 71ba ac3e
00000380: 50a8 2c3f 327a c93e 0a4f 9040 01b2 083f
00000390: b2a8 ff3f 5916 c63e db7f 1040 ae23 4d3c
000003a0: b798 fb3e 90ee 3240 1066 7540 3e21 2d40
000003b0: b69e 3040 fac0 ac3e fdff d240 3f86 9a3f
000003c0: 5cec 963f 4675 673e 1816 0b41 8706 053f
000003d0: 1626 c83e 0651 af40 d25c 8f3f 87d2 b33f
000003e0: cd95 633e 7972 393f a551 6a41 132c a53f
000003f0: f56b b63e 3664 4640 ccc9 9540 4160 b23f
1.003885 2.7423491 1.1787726 9.273356 5.5076165 1.4679358 0.28069192 1.3240118
0.18702814 0.5003651 2.8034437 0.7237792 11.008748 2.0656857 1.1009098 4.217368
4.609767 4.1177273 0.2012196 0.040682837 0.3282023 2.3666632 0.1602609 1.6907586
23.156332 2.1270595 3.9063692 2.6194828 0.52513963 0.89422137 3.2784593 1.685759
23.597475 2.033454 2.5126834 4.8611293 0.7263067 1.3920517 4.697057 2.8524911
1.8098315 6.914826 1.2155944 4.160753 0.5026237 2.3139467 0.5893289 0.37220073
2.4362679 9.890904 3.0312643 2.8727193 0.82026446 36.637863 0.6439399 1.294532
1.302516 9.342747 0.14678358 7.363656 2.6401002 18.2285 0.9422676 4.4251347
1.9662533 2.3473458 5.5121737 6.2657833 3.6103911 4.7831016 1.4704823 0.7568637
0.14838731 1.2611064 2.4467878 7.4845524 2.9825926 3.9636683 2.261992 0.7048835
1.2638563 6.20872 7.7960815 0.9098505 22.742867 1.8779336 0.74651384 0.6180177
0.3965094 0.55828995 1.5930531 4.1954236 1.011755 2.4237845 0.8324269 1.4760588
9.74323 2.0086071 0.14884487 0.03511138 0.87360156 2.7728503 1.4027756 2.4833364
0.55781496 1.7640041 2.7872124 0.1416029 0.82524824 0.7814727 2.752306 6.285763
10.309661 1.2526262 0.81079155 0.75987315 1.9888731 0.0032227288 4.3162193 0.44162038
1.0285347 2.2608788 3.0004516 1.6230414 0.3181383 0.0454175 12.387165 0.97794014
1.0726882 1.593991 1.2807287 1.0445786 0.15402791 2.726295 5.9291496 1.3540465
0.3450245 0.47463453 8.23524 3.1699176 0.99257433 1.8824406 0.86854994 0.7553269
0.8562771 1.6715393 2.687879 0.41525108 0.42509624 5.617003 2.601834 2.2729814
0.57034475 21.002478 3.4551163 0.39238545 4.5845623 2.4062848 0.53990835 0.6266475
4.985729 1.152698 3.325286 0.40573046 3.0019803 0.69192517 16.695854 0.73768246
0.9767599 6.1416793 1.0924441 0.01007748 0.6672339 0.44525284 1.5048338 15.517064
3.1938455 0.6463907 2.2737117 2.8752396 0.34608388 26.348269 0.8586196 22.866167
0.8401756 0.7168741 0.97875714 3.3200328 0.5677196 3.4505007 7.674503 2.2376728
13.6087675 0.36035687 2.0086088 1.1161261 2.7523792 25.05136 0.68185264 8.235567
0.50556904 1.0740618 1.5880933 2.8687713 0.25704587 0.273859 2.0526917 1.004836
3.7811913 1.184071 2.2450423 2.2391827 11.293822 6.256386 1.0166503 0.9039508
1.953396 1.1310863 0.42938387 1.0104438 3.4540768 1.7168536 0.42639533 0.33735994
0.67444324 0.3935104 4.5096483 0.5339661 1.9973357 0.38688925 2.2578037 0.012520714
0.4913995 2.7958107 3.8343544 2.705154 2.759687 0.3374098 6.5937486 1.2072219
1.1790881 0.2260333 8.692894 0.51963085 0.39091557 5.4786406 1.1200202 1.4048623
0.22225113 0.72440296 14.644933 1.2904075 0.3562924 3.0998664 4.6808834 1.3935624
