weight1/checkpoint_critic_target_1.pth (torch_old, 575149 bytes, 9 tensors)

fcs1.weight f4 [400, 52]
0	0x3e0fddfd	0.14049526
1	0xbf173746	-0.59068716
2	0x3cc50b3e	0.024053212
3	0x3d31f3fe	0.04344558
4	0xbdd69740	-0.104780674
5	0xbf14c495	-0.5811246
6	0x3ce62dfe	0.028098103
7	0x3d42203f	0.047394034
8	0x3de71803	0.11283877
9	0xbeab2e6b	-0.33433852
10	0xbe18a10d	-0.14905186
11	0x3ecce37a	0.400173
12	0xbe30594c	-0.17221564
13	0xbeb60e98	-0.3555801
14	0xbde8a282	-0.11359121
15	0x3ee39c3d	0.44455138
16	0x3deea016	0.11651628
17	0xbe2cbfaa	-0.16869989
18	0xbd7ceb75	-0.061747987
19	0x3f01e895	0.50745517
20	0xbe3f28d2	-0.18667915
21	0xbd34f2c5	-0.044176836
22	0xbca90b83	-0.020635372
23	0x3ee3db27	0.44503137
24	0x3f23cccf	0.6398439
25	0xbf6c347f	-0.922676
26	0xbdbc568f	-0.09196197
27	0xbd6ff9ba	-0.058587767
28	0x3dc3e65f	0.09565424
29	0xbf191bfb	-0.5980832
30	0xbd4a6e86	-0.04942181
31	0xbd4abdbe	-0.04949736
32	0x3eec56bb	0.4615992
33	0xbf63035c	-0.88677
34	0xbd53e3fe	-0.051731102
35	0x3e1c8fd0	0.15289235
36	0x3e1cab67	0.1529976
37	0xbeba26d3	-0.36357746
38	0x3c50a943	0.012735668
39	0x3e18f4fd	0.14937206
40	0x3efb3b54	0.490687
41	0xbf6792e1	-0.90458494
42	0x3d707894	0.058708742
43	0x3e164035	0.1467293
44	0x3e610bfa	0.21977225
45	0xbd75df03	-0.060027134
46	0x3c514ff0	0.012775406
47	0x3e004e35	0.12529834
48	0x3e9b694f	0.30353782
49	0x3e071cea	0.13194624
50	0xbf208b5d	-0.6271265
51	0xbe9849a2	-0.29743677
52	0x3d3ee14b	0.046601575
53	0x3ea024b6	0.31278008
54	0xbb032e4c	-0.0020016609
55	0x3d9eae1d	0.07748053
56	0xbe26be78	-0.16283596
57	0xbf000612	-0.5000926
58	0xbc6e4e97	-0.0145451045
59	0x3cceccd0	0.025244147
60	0x3da09131	0.07840193
61	0x3eabe38e	0.33572048
62	0x3e42ffd8	0.19042909
63	0xbdff7724	-0.12473896
64	0xbe341f6a	-0.17590109
65	0xbee94f3e	-0.4556827
66	0x3e17c62b	0.14821689
67	0xbda2cfc2	-0.07949783
68	0xbc6cf30b	-0.014462243
69	0x3e203496	0.1564506
70	0xbe47575e	-0.19466922
71	0xbdeaefea	-0.11471541
72	0xbea518e8	-0.32245564
73	0xbe36b414	-0.17842132
74	0xbe0bf32c	-0.13666981
75	0xbe279b8a	-0.16367927
76	0xbc595926	-0.013265884
77	0xbf312cfa	-0.69209254
78	0x3d8447a4	0.06458977
79	0xbe581de2	-0.2110515
80	0x3e2a9fcc	0.1666252
81	0xbf14fe22	-0.58200276
82	0x3dbcee4b	0.09225138
83	0xbde67241	-0.11252261
84	0x3d8a90ee	0.067659244
85	0xbf3ada14	-0.7298901
86	0xbda386d8	-0.07984704
87	0xbf0eb4c1	-0.5574456
88	0x3e3306c3	0.17483048
89	0xbf0321d5	-0.512235
90	0xbc656d64	-0.014003132
91	0xbf01fb3c	-0.5077398
92	0xbd18474b	-0.037177365
93	0xbf5c5f81	-0.8608323
94	0xbc8fc574	-0.017550208
95	0x3ea49fc2	0.32153136
96	0x3e952c73	0.29135475
97	0xbe373812	-0.17892483
98	0xbcf4e694	-0.029895104
99	0x3e9bdb88	0.30440927
100	0x3e6521b4	0.22376138
101	0xbed2833c	-0.4111575
102	0x3f8088e9	1.0041782
103	0xbf3b3f6e	-0.7314366
104	0x3f030b27	0.5118889
105	0x3f0a3c97	0.539987
106	0xbcef2e2d	-0.029196823
107	0xbdbdc5dc	-0.09266254
108	0xbc0bb1dd	-0.008526293
109	0xbe077b7f	-0.13230704
110	0xbd1a2f24	-0.037642613
111	0xbe0fde30	-0.14049602
112	0x3ec647f2	0.38726765
113	0x3f1fdd3a	0.6244694
114	0x3ba46d35	0.0050179013
115	0xbd9c952b	-0.07645639
116	0x3c04e71f	0.008111744
117	0xbec8fd4d	-0.39255753
118	0xbd6ee1e2	-0.058320887
119	0xbde423c5	-0.11139635
120	0x3ef2de52	0.47435242
121	0x3f24986d	0.64295083
122	0x3e04426d	0.12915964
123	0x3dc28d1c	0.09499571
124	0xbc344621	-0.011003048
125	0xbf381e1f	-0.7192096
126	0x3e0a32f4	0.13496
127	0x3e01ac9a	0.12663499
128	0xbd81ab2a	-0.06331475
129	0x3d38428f	0.04498535
130	0x3cacf4a4	0.021112747
131	0xbc3ca5f0	-0.011514172
132	0x3cc74204	0.02432347
133	0xbe050b47	-0.12992583
134	0x3af2c300	0.0018521249
135	0xbd0d3bf1	-0.034480993
136	0xbde6837f	-0.1125555
137	0xbd99b1f5	-0.07504646
138	0xbafac958	-0.0019133491
139	0x3d91abb5	0.07112829
140	0xbcdfeb37	-0.027333839
141	0xbecd43b2	-0.4009071
142	0xbd11bf08	-0.035582572
143	0x3d389191	0.045060698
144	0xbdd611ae	-0.10452591
145	0xbce88ff1	-0.02838895
146	0xbd05bac0	-0.0326488
147	0x3e1cb6b2	0.15304068
148	0x3c354caf	0.011065646
149	0xbf2d2f80	-0.67650604
150	0xbcd08382	-0.025453333
151	0x3e45d02a	0.1931769
152	0x3eb4dcda	0.35324746
153	0xbeabe24e	-0.33571094
154	0xc01ce742	-2.4516149
155	0x3e7d2dfe	0.24724576
156	0x3ea27d0c	0.31736028
157	0x3f0198de	0.5062388
158	0xbad87639	-0.0016514725
159	0xbea14716	-0.31499547
160	0xbeba24b2	-0.3635612
161	0xbc02762a	-0.007962743
162	0x3cb023c7	0.021501435
163	0xbe88e4aa	-0.26736957
164	0x3d2074b1	0.039173786
165	0x3e31811d	0.17334409
166	0xbd883ace	-0.06651841
167	0xbed61143	-0.41810045
168	0xbe3a0af9	-0.18168248
169	0x3e4969af	0.19669221
170	0x3c84be86	0.01620413
171	0xbef04076	-0.4692418
172	0x3e47303d	0.19451995
173	0x3db17d79	0.0866651
174	0xbc327c06	-0.010893827
175	0xbe787736	-0.24264225
176	0xbde6b906	-0.11265759
177	0xbdeb70ed	-0.11496148
178	0xbcba7590	-0.022761136
179	0xbe7075f5	-0.23482497
180	0xbe528d99	-0.20561828
181	0xbf3f3aac	-0.746989
182	0x3d142e05	0.0361767
183	0x3d92dbfa	0.071708634
184	0x3ecb1968	0.3966782
185	0x3c3c7f2e	0.011504931
186	0xbc9d6cd8	-0.01921694
187	0x3e0162c9	0.1263534
188	0xbe68316e	-0.22675106
189	0xbf6d93cb	-0.9280364
190	0x3d457706	0.048209213
191	0x3c8376f2	0.016047928
192	0x3e5780a2	0.21045163
193	0x3e45c723	0.19314246
194	0x3c29423a	0.010330731
195	0x3c91d7f5	0.017803172
196	0xbeafb41f	-0.3431711
197	0xbf6864b9	-0.9077869
198	0x3b5c111a	0.003357953
199	0x3e9834b5	0.29727712
200	0x3df9d488	0.1219874
201	0xbe0f2f73	-0.13982944
202	0xbcc8e60d	-0.02452376
203	0x3ea089f4	0.3135525
204	0x3fea86db	1.8322405
205	0x3e6129b0	0.21988559
206	0xbf98febc	-1.1952739
207	0x3f34cac3	0.7062189
208	0xbd07da22	-0.033167012
209	0xbe45d855	-0.19320805
210	0xbe4310e6	-0.19049415
211	0xbe5b560f	-0.21419547
212	0x3d445b78	0.047938794
213	0xbc7b01dd	-0.015320268
214	0xbe23640a	-0.1595613
215	0xbe756fcd	-0.2396843
216	0x3b87546a	0.004129936
217	0xbe7774d3	-0.24165659
218	0xbdfa795a	-0.12230177
219	0x3d2d5848	0.04232052
220	0xbc011d1b	-0.007880474
221	0x3e187eca	0.14892116
222	0xbe1a3122	-0.15057805
223	0x3c60d93f	0.0137236705
224	0x3e09b6f7	0.13448702
225	0xbe29e25c	-0.16590255
226	0xbbe6608a	-0.0070305513
227	0x3df739dc	0.12071583
228	0x3d906d8f	0.07052147
229	0x3e0bb41f	0.1364293
230	0xbd8858aa	-0.06657536
231	0x3e32cd61	0.17461158
232	0x3db7776a	0.08958323
233	0x3ed6d948	0.41962647
234	0xbe253d07	-0.16136561
235	0x3e2e5864	0.17025906
236	0xbda9cbd2	-0.08290829
237	0xbc947520	-0.018122256
238	0xbe0243c3	-0.12721162
239	0x3e001727	0.12508832
240	0x3d30cb5e	0.043162696
241	0x3eb5be5c	0.35496795
242	0xbe575241	-0.21027471
243	0x3bbcacc3	0.0057578995
244	0x3a9a45d1	0.0011770074
245	0x3e08f582	0.13374904
246	0xbe157aae	-0.1459758
247	0xbc1c668d	-0.009545934
248	0xbd0d75a7	-0.03453603
249	0x3efb68cd	0.49103394
250	0xbe3a7884	-0.18210036
251	0x3e573324	0.21015602
252	0xbd6d7025	-0.057968277
253	0x3e1662f2	0.14686182
254	0xbe57a93c	-0.21060652
255	0x3e617070	0.22015548

fcs1.bias f4 [400]
0	0xbece33a1	-0.40273765
1	0xbd8a1099	-0.06741447
2	0xbe815434	-0.25259554
3	0xbbc8757e	-0.006117522
4	0xbe0ad81b	-0.13559
5	0xbc9b7714	-0.01897768
6	0xbd8ab179	-0.067721315
7	0xbc13b8cb	-0.009016226
8	0x3da0e49b	0.07856103
9	0xbeed978c	-0.46404684
10	0xbe3e94c5	-0.18611439
11	0xbe273b37	-0.16331182
12	0xbea83b64	-0.3285781
13	0xbe62b429	-0.22139038
14	0xbc95821c	-0.018250518
15	0xbebbbbf3	-0.3666683
16	0xbe07f306	-0.132763
17	0xbec17a58	-0.37788653
18	0xbdad77db	-0.08470126
19	0xbf0c3aff	-0.5477752
20	0xbdd00cf1	-0.101587184
21	0xbe650c07	-0.2236787
22	0xbda12e7b	-0.078701936
23	0xbe425c6f	-0.18980573
24	0xbe9a8110	-0.30176592
25	0xbe8c8c68	-0.2745087
26	0x3d438ddc	0.04774271
27	0xbea2685f	-0.31720254
28	0xbf2b103d	-0.6682165
29	0xbdf3c447	-0.11902671
30	0xbecfca51	-0.40584043
31	0x3dfca241	0.12335635
32	0xbe5a737a	-0.21333113
33	0xbe6548f6	-0.22391114
34	0xbdd842a9	-0.105595894
35	0xbb9abc6e	-0.0047221696
36	0x395762e6	0.0002054084
37	0x3d86f234	0.06589165
38	0xbe1d6816	-0.15371737
39	0xbd777783	-0.06041671
40	0xbcd6c687	-0.026217712
41	0xbf65cdc7	-0.89767116
42	0xbd912269	-0.07086641
43	0xbdae56da	-0.08512659
44	0xbe93b1ea	-0.28846675
45	0x3da72126	0.081606194
46	0xbf515845	-0.81775314
47	0x3db68538	0.08912128
48	0xbef50e05	-0.4786226
49	0x3e2990b2	0.16559103
50	0xbe882e53	-0.26597843
51	0x3c9b98aa	0.018993694
52	0xbbb0484a	-0.0053797113
53	0x3ce10d0b	0.02747204
54	0xbeb0537d	-0.34438697
55	0xbe81e4e9	-0.25369957
56	0xbe26b2d9	-0.16279162
57	0xbe97d1da	-0.29652292
58	0xbd1c3f21	-0.038146142
59	0x3d298920	0.04139054
60	0xbeae06fa	-0.33989698
61	0x3db014c2	0.08597709
62	0xbed1d42c	-0.40982187
63	0x3c518691	0.012788431
64	0xbe35eed6	-0.1776689
65	0xbf0fb6ae	-0.5613812
66	0xbea51870	-0.32245207
67	0xbdc39898	-0.09550589
68	0xbd953d63	-0.07287099
69	0xbd0532a8	-0.032519013
70	0xbf22499e	-0.6339358
71	0xbead2287	-0.33815405
72	0xbdc2c295	-0.0950977
73	0xbe0009bd	-0.12503715
74	0xbe8f2d67	-0.27964327
75	0xbe122f7f	-0.14275931
76	0xbf11f746	-0.57017934
77	0xbd687b47	-0.05675819
78	0xbead4c7d	-0.33847418
79	0xbe283aac	-0.16428632
80	0xbe3f561c	-0.18685192
81	0xbdb6a27b	-0.089177094
82	0x3c3adadd	0.01140472
83	0xbe1e0db6	-0.15434918
84	0xbe5ae385	-0.21375854
85	0xbe3039f2	-0.17209604
86	0xbe993bee	-0.29928535
87	0xbeaabeff	-0.33348843
88	0xbef08713	-0.46978053
89	0x3e0f6d03	0.14006428
90	0xbe11bdaf	-0.14232515
91	0x3c65882e	0.014009519
92	0xbeff5043	-0.49865922
93	0xbf2f7d33	-0.68550414
94	0xbebb35d3	-0.36564502
95	0xbede93fe	-0.43472284
96	0xbd0fa397	-0.03506812
97	0x3df42d89	0.11922748
98	0xbe2d47ad	-0.16921873
99	0xbda71270	-0.081578135
100	0xbda0e4a5	-0.078561105
101	0xbf1eb00b	-0.6198737
102	0xbe5a8dd1	-0.21343161
103	0x3d4f6572	0.050633855
104	0xbee527bd	-0.4475688
105	0xbdf9b575	-0.12192813
106	0xbf6aa86f	-0.9166326
107	0xbf16bc4b	-0.5888106
108	0xbebafdcd	-0.3652176
109	0xbf35b351	-0.7097674
110	0x3db767aa	0.08955319
111	0x3d39dd9f	0.04537737
112	0x3df412ab	0.11917623
113	0xbe9f19e1	-0.31074432
114	0xbe46dae6	-0.1941944
115	0xbdbfb515	-0.093607105
116	0xbd9fcdf1	-0.07802952
117	0x3d23c541	0.039983038
118	0xbeb110ba	-0.34583074
119	0xbcb5e076	-0.022201758
120	0x3e222e5f	0.15838002
121	0xbe4f4ad2	-0.20243385
122	0x3d1d9d9a	0.03848038
123	0xbeed7fee	-0.46386665
124	0xbeafbe87	-0.34325048
125	0xbf287aed	-0.6581257
126	0xbea030a6	-0.31287116
127	0x3c8a13a5	0.01685507
128	0xbed7ba22	-0.42134196
129	0xbe02e6b4	-0.12783319
130	0xbe712da7	-0.23552571
131	0x3bd074e5	0.006361591
132	0x3dba69bd	0.09102199
133	0xbe968048	-0.29394746
134	0xbd70c045	-0.058777113
135	0xbedb1300	-0.42787933
136	0xbe889a15	-0.26680055
137	0x3ca55a8e	0.020184781
138	0xbd8d890e	-0.06910907
139	0xbe90eb79	-0.2830465
140	0xbd625c70	-0.055263937
141	0x3ba52957	0.0050403285
142	0xbe8331a3	-0.25623807
143	0xbeab6fad	-0.3348364
144	0xbeb01652	-0.3439203
145	0x3d50c5e2	0.050969966
146	0xbf0bc00d	-0.5458992
147	0xbe299358	-0.16560113
148	0xbc374b7e	-0.011187432
149	0xbecc51ce	-0.39906162
150	0xbdd6d400	-0.104896545
151	0xbe854a82	-0.26033407
152	0xbe778073	-0.24170093
153	0xbd9fbc6b	-0.0779961
154	0xbf23c47e	-0.639717
155	0xbe4e9c9a	-0.20176926
156	0xbcd38149	-0.025818484
157	0xbd68c418	-0.056827635
158	0xbc4c00b4	-0.0124513395
159	0xbe96cd46	-0.29453486
160	0xbedc9d40	-0.43088722
161	0xbd26ae8b	-0.0406938
162	0x3d15ee63	0.036604296
163	0xbe16f013	-0.14740019
164	0xbead7b0e	-0.33882946
165	0xbde8b48e	-0.11362563
166	0xbebede30	-0.3727889
167	0xbe839020	-0.25695896
168	0xbe9220ce	-0.28540653
169	0xbe1c35c4	-0.15254885
170	0xbe6b9f38	-0.23009956
171	0xbdfafb8b	-0.12255009
172	0xbebb5c94	-0.3659407
173	0xbe11a29d	-0.14222188
174	0xbee7062e	-0.45121902
175	0xbe836c84	-0.25668728
176	0xbe7cbcb9	-0.24681367
177	0xbe3f8331	-0.1870239
178	0x3e1283d8	0.14308107
179	0x3e1737b4	0.14767343
180	0xbe70f11c	-0.23529476
181	0xbdb9a55d	-0.09064744
182	0xbe985eaf	-0.29759738
183	0xbe33f142	-0.17572501
184	0x3cf6885e	0.030094322
185	0x3e95aeb1	0.2923484
186	0x3ddd8d91	0.10818017
187	0xbf458f7c	-0.77172065
188	0xbeda81c1	-0.4267712
189	0x3e5ecbda	0.2175745
190	0x3d1cff77	0.038329568
191	0xbe36630d	-0.17811222
192	0xbe7577dc	-0.23971504
193	0xbd82a13e	-0.06378411
194	0xbeaa5be5	-0.33273235
195	0xbe37fa4e	-0.17966577
196	0xbf349426	-0.70538557
197	0xbf260b28	-0.64860773
198	0xbe6b230d	-0.2296259
199	0xbe8964ca	-0.26834708
200	0xbca8f4c1	-0.02062452
201	0xbeb773ae	-0.35830444
202	0xbe01ea7a	-0.12687102
203	0xbeb27020	-0.3485117
204	0x3e199c67	0.15001069
205	0xbe62ebc0	-0.22160244
206	0xbd5b72d1	-0.053576294
207	0xbe57c3df	-0.21070813
208	0x3e416f9a	0.18890229
209	0xbe996dcf	-0.2996659
210	0x3d84a0ae	0.0647596
211	0xbeef5b76	-0.46749467
212	0xbe8e56d6	-0.27800626
213	0xbe28823e	-0.16455933
214	0xbed120f5	-0.40845457
215	0xbd1bfefe	-0.038084976
216	0x3de9890e	0.11403094
217	0x3e5d5cb0	0.21617389
218	0x3c4dbdda	0.012557471
219	0xbec85151	-0.3912454
220	0xbc26887e	-0.010164378
221	0xbf21528e	-0.63016593
222	0xbe04a4b0	-0.12953448
223	0xbd8151f7	-0.06314462
224	0xbdcc2867	-0.09968644
225	0xbe104f19	-0.14092673
226	0xbd433a50	-0.047663033
227	0xbe8b8243	-0.2724782
228	0xbe1df46d	-0.15425272
229	0xbed0b376	-0.40761918
230	0x3e77ab95	0.24186547
231	0xbe48d96d	-0.19614191
232	0xbf020beb	-0.50799435
233	0xbea1b971	-0.31586793
234	0xbd64c697	-0.055853453
235	0x3ddf8d79	0.10915656
236	0xbdcee5fc	-0.1010246
237	0xbf4132b1	-0.75467974
238	0xbd9168c9	-0.07100064
239	0xbe31a5c1	-0.17348386
240	0xbd1fb267	-0.038988497
241	0xbf163332	-0.5867187
242	0x3e795504	0.24348837
243	0xbe81f444	-0.25381672
244	0xbceb1abc	-0.028699271
245	0x3e2756ea	0.16341749
246	0xbe35aebe	-0.1774244
247	0xbe00b656	-0.12569556
248	0x3e69c6bd	0.22829719
249	0xbd2f592f	-0.04280966
250	0x3e011a8c	0.12607783
251	0xbebe439f	-0.37160966
252	0xbeb2b549	-0.34903935
253	0xbea10f20	-0.31456852
254	0x3e1cded6	0.1531938
255	0xbd7c0d0c	-0.06153588

fc2.weight f4 [300, 400]
0	0xbc798e29	-0.0152316475
1	0xbccf0a72	-0.025273535
2	0xbb9455e3	-0.00452684
3	0xbd1d7d58	-0.038449615
4	0xbcd630f7	-0.026146395
5	0x3d204b89	0.039134536
6	0x3d1e034c	0.038577363
7	0xbd4b1914	-0.049584463
8	0xba2395e6	-0.0006240293
9	0x3db3beba	0.087766126
10	0x3d71c49b	0.05902539
11	0xbc1cf001	-0.009578706
12	0xbd2ad64a	-0.04170827
13	0x3c157990	0.009123221
14	0xbc8416c3	-0.016124135
15	0xbcea4c51	-0.028600844
16	0xbcf976aa	-0.030452091
17	0xbc6b49a8	-0.014360823
18	0x3cad91ef	0.02118775
19	0xbba74eac	-0.005105814
20	0xbe079359	-0.13239802
21	0xbdac5e19	-0.08416385
22	0x3d3141c9	0.04327563
23	0x3d075129	0.033036385
24	0xbc9c08da	-0.01904719
25	0xbca724ca	-0.020403285
26	0xbd07d7d7	-0.033164825
27	0x3d404ca7	0.0469481
28	0xbd06f232	-0.03294582
29	0xbd5e88be	-0.054329626
30	0xbd5a551f	-0.053303834
31	0x3adc6737	0.0016815428
32	0x3b89407d	0.004188596
33	0xbd24be63	-0.04022063
34	0xbd089a5d	-0.033350337
35	0xbd45d40d	-0.04829793
36	0xbce7b338	-0.0282837
37	0xbc4a2dd0	-0.012340024
38	0xbd4abf57	-0.049498882
39	0xbd1a9b26	-0.037745617
40	0x3c542c1f	0.012949972
41	0xbcafbd45	-0.021452555
42	0x3ba0c3d8	0.004906159
43	0xbc9ebe93	-0.019377982
44	0xbd67a1e6	-0.056550883
45	0xbc0a2ef6	-0.008434048
46	0x3cb49b04	0.022046573
47	0xbd583bfa	-0.052791573
48	0x3d093f83	0.033507835
49	0x3c81e8ec	0.015858136
50	0x3b7ac542	0.0038264547
51	0xbd246ae7	-0.040141013
52	0xbd0bbe6d	-0.03411715
53	0x3d07d63e	0.0331633
54	0x3d643ea2	0.055723794
55	0xbd5f3598	-0.05449447
56	0xbd495996	-0.0491577
57	0x3c85d5b1	0.016337248
58	0x3cee702e	0.029106226
59	0xbdb376d9	-0.08762903
60	0x3d3bb256	0.04582437
61	0xbcf0553f	-0.029337524
62	0xbd314d86	-0.043286823
63	0xbc1ad957	-0.009451232
64	0xbd34022f	-0.043947395
65	0x3c8fdc63	0.017561143
66	0xbb2e5ca8	-0.002660552
67	0x3d247f8a	0.040160693
68	0x3bcdb780	0.0062779784
69	0xbcc81944	-0.02442611
70	0xbd3c0e09	-0.045911822
71	0x3d7dbe3b	0.061948996
72	0xbd5d7b64	-0.054072753
73	0x3d57a5ca	0.052648343
74	0xbd6f24c9	-0.05838469
75	0xbd321734	-0.04347916
76	0xbcddfef7	-0.027099116
77	0xbda4b596	-0.08042447
78	0x3d5a1e9c	0.053251848
79	0xbd01d44a	-0.031696595
80	0x3cb8b0fe	0.022545334
81	0xbaf787c9	-0.0018885072
82	0x3b499224	0.0030757273
83	0xbd7e5732	-0.062094875
84	0xbcaccbf1	-0.02109334
85	0x3c754270	0.014969453
86	0x3c83edca	0.016104598
87	0xbd8c23a2	-0.06842734
88	0x3d717776	0.058951817
89	0x3ca115b7	0.019663675
90	0x3c91100a	0.017707843
91	0x3d833d78	0.064082086
92	0x3cb52f63	0.022117322
93	0xbd1cb9f6	-0.038263284
94	0x3cc13b3b	0.023587814
95	0x3a1a9db5	0.0005898134
96	0x3d0685fd	0.032842625
97	0xbb563cc8	-0.0032690037
98	0x3d19fbe8	0.037593752
99	0xbd122a07	-0.03568461
100	0xbd1cda17	-0.038293924
101	0xba9b1142	-0.0011830705
102	0xbb379b47	-0.0028016136
103	0x3be760e3	0.0070611103
104	0x3d89bd89	0.06725604
105	0x3cc24360	0.023713768
106	0xbc29484b	-0.010332177
107	0x3b12181e	0.0022292207
108	0x3ce3d167	0.027809812
109	0xbd89d004	-0.06729129
110	0xbbb2bdcd	-0.005454755
111	0x3cb8632a	0.022508223
112	0xbd49afc2	-0.04923988
113	0xbe127216	-0.14301333
114	0xbc9d7511	-0.01922086
115	0xbd8c62b2	-0.06854762
116	0xbcad7377	-0.021173222
117	0xb8e18607	-0.000107538006
118	0xbd6384ef	-0.055546697
119	0x3d9d827f	0.07690906
120	0xbdb47c8a	-0.088128164
121	0xbd631dbd	-0.055448283
122	0x3d77cb3a	0.060496546
123	0xbcda4fcb	-0.026649376
124	0x3ce7cde7	0.028296424
125	0xbd10bf48	-0.03533867
126	0xbda873be	-0.08225201
127	0xbd116ade	-0.035502307
128	0x3caf88fa	0.02142762
129	0xbd427bc0	-0.0474813
130	0x3ce90f9a	0.028449822
131	0x3c173e11	0.009231106
132	0xbca1783a	-0.019710649
133	0x3d6e398e	0.058160357
134	0xbd232e23	-0.03983892
135	0x3b4c46db	0.0031170163
136	0x3d07d95d	0.03316628
137	0xbcc9439d	-0.024568373
138	0x3ceb89ab	0.028752169
139	0xbcc0472e	-0.023471441
140	0xbd252843	-0.0403216
141	0x3d3e4fe4	0.04646291
142	0xbd5e0b64	-0.05421008
143	0xbc579567	-0.013158179
144	0xbcfeb425	-0.031091759
145	0x3cd39da7	0.02583201
146	0x3cdae210	0.026719123
147	0xbcbd7f7e	-0.023132082
148	0x3c93bfdf	0.018035827
149	0xbc64921f	-0.013950854
150	0x3d39815f	0.045289394
151	0xbe47c2eb	-0.19507949
152	0xbce08544	-0.027407296
153	0x3d1fa074	0.03897138
154	0xbbcda386	-0.006275597
155	0x3d313f31	0.043273155
156	0xbd124317	-0.035708513
157	0x3c2f7d70	0.010711059
158	0x3c101bc5	0.008795683
159	0x3d0a122e	0.033708744
160	0x3c809075	0.015693882
161	0xbd0a7def	-0.033811506
162	0x3d20f1b3	0.039293002
163	0x3c231bdd	0.009955374
164	0x3c3534a3	0.011059913
165	0x3cdde6dd	0.027087623
166	0xbcde0407	-0.02710153
167	0xbd23635f	-0.03988969
168	0xbd22b51a	-0.039723493
169	0xbd6085d8	-0.054815143
170	0x3cb097d2	0.021556769
171	0x3c81de54	0.015853085
172	0x3bdafc2a	0.0066828923
173	0x3b20b791	0.0024523477
174	0xbcce775f	-0.025203405
175	0x3d940886	0.07228188
176	0xbc8b51ff	-0.017006872
177	0x3bd77a17	0.0065758335
178	0xbc1a47ec	-0.009416562
179	0x3c4644aa	0.012101332
180	0xbcbed835	-0.023296455
181	0x3c012b51	0.007883863
182	0x3c59befb	0.013290162
183	0x3d8f1b33	0.0698761
184	0xbcc1fa62	-0.023678962
185	0xbc5c0965	-0.013429974
186	0x3c978091	0.018493922
187	0x3c7b2738	0.015329175
188	0x3d344a98	0.04401645
189	0x3d80e9c8	0.0629459
190	0x3c26279a	0.010141278
191	0xbce0fbf0	-0.027463883
192	0xbb161153	-0.002289851
193	0x3d2e928d	0.04262023
194	0xbd37423a	-0.044740893
195	0xbce0e3b9	-0.027452337
196	0xbc8f3464	-0.017481036
197	0xbd1119d8	-0.035425037
198	0xbd58e31e	-0.05295097
199	0xbd6f3c6b	-0.05840723
200	0xbcfc8fb4	-0.030830242
201	0xbda750cb	-0.08169707
202	0x3bf04392	0.0073322738
203	0xbcf68b16	-0.030095618
204	0xbd351b07	-0.04421523
205	0xbd46b8c9	-0.04851607
206	0xbd11ae65	-0.035566706
207	0xbc54cf01	-0.012988807
208	0xbd259503	-0.04042531
209	0xbcc18531	-0.02362308
210	0xbccb0cb7	-0.024786336
211	0xbd2eb97a	-0.042657353
212	0xbb267f09	-0.0025405309
213	0x3b4340a8	0.0029793177
214	0xbcd18802	-0.025577549
215	0x3d72efe8	0.059310824
216	0xbcc160b1	-0.023605676
217	0xbc8ed6f1	-0.017436476
218	0xbd6c792b	-0.057732742
219	0x3c927c3d	0.017881507
220	0x3d53ecc2	0.05173946
221	0xbcab7d12	-0.020933662
222	0xbd1c470f	-0.038153704
223	0xbcf6236b	-0.030046185
224	0x3c69ea84	0.014277104
225	0x3dea0efe	0.11428641
226	0xbcb65907	-0.022259248
227	0x3d6cc854	0.057808235
228	0xbd2545db	-0.040349822
229	0x3c5fc1ca	0.013657043
230	0x3d3cb75a	0.046073295
231	0xbdc130e9	-0.09433157
232	0xbb7b0eb4	-0.0038308324
233	0xbcaf8535	-0.021425823
234	0x3d9f7ab2	0.07787074
235	0x3d0b889d	0.03406583
236	0xbd13434e	-0.03595286
237	0xbd803b7b	-0.06261345
238	0x3c28e7f1	0.010309205
239	0xbb56a022	-0.0032749255
240	0x3d681326	0.056658886
241	0xbbbf7201	-0.0058424477
242	0xbd8a22ea	-0.067449406
243	0xba8946f0	-0.0010473412
244	0xbd5de11a	-0.05416975
245	0xbc93255a	-0.017962147
246	0xbdb5535c	-0.0885379
247	0x3c333ab4	0.010939289
248	0x3e012bf3	0.12614422
249	0xbc492860	-0.012277693
250	0xbc828d0c	-0.015936397
251	0xbd898968	-0.06715661
252	0x3a9a6c18	0.0011781482
253	0x3a825250	0.0009942744
254	0x3c3f4d7e	0.01167619
255	0xbdc58c19	-0.09645862

fc2.bias f4 [300]
0	0xbdac79b9	-0.08421654
1	0xbddf9129	-0.10916359
2	0xbd5392cf	-0.05165368
3	0xbdf9a507	-0.121896796
4	0xbdbdc89d	-0.092667796
5	0xbd8b0c2a	-0.067894295
6	0xbe084537	-0.13307653
7	0xbd7cece2	-0.061749347
8	0xbcf03674	-0.02932284
9	0xbdb3aea4	-0.087735444
10	0xbe152622	-0.14565328
11	0xbb470a39	-0.0030371083
12	0xbdd9d76d	-0.10636792
13	0xbd489646	-0.048971437
14	0xbdf1a238	-0.11798519
15	0xbd410c8f	-0.047131117
16	0x3c72a505	0.014809852
17	0xbde88a11	-0.11354459
18	0xbd4006d7	-0.046881523
19	0xbd57fd35	-0.05273171
20	0xbd331e9f	-0.043730374
21	0xbe1e0b82	-0.15434077
22	0xbe09e8bb	-0.13467686
23	0xbe4bb46d	-0.19893046
24	0xbdf3387a	-0.118760064
25	0xbddf5691	-0.10905183
26	0xbe62a254	-0.22132236
27	0xbd94d802	-0.07267763
28	0xbe1898f5	-0.14902098
29	0xbe1c4660	-0.15261221
30	0xbdd2b03e	-0.10287522
31	0xbe07956f	-0.13240598
32	0xbdc54e6b	-0.09634098
33	0xbd75a594	-0.05997236
34	0xbd501ffb	-0.05081175
35	0xbe0289cc	-0.12747878
36	0xbdd1193c	-0.10209891
37	0xbd8b60a7	-0.06805544
38	0xbde2c194	-0.11072078
39	0xbdc52373	-0.09625902
40	0xbe10ff6e	-0.14159939
41	0xbd8969de	-0.06709646
42	0xbdc6fb8b	-0.09715947
43	0xbdb82ae6	-0.08992557
44	0xbe05b258	-0.13056314
45	0xbe972d55	-0.29526773
46	0xbe44a19d	-0.19202276
47	0xbd82942b	-0.06375917
48	0xbdbb6353	-0.09149804
49	0xbda79cc2	-0.08184196
50	0xbe1017ed	-0.14071627
51	0xbe279be8	-0.16368067
52	0xbe099911	-0.13437296
53	0xbe2548fb	-0.16141121
54	0xbd7d188f	-0.061791
55	0xbd846f88	-0.064665854
56	0xbdb6b417	-0.08921068
57	0xbe1ca039	-0.15295495
58	0xbdc40e1a	-0.09573002
59	0xbe48e07e	-0.19616887
60	0xbd73e842	-0.05954767
61	0xbe1811a9	-0.14850487
62	0xbe288ef3	-0.16460781
63	0xbe23eb6f	-0.1600778
64	0xbda9c38c	-0.08289251
65	0xbdbed23e	-0.09317444
66	0xbe13a302	-0.14417651
67	0xbdc14ef7	-0.094388895
68	0xbe26db71	-0.16294648
69	0xbdaae49d	-0.08344386
70	0xbd5920b4	-0.053009704
71	0xbdacb576	-0.084330484
72	0xbdfa1650	-0.12211287
73	0xbe372d2f	-0.1788833
74	0xbd4efeeb	-0.050536077
75	0xbd0f695e	-0.035012595
76	0xbdb354cc	-0.08756408
77	0xbe4f9b82	-0.20274165
78	0xbde07b8a	-0.10961063
79	0xbb6d559b	-0.0036214355
80	0xbdde7bd0	-0.10863459
81	0xbd023e3a	-0.031797625
82	0xbe2961e3	-0.16541247
83	0xbd96b494	-0.07358661
84	0xbd8255aa	-0.063639954
85	0xbd43c4ad	-0.047794987
86	0xbd18371b	-0.037161928
87	0xbd7e15c3	-0.062032472
88	0xbe108e56	-0.14116797
89	0xbda37a26	-0.07982282
90	0xbdab3e75	-0.08361522
91	0xbde818c8	-0.11332852
92	0xbcdd4737	-0.027011497
93	0xbe04627d	-0.12928195
94	0xbe0014cc	-0.12507933
95	0xbc8a5879	-0.01688789
96	0xbcbc325b	-0.02297323
97	0xbe082dc7	-0.13298713
98	0xbd87acdf	-0.066247694
99	0xbe01443a	-0.12623683
100	0xbe082cb7	-0.13298307
101	0xbd8dfe14	-0.06933227
102	0xbe50ef05	-0.20403679
103	0xbe90aca7	-0.28256723
104	0xbe5142e5	-0.20435674
105	0xbddfed58	-0.109339416
106	0xbdeaa90a	-0.11458023
107	0xbd7b79c9	-0.06139544
108	0xbdf62a64	-0.12019804
109	0xbe1a13df	-0.15046643
110	0xbdc25898	-0.09489554
111	0xbdba4242	-0.09094669
112	0xbcee96c5	-0.029124627
113	0xbe1fefe3	-0.15618853
114	0xbe504c71	-0.2034166
115	0xbd43c3e2	-0.04779423
116	0xbe1f190b	-0.15536897
117	0xbe0bac52	-0.13639954
118	0xbddd4ec3	-0.10806038
119	0xbdc4339b	-0.095801555
120	0xbdf20bb1	-0.11818636
121	0xbda1535d	-0.078772284
122	0xbdd392cf	-0.10330736
123	0xbdfc25a9	-0.123118706
124	0xbdc132fa	-0.09433551
125	0xbddc8bb7	-0.10768836
126	0xbd714478	-0.058903188
127	0xbd9bcda4	-0.07607582
128	0xbdbade82	-0.09124471
129	0xbe243d77	-0.16039072
130	0xbe3dafa8	-0.18524039
131	0xbd2d5987	-0.042321708
132	0xbe43e43a	-0.1913003
133	0xbda28026	-0.079345986
134	0xbdb41c04	-0.08794406
135	0xbd9f6c61	-0.077843435
136	0xbda2ed86	-0.0795546
137	0xbe141899	-0.14462508
138	0xbd8c7f43	-0.06860211
139	0xbe034b50	-0.12821698
140	0xbe0595b5	-0.1304539
141	0xbded25c5	-0.115794696
142	0xbdbe074d	-0.09278736
143	0xbde6a997	-0.112628154
144	0xbdd0b085	-0.101899184
145	0xbdba8c7a	-0.09108825
146	0xbdb07ed6	-0.08617942
147	0xbdfa336a	-0.12216838
148	0xbddffe39	-0.10937161
149	0xbe562ec9	-0.20916285
150	0xbe082a81	-0.13297464
151	0xbcccc499	-0.024996089
152	0xbe466f1e	-0.19378325
153	0xbe19d2b8	-0.15021789
154	0xbe274aba	-0.163371
155	0xbd9ee643	-0.07758763
156	0xbdb6bbe7	-0.08922558
157	0xbe16a10c	-0.14709872
158	0xbdb2a503	-0.0872288
159	0xbdfbcfb9	-0.12295479
160	0xbd365656	-0.04451593
161	0xbd82ece8	-0.063928425
162	0xbe6f7f2a	-0.23388353
163	0xbe0b527a	-0.13605681
164	0xbe24d474	-0.1609667
165	0xbd2798da	-0.040917255
166	0xbe0b815a	-0.13623562
167	0xbdcde5aa	-0.100535706
168	0xbd295dfb	-0.041349392
169	0xbe1506e2	-0.14553407
170	0xbda0900c	-0.07839975
171	0xbdc0aecf	-0.09408342
172	0xbe22be58	-0.15892923
173	0xbe2da7a7	-0.16958486
174	0xbe53e645	-0.2069331
175	0xbc3475dd	-0.011014429
176	0xbdbe553d	-0.09293602
177	0xbe36dac6	-0.17856893
178	0xbdf795ad	-0.12089095
179	0xbdf4be08	-0.11950308
180	0xbd5367d7	-0.0516127
181	0xbdaf97c1	-0.08573867
182	0xbe3ca841	-0.18423559
183	0xbe22ae00	-0.15886688
184	0xbe254330	-0.16138911
185	0xbdb6b7f0	-0.08921802
186	0xbdf400c0	-0.119142056
187	0x3c52dce0	0.0128700435
188	0xbd5f52a9	-0.05452219
189	0xbd110387	-0.035403755
190	0xbd9fe043	-0.078064464
191	0xbe134cd4	-0.14384776
192	0xbe10ff9f	-0.14160012
193	0xbd5e578b	-0.054282706
194	0xbde79bc8	-0.1130901
195	0xbe248e67	-0.16069947
196	0xbdb75c0f	-0.08953106
197	0xbe49654e	-0.19667551
198	0xbe2848a2	-0.16433957
199	0xbd6399be	-0.05556654
200	0xbd5b4f4e	-0.053542428
201	0xbd5c31de	-0.053758495
202	0xbde2a42d	-0.1106647
203	0xbde2b1f4	-0.11069098
204	0xbe2746d2	-0.1633561
205	0xbe0da824	-0.13833672
206	0xbe1f841a	-0.15577736
207	0xbe188626	-0.14894924
208	0xbdfbb461	-0.12290264
209	0xbe3cbbd6	-0.18431029
210	0xbdc88a8e	-0.09792052
211	0xbe215b2d	-0.15757437
212	0xbd51f8bf	-0.051262613
213	0xbdb43f2d	-0.08801112
214	0xbdd0bc3d	-0.101921536
215	0xbdd28546	-0.10279326
216	0xbe4daf03	-0.20086293
217	0xbe0fd6e9	-0.14046825
218	0xbcd63e69	-0.026152806
219	0xbdadc2ff	-0.08484458
220	0xbd840b2c	-0.06447443
221	0xbd864196	-0.06555478
222	0xbdd51588	-0.104044974
223	0xbd8c1983	-0.068408035
224	0xbe1b483e	-0.15164277
225	0xbe030702	-0.12795642
226	0xbdedf8b5	-0.11619703
227	0xbe123050	-0.14276242
228	0xbe5167fb	-0.20449822
229	0xbcb490aa	-0.022041637
230	0xbd729081	-0.05921984
231	0xbe0a2126	-0.13489208
232	0xbd9cdad1	-0.076589234
233	0xbda32c06	-0.07967381
234	0xbe02809a	-0.1274437
235	0xbe1fb2ce	-0.15595552
236	0xbde2262f	-0.11042439
237	0xbe62d6be	-0.2215223
238	0xbd2f68e1	-0.04282463
239	0xbe321c4b	-0.17393605
240	0xbde25c03	-0.11052706
241	0xbe078d9f	-0.13237618
242	0xbdb52c86	-0.08846383
243	0xbe11e618	-0.1424793
244	0xbd7c5355	-0.06160291
245	0xbda5aca8	-0.08089572
246	0xbdf4bf1b	-0.11950513
247	0xbdf0c7c0	-0.11756849
248	0xbdfc3b3f	-0.12315988
249	0xbd75632c	-0.05990903
250	0xbe0ac6fe	-0.13552472
251	0xbd388ab7	-0.045054164
252	0xbdceb0cb	-0.10092314
253	0xbd49b36f	-0.049243387
254	0xbe3289ab	-0.17435329
255	0xbd4b2688	-0.049597293

fc3.weight f4 [1, 300]
0	0xbc699454	-0.014256556
1	0xbc871c56	-0.016493004
2	0xbc781e66	-0.015143966
3	0xbcd1393d	-0.025539989
4	0x3b17e545	0.0023177427
5	0xbcb65e26	-0.02226169
6	0x3ce94979	0.028477417
7	0xbc53350e	-0.012891067
8	0x3d416ec4	0.047224775
9	0x3c61564b	0.013753484
10	0x3bd87ca2	0.0066066543
11	0xbd169518	-0.03676328
12	0x3cc04313	0.023469483
13	0x3b39d4e0	0.0028355643
14	0xbc56f601	-0.013120175
15	0x3b280e0a	0.0025643134
16	0xbc890a62	-0.016728584
17	0xbcfb43f8	-0.030672058
18	0xbbc2aaa1	-0.0059407507
19	0xbc7fd62d	-0.015615028
20	0xbca39a2b	-0.019970974
21	0xbc6d5c75	-0.0144873755
22	0x39da07cd	0.00041586012
23	0xbd567d02	-0.05236531
24	0x3cb6cf6f	0.022315709
25	0xbc370a07	-0.011171824
26	0x39ca4508	0.00038579875
27	0x3c823e3a	0.015898813
28	0x3abc9bd4	0.0014389702
29	0xbcdd08b7	-0.026981695
30	0x3b0fb93d	0.002193048
31	0x3c4780ed	0.012176734
32	0x3c5c4566	0.01344428
33	0xba81ccf1	-0.0009902996
34	0xbb1608b3	-0.0022893369
35	0xbc1e980a	-0.009679804
36	0x3c2a357b	0.010388727
37	0x3c35b690	0.01109089
38	0xbba36e6d	-0.004987529
39	0x3c782a1e	0.01514676
40	0xb9fed77d	-0.00048607207
41	0xbc87d6d4	-0.01658193
42	0x3a33ca2d	0.00068584346
43	0x3c886949	0.016651766
44	0x3d191bed	0.037380148
45	0xbb466518	-0.003027266
46	0x3d1ff474	0.039051488
47	0x3ca8d92b	0.020611366
48	0xbc127a87	-0.008940346
49	0xbb21cc75	-0.0024688516
50	0x3c3e913a	0.011631304
51	0xbc2bf8a3	-0.010496291
52	0x3c83ebec	0.016103707
53	0xbd05f523	-0.032704484
54	0x3982c864	0.00024944835
55	0x3c8407cc	0.016117
56	0x3c0e7b14	0.008696336
57	0x3caaf055	0.020866552
58	0x3bc8837e	0.0061191907
59	0x3bcbf978	0.0062248074
60	0xbc2867e3	-0.010278675
61	0x3c362cf1	0.011119113
62	0x3c5ff6b9	0.013669663
63	0x3c422da0	0.011851698
64	0x3c3be43b	0.011467989
65	0xbc21c4a5	-0.009873544
66	0x3c274dac	0.0102113895
67	0xbc09b851	-0.008405761
68	0xbc4da241	-0.012550891
69	0x3c2a34d3	0.010388571
70	0xbb30fef7	-0.002700744
71	0xbacd93a2	-0.0015684257
72	0x3c909626	0.017649721
73	0xbb81c13a	-0.003959802
74	0xbcdad24d	-0.026711607
75	0xbc24e570	-0.010064468
76	0x3bf017af	0.007327042
77	0xbc8a9d13	-0.016920602
78	0x3b4a2c87	0.0030849294
79	0xbc6839af	-0.014173909
80	0xbaeb7043	-0.0017962534
81	0x3cb0d42a	0.021585543
82	0xbc3e7865	-0.011625384
83	0x3d007456	0.031360947
84	0xb93e4984	-0.00018147199
85	0x3caa332e	0.020776358
86	0xbc5b81ae	-0.013397617
87	0xbc1bec88	-0.009516843
88	0xbb3a7122	-0.002844878
89	0x3b1aa84f	0.0023598855
90	0xbb6b87b3	-0.0035939037
91	0xbb67612f	-0.0035305729
92	0x3c87a8f7	0.01656006
93	0xbc68f3e6	-0.014218306
94	0xbbca7b2f	-0.0061792354
95	0x3a169d24	0.00057454617
96	0x3ca55aa0	0.020184815
97	0x3cb187da	0.021671224
98	0x3aa2af05	0.0012411779
99	0x3b1729c4	0.0023065666
100	0x3c92b12c	0.017906748
101	0xbc37ae17	-0.01121094
102	0x3a26dc90	0.0006365264
103	0xbcb635df	-0.022242485
104	0x3d26dd5b	0.040738445
105	0x3af15ce6	0.0018414527
106	0x3cd73482	0.026270155
107	0xbbb66dc5	-0.0055672848
108	0xbb4221e8	-0.002962226
109	0xbbb50b31	-0.0055250158
110	0xbb963b7a	-0.004584727
111	0x3c99c9a6	0.018772911
112	0xbca97182	-0.020684008
113	0x3ba3977e	0.0049924245
114	0xbbcf00ec	-0.0063172486
115	0x3c683fd8	0.014175378
116	0x3cae47d0	0.021274477
117	0x3ba7b431	0.005117916
118	0xbaccac2f	-0.001561528
119	0x3c93fc68	0.018064693
120	0x3bfe0a0b	0.007752662
121	0xbcc693b8	-0.02424036
122	0x3bdeaab0	0.00679525
123	0x3c01b19a	0.007915879
124	0xbc4d7fe2	-0.012542697
125	0x3bf05247	0.007334027
126	0xbc75cca4	-0.015002403
127	0xbc87a487	-0.016557945
128	0xbb0c4893	-0.0021405562
129	0xbd1627f3	-0.036659192
130	0x3c2e59a6	0.010641491
131	0x3cbee1de	0.023301061
132	0x3ca2af22	0.0198589
133	0xbcf718ad	-0.030163134
134	0xb9adda6f	-0.00033159877
135	0x3cd095da	0.02546208
136	0x39ad98d9	0.00033111012
137	0x3c7710dd	0.015079704
138	0x3a5b4f4e	0.00083660043
139	0x3cf232d0	0.029565245
140	0x3ce28ae4	0.027654119
141	0xbcdd3b7f	-0.027005909
142	0xbc4247d9	-0.01185795
143	0x3ccad098	0.024757668
144	0x3cd275a6	0.025690865
145	0xb7660586	-1.3710354e-05
146	0x3c953177	0.018212063
147	0xbcc92d12	-0.024557624
148	0xbc54ff08	-0.013000257
149	0x3c445852	0.011983948
150	0xba3ce9aa	-0.00072064495
151	0xbc8c8afa	-0.017156113
152	0xbc2cb721	-0.010541708
153	0xbcbadd4e	-0.022810604
154	0xbc381b77	-0.011237017
155	0x3c2aec6d	0.010432345
156	0xba0f3a7d	-0.00054637325
157	0xbd19dd2e	-0.03756445
158	0xbc23669e	-0.009973196
159	0xbb872fdf	-0.0041255797
160	0xbb8cbdc2	-0.004295082
161	0x3c5f82b8	0.013642006
162	0x3d9d2e91	0.076748975
163	0x399b0226	0.00029565505
164	0x399dfb75	0.00030132724
165	0xbc04a384	-0.008095626
166	0xbb0dbbab	-0.0021626751
167	0x3bb91d49	0.005649243
168	0xb7c1bc58	-2.3095097e-05
169	0x3ca51450	0.020151287
170	0x3bdba156	0.0067025824
171	0xbcb64e86	-0.02225424
172	0x3bba451a	0.005684507
173	0xbba9bfa3	-0.0051803156
174	0x3d41d683	0.047323715
175	0xbb042e54	-0.0020169215
176	0x3c9a719e	0.018853005
177	0xbc4d5dbf	-0.012534558
178	0x3bacb576	0.0052706553
179	0x3ba628e3	0.005070792
180	0xb998df45	-0.00029158048
181	0x3ce58886	0.028019201
182	0xbd3177b4	-0.04332705
183	0x3bf02f27	0.0073298397
184	0x39a7622a	0.0003192586
185	0xbbcb2fc9	-0.006200765
186	0xbb0d446b	-0.0021555673
187	0x3c535e77	0.01290094
188	0xbca771ca	-0.020440001
189	0xbcb354cc	-0.02189102
190	0x3b118857	0.002220651
191	0xbcc99793	-0.024608409
192	0x3c8c062b	0.017092785
193	0x3c78dcd0	0.015189365
194	0x3cb23b8b	0.021756908
195	0x3c88f511	0.01671842
196	0x3b774f5c	0.003773651
197	0x3cc77571	0.024347993
198	0xbc709897	-0.014684818
199	0x3bec170a	0.007204895
200	0xbbe02599	-0.0068404195
201	0x3a12bcf0	0.0005597612
202	0x3a57facc	0.0008238971
203	0xbc8fc71e	-0.017551001
204	0xbd04c6ad	-0.032416034
205	0xbaa54aff	-0.0012610852
206	0x3c975d29	0.01847704
207	0xbc38e0d8	-0.011284076
208	0x3d2cffad	0.04223602
209	0xbb8b2ea8	-0.004247505
210	0x3b0f2add	0.0021845617
211	0x3b89d791	0.0042066057
212	0x3c09b015	0.008403798
213	0x3cdd18a4	0.026989289
214	0xba843a0b	-0.0010088099
215	0x3cf3ec2a	0.029775698
216	0xbc5d81ce	-0.013519717
217	0xbc8c317d	-0.017113442
218	0x3ce84b90	0.028356344
219	0x3c1cfdf8	0.009582035
220	0xbc0d5233	-0.008625555
221	0x3c522b6e	0.012827737
222	0x3cf1f74d	0.029536868
223	0x3c348b53	0.011019546
224	0xbcb118a7	-0.0216182
225	0xbb0fc36f	-0.0021936556
226	0xbcc7ee4d	-0.024405623
227	0x3bb1c272	0.005424791
228	0xbd3d5000	-0.046218872
229	0x3ab82b8e	0.0014051066
230	0x3bece744	0.0072297174
231	0x3b209e22	0.0024508317
232	0xb9de3d4f	-0.00042388818
233	0xbbbb3c42	-0.0057139704
234	0xbc87d344	-0.016580231
235	0xbc1a1396	-0.009404084
236	0x3ca504e6	0.020143937
237	0x3cdea2e5	0.027177284
238	0x3b52f2a6	0.0032188087
239	0xbc992d74	-0.018698432
240	0xbb5cdc6e	-0.0033700722
241	0xbba4b68e	-0.005026645
242	0x3c653d64	0.013991687
243	0xbccc4f69	-0.02494021
244	0x3bedc978	0.007256683
245	0x3ce905a2	0.028445069
246	0xb9a28fc5	-0.00031006164
247	0x3c7196f3	0.014745462
248	0x3a85413f	0.001016654
249	0x3c646775	0.013940682
250	0xbca52f53	-0.020164168
251	0x3c95512d	0.018227184
252	0x3b64e08e	0.0034923884
253	0x3c4342f9	0.011917823
254	0x3cff526f	0.031167237
255	0xbab3e554	-0.0013724961

bn1.weight f4 [400]
0	0x3dff28c9	0.12458951
1	0x3dc73b7a	0.09728141
2	0x3e8f0bb8	0.27938628
3	0x3e82f0fa	0.25574476
4	0x3d8fb925	0.070177354
5	0x3f4853f8	0.78253126
6	0x3d960fca	0.0732723
7	0x3a8087ce	0.0009806098
8	0x3a1e7faa	0.0006046245
9	0x3ebf7edc	0.37401474
10	0x3e030fd2	0.12799004
11	0x3d4ac621	0.049505357
12	0x3e356b83	0.17716794
13	0x3d95b533	0.07309952
14	0x3e6775cf	0.22603534
15	0x3e9b9a28	0.3039105
16	0xb8cfe122	-9.9124634e-05
17	0x3ee70392	0.4511991
18	0xbc0ab998	-0.008467101
19	0x3db0b974	0.086291224
20	0x3e2c05e9	0.1679913
21	0x3ee3c43a	0.44485646
22	0x3d94892b	0.07252725
23	0x3a6fe346	0.0009150993
24	0x3e52aabd	0.20572944
25	0x3d842179	0.06451697
26	0x39e5e3cc	0.00043848006
27	0x3de8999b	0.11357423
28	0x3f4c0fba	0.79711497
29	0x3d70d979	0.058801148
30	0x3eeb6129	0.45972565
31	0x3c93e782	0.018054727
32	0x3da87b99	0.082266994
33	0x3e4c3771	0.19943024
34	0x3ed34545	0.41263786
35	0x3f241777	0.64098305
36	0xba0749e0	-0.00051608495
37	0xb9dfc0a7	-0.00042677412
38	0x3eb161c3	0.346449
39	0x39e11463	0.00042930534
40	0x3ba9d99c	0.0051834118
41	0x3d5689b6	0.052377425
42	0x3e3ec36b	0.18629234
43	0x3e0e44f5	0.13893493
44	0x3c746fdf	0.01491925
45	0x3ddb4671	0.10706795
46	0x3e838ef8	0.25695014
47	0xbb3e3f17	-0.0029029304
48	0x3e80f6d2	0.2518831
49	0x3e1e3713	0.15450697
50	0x3dda53b4	0.10660496
51	0x3d8aef94	0.06783977
52	0xb9e0ffac	-0.000429151
53	0xb82d924c	-4.1382664e-05
54	0x3db46e12	0.08810057
55	0x3e0fc401	0.14039613
56	0x3d053b68	0.032527357
57	0x3e4c2732	0.19936827
58	0x387faf9d	6.096029e-05
59	0x3c853002	0.016258243
60	0x3f885754	1.065165
61	0x3e7c4606	0.24636087
62	0x3e112b40	0.14176655
63	0xba231890	-0.00062216166
64	0xbbebd93e	-0.007197528
65	0x3ed7bf57	0.42138168
66	0x3e26bcb1	0.16282918
67	0x3ea379d1	0.31928876
68	0x3d1ab89a	0.037773706
69	0xba170444	-0.00057608285
70	0x3dfdd170	0.12393463
71	0x3dd16797	0.10224836
72	0x385d83fd	5.281343e-05
73	0xbb790d23	-0.0038002215
74	0x3d745f99	0.05966148
75	0x3e002d0a	0.12517181
76	0x3e605948	0.21909058
77	0x3e5a4ac5	0.21317585
78	0x3d717ca0	0.058956742
79	0x3e8ad67c	0.27116764
80	0x3d60e096	0.05490168
81	0x395024cd	0.00019850135
82	0x3bcda77f	0.0062760706
83	0xb8c8885e	-9.5621435e-05
84	0x3e405d6a	0.18785635
85	0x3e7e588d	0.24838467
86	0x3e6e89cd	0.23294754
87	0x3e5d7336	0.2162598
88	0x3df820bc	0.121156186
89	0x3ecfa0a2	0.4055224
90	0x39594e07	0.000207238
91	0x3de5ff96	0.1123039
92	0x3d1c1429	0.038105164
93	0x3eb57b8d	0.35445824
94	0x3dca5121	0.09878755
95	0x3e077f26	0.13232097
96	0x3940b029	0.00018376172
97	0xbaa4ff13	-0.0012588225
98	0x3c35fb9c	0.011107352
99	0x3e5b4c9c	0.21415943
100	0x3d9001cc	0.07031593
101	0x3ea7e596	0.32792348
102	0x3e22ef51	0.15911604
103	0x3e699f0e	0.22814581
104	0x3de62f19	0.11239452
105	0x3e34675e	0.17617556
106	0x3ed33d9f	0.4125795
107	0x3e757b6d	0.23972864
108	0x3b111da2	0.0022142907
109	0x3edb846e	0.42874473
110	0xba934507	-0.0011235782
111	0x3a352cc7	0.00069112744
112	0x3e1616dd	0.14657159
113	0x3f4fa569	0.8111177
114	0x3ea2d14a	0.318003
115	0xb98582fa	-0.00025465322
116	0x3ac3af74	0.0014929608
117	0xba7f7c05	-0.00097459584
118	0x3e6181f7	0.22022234
119	0x3e4e68d6	0.20157179
120	0x3e87a55a	0.2649334
121	0x3e474745	0.19460781
122	0x3a94d491	0.0011354854
123	0x3d89e014	0.06732193
124	0x3d8add82	0.067805305
125	0x3d84eebc	0.064908475
126	0x3f004a1e	0.50113094
127	0xba899f4e	-0.0010499747
128	0x3e2eb707	0.17062007
129	0xb98d6a05	-0.00026972606
130	0x3dfea65e	0.12434076
131	0x3aa714fd	0.0012747344
132	0xb958e452	-0.00020684421
133	0x3e54bfbe	0.20776269
134	0x3a56498b	0.0008174411
135	0x3e1adb85	0.15122803
136	0x3dd1be9e	0.102414355
137	0x3a0e1cd7	0.00054211676
138	0x393d9ead	0.00018083556
139	0x3d43dc17	0.047817316
140	0x39784fa1	0.00023680787
141	0x3dac9fcb	0.084289156
142	0x3dd95c3c	0.106132954
143	0x3f44cc83	0.7687456
144	0x3d35a30e	0.044344954
145	0x390cb854	0.00013420108
146	0x3dffd164	0.1249111
147	0x3e956d9d	0.2918519
148	0xb9cacf9f	-0.00038683132
149	0x3eb7e009	0.35913113
150	0x3c692095	0.01422896
151	0xbd3c2f08	-0.04594329
152	0x3de00dde	0.10940145
153	0x3e5d452d	0.2160842
154	0x3e9ae4d6	0.30252713
155	0x3e1e15f2	0.15438059
156	0x3db60563	0.08887746
157	0x3f19aeac	0.60032153
158	0xb9dd0b8a	-0.00042161002
159	0x3e608f18	0.21929586
160	0x3e97a19c	0.29615486
161	0x3f20ec18	0.6286025
162	0x39cb8125	0.00038815397
163	0x3d7ac124	0.06121935
164	0x3dca3f9e	0.09875415
165	0x3d98b766	0.074568555
166	0x3e4066a0	0.18789148
167	0x3b625069	0.0034532791
168	0x3af34851	0.0018560981
169	0x3d07d946	0.033166192
170	0x3da0143a	0.07816358
171	0x3d0b93ee	0.034076624
172	0x3dd85b40	0.105642796
173	0x3d88665d	0.06660149
174	0x3e457eec	0.19286698
175	0x3d16eb4c	0.03684549
176	0x3deb5c76	0.11492245
177	0x3da85c49	0.08220727
178	0x3e46e624	0.19423729
179	0xba87d702	-0.001036376
180	0x3b93343e	0.0044923117
181	0x3f346a3c	0.704746
182	0x3e619691	0.22030093
183	0x3eb40d70	0.35166502
184	0x3e17c61a	0.14821663
185	0x3f832f91	1.0248891
186	0xb99392bd	-0.00028147353
187	0x3e4730b8	0.19452178
188	0x3ee5e880	0.44903946
189	0x3e7b7089	0.24554648
190	0xba53533a	-0.0008061413
191	0x3dce96b8	0.10087341
192	0x3dd2ca37	0.10292476
193	0xb621ca1d	-2.4108515e-06
194	0x3dc6cea4	0.09707382
195	0x3dc4b552	0.096048966
196	0x3ec0b39d	0.37637034
197	0x3f84ac01	1.0364991
198	0x3d0c83fa	0.03430555
199	0x3db7984c	0.08964595
200	0xb972da85	-0.00023160323
201	0x3e964f25	0.29357257
202	0x3d3b77d8	0.04576859
203	0x3e9f0821	0.3106089
204	0x3e9e27b8	0.30889678
205	0x3d98c42a	0.0745929
206	0x3a45e260	0.0007548686
207	0x3b3b72db	0.0028602395
208	0x3dc9ffa7	0.09863215
209	0x3e5b2685	0.21401413
210	0x382754cc	3.9894876e-05
211	0x3d323501	0.04350758
212	0x3ebe68a8	0.3718922
213	0x3a63f940	0.0008696504
214	0x3db65349	0.08902604
215	0x3ed372ab	0.41298422
216	0x3ed30a00	0.41218567
217	0x3e13c5b5	0.14430888
218	0xb9edccf7	-0.00045356873
219	0x3e11a031	0.14221264
220	0x3a8ce227	0.0010748551
221	0x3e9e19a2	0.3087893
222	0xb7992209	-1.825487e-05
223	0x3a51d41a	0.0008004323
224	0x3eacb45d	0.33731356
225	0xbd68bd08	-0.0568209
226	0x3a8dc248	0.0010815347
227	0x3db9e681	0.09077168
228	0x3b5af234	0.0033408524
229	0x3dd95083	0.106110595
230	0x3e7efe08	0.24901593
231	0x3f0ed834	0.5579865
232	0x3e7e5891	0.24838473
233	0x3db5c846	0.0887609
234	0xbb038412	-0.0020067734
235	0x39dfb39b	0.0004266769
236	0x3dd7dfbc	0.10540721
237	0x3eb05235	0.3443772
238	0x3eb59a08	0.3546908
239	0x3e0fc8b9	0.14041413
240	0xbb1bc7d4	-0.002377023
241	0x3dbef95d	0.09324906
242	0x3e00dbc2	0.12583831
243	0x3d72034d	0.05908518
244	0x3d933c11	0.07189191
245	0xbaac0e23	-0.0013126772
246	0x3cf360e1	0.029709281
247	0x3dd8a9d8	0.1057927
248	0x3e641dd4	0.22277004
249	0x3bf3b152	0.0074369097
250	0xb9fecf97	-0.00048601322
251	0x3e4a812a	0.19775835
252	0x3e51a99d	0.20474859
253	0x3dabe56c	0.08393368
254	0xba5ea4e5	-0.0008493199
255	0x3d7aa795	0.061194975

bn1.bias f4 [400]
0	0x3acfc444	0.0015851338
1	0x3c026f4c	0.007961106
2	0x3c8c6a86	0.017140638
3	0x3d11d6e3	0.035605323
4	0x3c70572e	0.014669223
5	0x3d3f51bb	0.046708804
6	0x3bee9a7a	0.0072815986
7	0x38e8bb52	0.00011097513
8	0x3930d9e2	0.00016865836
9	0xbc34bf95	-0.011032005
10	0x3ce77dfb	0.028258314
11	0x3a12065f	0.00055704074
12	0x3db8f43e	0.090309605
13	0x3bed200e	0.007236487
14	0x3d678ae0	0.056528926
15	0x3e21761d	0.15767713
16	0xb84b2ce1	-4.844077e-05
17	0x3e2bc72b	0.16775195
18	0xba67b076	-0.00088382454
19	0xbcb9ba63	-0.022671884
20	0x3d82c73d	0.06385658
21	0x3dd4708e	0.103730306
22	0x3d0f317d	0.034959305
23	0x3a0bacf4	0.0005328201
24	0x3dbd1616	0.09232728
25	0x3c89562a	0.016764719
26	0x398e5287	0.00027145838
27	0x3ca5fa56	0.020260971
28	0x3e6d20ae	0.23156998
29	0xbc8417d1	-0.016124638
30	0x3e1d61a9	0.15369286
31	0x3d52a66d	0.051428247
32	0x3d3a65da	0.04550729
33	0xbc5a0a39	-0.013308101
34	0x3dcb0797	0.09913557
35	0x3dadcade	0.084859595
36	0xb96e3615	-0.00022717596
37	0x389ffdb3	7.628966e-05
38	0x3cd7102d	0.02625283
39	0xb9152d88	-0.00014226709
40	0x39ac1207	0.00032819828
41	0x3b1c14cb	0.0023816105
42	0x3ca41dbb	0.020033708
43	0xbc73fa6b	-0.014891247
44	0x3a615332	0.0008595466
45	0x3a2665d8	0.00063475734
46	0xbbd22add	-0.006413801
47	0xb980c772	-0.0002456266
48	0x3d08a9a0	0.033364892
49	0xbc77abe3	-0.015116665
50	0xbac7d3b2	-0.0015245585
51	0xbc11effc	-0.008907314
52	0x381bf1da	3.718012e-05
53	0xb99d91f4	-0.00030054117
54	0xbd15ec99	-0.03660259
55	0x3bc95b85	0.006144943
56	0x3c2857b7	0.010274819
57	0xbbd7c6c2	-0.006584973
58	0x38c6f3ba	9.486773e-05
59	0x3dbfc3a7	0.093634896
60	0x3dc992ab	0.09842428
61	0x3df6e4b7	0.12055343
62	0x3d811513	0.06302848
63	0x39274420	0.0001595174
64	0xba59619d	-0.00082924386
65	0x3d4738dd	0.048638213
66	0x3ce8353e	0.0283457
67	0x3e429126	0.19000682
68	0x3bc47882	0.005995811
69	0xb993d2ad	-0.0002819499
70	0x3cfb33cc	0.030664347
71	0xbc245313	-0.010029572
72	0x38ba1850	8.8737e-05
73	0xba17482a	-0.0005770946
74	0x3c2f4120	0.010696679
75	0x3cd27f4a	0.025695462
76	0x3d3981c6	0.045289777
77	0x3dde7621	0.10862375
78	0x3c1be0d9	0.009514057
79	0x3d95f133	0.07321396
80	0x3bf96a06	0.007611516
81	0x3995b959	0.0002855759
82	0x3a0fe9a3	0.00054898317
83	0x3a411a5a	0.00073662924
84	0xbd075c96	-0.03304728
85	0x3de1877e	0.11012171
86	0xbba105f6	-0.0049140407
87	0x3d560028	0.052246243
88	0x3cefd4b3	0.029276228
89	0x3d01be4a	0.031675614
90	0xb7fefcb8	-3.039684e-05
91	0x3c2368a7	0.0099736815
92	0xbc25c234	-0.010117102
93	0x3df07109	0.1174031
94	0xbc40b827	-0.011762655
95	0x3cf25339	0.0295807
96	0x38e16611	0.000107478474
97	0xb956caa0	-0.00020484114
98	0x394f0e67	0.00019746424
99	0x3e0b3bff	0.13597105
100	0x3c6134fa	0.013745541
101	0x3d7e4bf9	0.062084172
102	0x3c5bde3d	0.013419685
103	0x3d959be6	0.07305126
104	0xbba800eb	-0.0051270626
105	0x3d533deb	0.05157272
106	0x3de7ace6	0.11312275
107	0x3ca884f4	0.02057121
108	0x39cbfdb4	0.000389082
109	0x3da1ccc6	0.079003856
110	0xb9a6dd1b	-0.00031826724
111	0x39770085	0.00023555949
112	0x3d984cf2	0.07436551
113	0x3eadc1c3	0.3393689
114	0x3d8b68ef	0.06807124
115	0xb8b57270	-8.652068e-05
116	0xb9148730	-0.00014164741
117	0xb9c11985	-0.00036830842
118	0x3c2e50ef	0.010639413
119	0x3da67206	0.08127217
120	0x3d94a840	0.07258654
121	0x3d8c9d50	0.068659425
122	0xb81fdac2	-3.8112288e-05
123	0x3c66dcac	0.014090698
124	0x3c6d3d91	0.014480011
125	0x3c7dc507	0.0154888695
126	0x3e2e0bbb	0.16996662
127	0xb91b510f	-0.00014812149
128	0xbd0638cb	-0.032769006
129	0x39bf42c5	0.00036480106
130	0x3d86cf99	0.06582565
131	0x39f7900c	0.00047218835
132	0x3997bada	0.0002894018
133	0x3d1d8952	0.038461037
134	0xb91f88ac	-0.00015214336
135	0x3a892711	0.0010463913
136	0x3cdfd2cd	0.027322197
137	0x394a8d07	0.00019316758
138	0x390450a3	0.0001261854
139	0x3d062bbe	0.03275656
140	0xb7f461c2	-2.9132589e-05
141	0x3c368a68	0.011141397
142	0x3cd5ef67	0.026115132
143	0x3deaa747	0.11457687
144	0x3ab024eb	0.0013438737
145	0x38c66b45	9.461356e-05
146	0x3c86c74e	0.016452458
147	0x3dd22034	0.102600485
148	0x39780386	0.00023652436
149	0x3dc771a7	0.09738474
150	0x3a90560c	0.0011011972
151	0x3e72a686	0.23696336
152	0x3cf1aa80	0.029500246
153	0x3d31ab35	0.043376166
154	0x3d24f364	0.040271178
155	0x3c9c67e5	0.01909251
156	0x3d920348	0.07129532
157	0x3e300d3b	0.17192547
158	0xb7e2e27d	-2.7046766e-05
159	0x3d24ab93	0.04020269
160	0x3d8b0828	0.06788665
161	0x3dd210b6	0.102570936
162	0x38b6ede8	8.72275e-05
163	0x3b5bbbcf	0.003352869
164	0x3a818b63	0.000988346
165	0x3cc1d097	0.023659034
166	0xbc56e06f	-0.013115033
167	0x38e43654	0.000108820066
168	0x390a5c0f	0.00013195
169	0x3a2a366d	0.00064930954
170	0x3cd3777b	0.025813809
171	0xbb0cf82c	-0.0021510227
172	0x3c4c683b	0.012476022
173	0x3ac934f2	0.0015350862
174	0x3c60fb8f	0.013731851
175	0xbd873232	-0.06601371
176	0x3d58c7e0	0.05292499
177	0x3cc4ac7c	0.024008028
178	0x3dce6122	0.1007712
179	0xb93493c4	-0.00017221185
180	0x3ab6e443	0.0013953525
181	0x3e7cfc4f	0.24705623
182	0x3d3a3724	0.045462742
183	0x3d9ed33d	0.07755134
184	0x3d80093c	0.06251761
185	0x3ddff02a	0.109344795
186	0x39362948	0.00017372251
187	0x3d7e6be7	0.062114622
188	0x3d180c68	0.037121207
189	0x3d989b31	0.074514754
190	0xb97b9e4f	-0.000239962
191	0x3d04e454	0.032444313
192	0x3d5baaf8	0.053629845
193	0xb90ac3b2	-0.00013233608
194	0x3d0c7cc7	0.034298684
195	0x3c3a1163	0.011356684
196	0x3e24d66b	0.16097419
197	0x3ceeb506	0.029139053
198	0x3c17d203	0.009266379
199	0x3bce95d5	0.0063044825
200	0x38c2e2a1	9.292854e-05
201	0x3dafbc04	0.08580783
202	0x3cc1090e	0.023563888
203	0x3d2807f6	0.041023217
204	0x3e072d29	0.13200821
205	0x3ab826c2	0.0014049637
206	0x393e6272	0.00018156486
207	0xb7cccf61	-2.4415263e-05
208	0x3d059018	0.03260812
209	0x3d8fb032	0.070160285
210	0xb8082828	-3.2462325e-05
211	0x3c0aa9c0	0.008463323
212	0x3e34342d	0.17598028
213	0x39bc8d99	0.00035963653
214	0x3c278f19	0.010226988
215	0xbe085ac4	-0.13315874
216	0x3e195685	0.14974411
217	0x3d921ef0	0.07134807
218	0xb97dbaf6	-0.00024197609
219	0x3cd49663	0.025950616
220	0xb9b80144	-0.00035096158
221	0x3dae1886	0.08500771
222	0x37433805	1.1635949e-05
223	0xb97e669e	-0.00024261556
224	0x3d4e4076	0.050354443
225	0xbdb7f4ec	-0.08982262
226	0x3980d91f	0.0002457583
227	0x3c0ed8e4	0.008718703
228	0x3aa05003	0.0012230877
229	0x3c055678	0.008138292
230	0x3d0b9124	0.034073964
231	0x3dc796c2	0.09745552
232	0xbc090fac	-0.008365553
233	0x3d477ee3	0.048704993
234	0xba252ee2	-0.00063012366
235	0xb8027c55	-3.111021e-05
236	0x3cfa1201	0.030526163
237	0x3d338d98	0.043836206
238	0x3bb7dac2	0.0056107948
239	0x3d2c988f	0.04213768
240	0xb9fd163d	-0.0004827249
241	0x3b19805f	0.0023422462
242	0x3dc9a992	0.09846796
243	0x3c9dd43c	0.01926624
244	0x3aaf42e7	0.0013371379
245	0xb9ad340c	-0.0003303591
246	0x3de5e483	0.11225226
247	0xb9bb099d	-0.00035674582
248	0xbda2b891	-0.079453595
249	0x3a789126	0.0009482078
250	0xb9719e42	-0.00023042507
251	0x3c70b9da	0.014692748
252	0x3d8398c9	0.06425626
253	0x3cd8cf39	0.026465999
254	0xb78fae56	-1.712811e-05
255	0x3cdba58e	0.026812341
