weight1/checkpoint_actor_target_0.pth (torch_old, 531550 bytes, 10 tensors)

fc1.weight f4 [400, 24]
00000000: 9436 6fbd 54be b3bd cb74 88bc 0cce 9cbd
00000010: b840 6fbd f04a 8abd fb9d 65bd 8201 b1bd
00000020: b74c e7bc 9d5c 87bd e9ca 56bc 7071 0cbd
00000030: 74c6 bf3a 776d 3fbc 2150 9fbc 8d47 973c
00000040: a633 6e3c fbf1 8f3c bda9 01bc 129f f93b
00000050: c7ef 65bd 1635 523d bca2 fabc 077a ff3c
00000060: c4b2 38bd e446 b33b 230b d83c 412b da3c
00000070: d606 8b3d d848 133e 3d41 483c cfc3 9b3c
00000080: 17f1 09bd b028 ad3c af20 10bd a66e 66bc
00000090: 4803 cebb e3de 113e 73f9 0b3d 747b d73c
000000a0: 925c b93c 1b2a c4bc 6c29 b5bb 82b0 21bd
000000b0: 9312 f9bc af23 b43d 99dc 003c 8d86 0cbc
000000c0: 39bc bc3b b3b6 b73d 7162 553d eb11 673d
000000d0: 2ddc 95bc 2a53 bcbd 78ca 3c3d b4f7 a13a
000000e0: ad9f 8c3a fc7c 3d3d 6416 c33b a15c 453d
000000f0: f6b0 c1bc 2a15 b6bd 0273 6fbc ebef 243d
00000100: baae 02bd 64e8 bd3d 1509 f3bb 66e6 0abd
00000110: 8a79 b23c 6da5 adbd 4959 3a3c 9a8c 43bc
00000120: c725 2c3d e01a 343d 4edb 3cbc afd1 c63c
00000130: dd81 f5bc 1d2b 48bd b251 d7bb f2ca 9b3b
00000140: 4ace 593d c121 733d 203f 233c 5dc9 973d
00000150: ba91 e53b 002e 9d3c f095 c73b 4850 a03d
00000160: e7ae 863d 5753 953d a59c d53b 4644 1e3d
00000170: 6cfb 063c 15b6 9dbd 57aa b13b f436 8b3d
00000180: 5734 67bd 55ac 4abc 22a5 113d 1899 503d
00000190: 9dd3 a5bd 786c 56bc 8095 9e3c 4d77 6e3c
000001a0: 12b0 fdbc a261 fe3c c7f2 fb3c c06e a63c
000001b0: e2c6 013c e330 93bd a155 78bd 2089 e13c
000001c0: 2417 c538 b425 373d e38e 60bb 667f 91bc
000001d0: bdad 2bbd ab91 3dbe 79bb 25bc a22f c43b
000001e0: 46aa d3bc 3a92 8dbd 94fe 2e3b b8ee 39bc
000001f0: 046c e13c a851 9fbd aa63 7ebc fc81 833b
00000200: 405f bfbb ed2d b4bd b267 40bc 2b81 e83b
00000210: c051 c63b 11ba 17bd 19ea a8bc 072c bc3b
00000220: 97d2 d43c 2e1c d9bd 1774 1b3d fed4 e3bc
00000230: a85b 7ebd be7e ffbd ac45 49bd 304e 4cbd
00000240: 6e69 f8bb e5f7 ca3d 22b2 fbbc f56c 02bc
00000250: b4de b43c 2aa5 89bd 1442 f43c 13a9 d4bc
00000260: 1b81 31bc 8fb0 5b3d f714 1abc c0d0 e53b
00000270: 61e8 ccbb c3d4 15be ce3f cb3b 8458 00bd
00000280: 1108 e53c 0dda 1fbc 131c 3bbd a971 683d
00000290: c90b 8abc 4104 6bbe d9f9 353d e8ed edbc
000002a0: a83d dc3c b341 d93c 6db0 613d 0c3c 00bc
000002b0: cd4f 733c 5ed2 dbbc 2db6 f63c 598e a2bc
000002c0: df1b e83c a073 4a3c 0bff 21bd c25f 65bd
000002d0: 0cbf a4ba c151 44bc fc23 56bd 2c9a 1d3d
000002e0: 6d9e e3b8 53ea f8bb c2e1 6f3c a756 503d
000002f0: 4b86 3b3d 2167 d9bc b5ef 7abb 4a9d 203d
00000300: aef6 40bc 45b7 d23c 25b3 7dbc 96a0 0cbd
00000310: 3bca 31bb b881 183d c80c e03c 089d 8ebc
00000320: bc35 083d d02d 0c3d f6bb 8abc dd14 ddbb
00000330: b6cf 2ebc b518 193e 777a 153d 8ac7 5dbd
00000340: c5d8 12bd e827 22bc e195 c63c 4d41 91bc
00000350: 9e8a 9a3b 14da 423e 58b6 c4bc 7b60 333c
00000360: 260e e43c ac17 f33d 8250 b1bc 1ffb 353c
00000370: 51da bbbd 1306 423d bd9c d53c b0e3 9b3c
00000380: 6f0d 153d c9e7 2c3e 7190 1abd 28a1 f13c
00000390: f3aa 89bd 80b4 d8bc da9a 463d 7120 123d
000003a0: 5ff7 073e 2744 0e3e 018a 3aba 7bb5 8c3c
000003b0: 7290 82bb 763d e2bd 3a44 c4bb 7d8d d53c
000003c0: 5c4a a4bc 148c 5d38 316c 293b 1894 793c
000003d0: 89b8 bebc d51b 89bc ab55 093d 2708 123d
000003e0: b543 06bd b04c 9a3c 3986 cd3c c0c5 cebb
000003f0: 069f ae3c ad96 91bd d3a5 7e3c f81b 6fbb
-0.05840166 -0.087765366 -0.016657254 -0.07656488 -0.05841133 -0.067525744 -0.056058865 -0.08642866
-0.028234823 -0.066094615 -0.013109901 -0.03428787 0.0014631287 -0.011683813 -0.019447388 0.018466735
0.014538681 0.01757144 -0.007914004 0.0076178396 -0.056136873 0.051320158 -0.030595176 0.031186117
-0.04509236 0.0054710973 0.026372498 0.026631953 0.06788413 0.14383256 0.012222585 0.019014267
-0.033677187 0.021137565 -0.03518742 -0.014064467 -0.0062870122 0.14245181 0.03417344 0.026303984
0.022627149 -0.023945859 -0.0055286195 -0.03947497 -0.030404365 0.087958686 0.007865095 -0.008577001
0.0057597426 0.08970394 0.052095834 0.056413572 -0.018293465 -0.0919555 0.046091527 0.0012357146
0.001072874 0.046261773 0.005953597 0.04818404 -0.023643952 -0.088907555 -0.014614822 0.040267866
-0.031904913 0.092728406 -0.007416854 -0.03391113 0.02178647 -0.08478818 0.011373826 -0.0119353775
0.042028215 0.043970942 -0.011526896 0.024269907 -0.02996915 -0.04886924 -0.006571018 0.0047544176
0.05317525 0.059358362 0.009963781 0.07411454 0.0070058974 0.019186974 0.006090872 0.078278124
0.06576329 0.072912864 0.0065189176 0.03863933 0.008238655 -0.07700745 0.0054219174 0.06797591
-0.0564464 -0.012370189 0.035557874 0.05092725 -0.08097003 -0.013087384 0.019358397 0.014554811
-0.030967746 0.031052414 0.030755414 0.020316482 0.0079209525 -0.07187059 -0.060628537 0.027531207
9.398002e-05 0.04471369 -0.0034264855 -0.017760944 -0.041913737 -0.18512599 -0.010115498 0.0059871236
-0.025838029 -0.06912656 0.0026702033 -0.011348419 0.027517326 -0.077792466 -0.015526691 0.004013298
-0.005840212 -0.08797822 -0.011743473 0.007095476 0.006052226 -0.03704268 -0.020619439 0.005742553
0.025979323 -0.10601078 0.03795251 -0.027811524 -0.06209913 -0.12475346 -0.04913871 -0.049879253
-0.0075809276 0.099105634 -0.030724589 -0.007960548 0.02207885 -0.06720956 0.029816665 -0.025959527
-0.010834004 0.053635176 -0.0094044125 0.0070134103 -0.0062532877 -0.14631943 0.0062026745 -0.031334415
0.027957948 -0.009756577 -0.04568107 0.05674902 -0.016851323 -0.22950841 0.044427726 -0.029044107
0.026884869 0.026520586 0.055099893 -0.007826816 0.014850569 -0.02683371 0.030116165 -0.019843267
0.028333602 0.012356669 -0.03954987 -0.055999525 -0.0012569143 -0.011982382 -0.05228041 0.038477108
-0.000108537126 -0.007596293 0.014641227 0.050863888 0.04578237 -0.026538434 -0.003828985 0.039212503
-0.011777563 0.025722155 -0.015484606 -0.034332834 -0.0027128595 0.037233084 0.027349845 -0.017408863
0.03325437 0.034223378 -0.01693533 -0.006746872 -0.010669639 0.14950831 0.036493745 -0.054145373
-0.03585126 -0.00989721 0.02424139 -0.017731333 0.0047162315 0.19028503 -0.02401273 0.010948296
0.027838778 0.118697494 -0.021644834 0.011107235 -0.091725 0.047369074 0.026075715 0.019029468
0.036389764 0.16885294 -0.037735406 0.02949579 -0.06722059 -0.026453257 0.04848752 0.03567547
0.13277958 0.13893186 -0.0007115901 0.01717638 -0.0039845044 -0.11046879 -0.0059895786 0.026068443
-0.020054989 5.2820964e-05 0.002585184 0.015233062 -0.023281353 -0.016736904 0.033528965 0.035652306
-0.032779414 0.018835396 0.025088416 -0.0063101947 0.021316063 -0.07108817 0.015542465 -0.0036485177

fc1.bias f4 [400]
00000000: 0589 c9bd 3ea8 51bd 7a53 a13d a943 90be
00000010: a358 833d 3769 a33c 66f0 4a3d 4c6d 61be
00000020: f5a9 71bd 3529 5abd a6f4 123e c608 893d
00000030: 34c6 eebd 4d84 44be cb21 2f3e 53c6 a4bb
00000040: 97d6 07be f274 74be 706f d5bd cb25 863d
00000050: bbe5 c93c 7aa8 1f3e c275 103e 0890 cd3d
00000060: 9426 25be d51c 1ebe 82b1 be3d 8a7f aa3d
00000070: fa00 8dbe 3e52 ac3b 66fb 5abe ea4e 03ba
00000080: 0eea f23b 825f f73d 34aa 04be d3c7 183c
00000090: 41ff 0d3e cf33 19bd 552d 12be 7fe9 c23c
000000a0: 27c3 a53d 98e8 debc d7c4 20bd e0af 1b3e
000000b0: b836 32bc b1e2 0f3e 3691 4cbe 7be0 323d
000000c0: a5a0 733a 964c e93c 7e7a 3cbc 21ee b3bd
000000d0: d1bd 933c a61f 1dbe d512 4cbe 45e9 74be
000000e0: 7302 96be 5e4b 5dbe a971 403d 0841 30be
000000f0: 0b0f 6f3d 512c 37be 8850 d03d 7c64 ce3c
00000100: e949 79bd 0ee3 2cbe bc19 10be 6d35 be3d
00000110: b258 a03d 2fed 2f3e 2112 5ebe 5c12 febd
00000120: 4025 4cbe 2aef 5dbd fad2 c63d 90dc d2bd
00000130: b368 273e 2f0a ab3d c48b 01be 9c01 a9bd
00000140: a669 843d dc4e a33c 6378 363d 01ce 65be
00000150: 9862 69be d590 bebd c715 ae3d 1b30 10be
00000160: 4210 fe3d dbca 25be c8d1 d7bc 7c21 d53d
00000170: 15c0 5cbe aa51 173e 9a5f 20bd 35d4 013d
00000180: 75c8 82bd 53be 21be 53fb 48be 78a5 9fbd
00000190: 51bf 153c e596 9bbd 9cf0 143e 4cd8 093d
000001a0: eb59 87be ab11 27be f4af 0dbd 15de 613d
000001b0: e742 0b3e 4553 d83d e5f0 0c3e b5fb 39bd
000001c0: 495d edbd c6bf 2abe d9cf 113e c77e e9bb
000001d0: c5de b3bd ec7d b63a f579 10be 50e0 6b3d
000001e0: 91fc 573c a3d2 a0bc 0300 753c 815c a1bd
000001f0: 04b4 d6bd cbe9 083d 2a66 53bd d1f0 1a3e
00000200: c57d f5bd d777 08be 469d 0dbc 8b95 c03d
00000210: 888b cabd 5304 0ebe 9512 64bd 24f7 53be
00000220: 48d7 273b 1daf c8bd bd03 aa3d 4575 c5bd
00000230: 56fa 20be 79b6 20bd 11aa 5ebe a9f6 57be
00000240: c712 12bd eac8 7abe a0d4 b73d c570 6dbb
00000250: ed87 a33d bb22 c9bd 93cc e4bd c8a0 143e
00000260: dde5 723d 5360 c5bd e069 653b 2247 afbd
00000270: 0480 94bd cd1b abbd a449 cbbd 2863 c03d
00000280: 85e8 163d c246 0bbe acd5 1bbe 1b5c cb3c
00000290: 3d06 613e a522 463d 7b70 94bc 739d 3ebd
000002a0: f2ed df3d c273 0ebe 2bf2 163d c53b e1bd
000002b0: fd65 1dbe f545 d53c b108 da3c b046 103e
000002c0: 6237 4d3d 8b76 b9bd cbb0 2dbe 2105 34bd
000002d0: abe5 803d 3a4a ae3c 2210 02be 2557 18bc
000002e0: 0b4e 5bbe ea5a 6dbe 5b3a 15be 0598 39bd
000002f0: f34f 493b 3a24 08be b644 0cbe 0304 033d
00000300: 46ed 46be d282 0bbe c3a1 f1bd 7062 433e
00000310: d429 d2bb 0d66 88be 21a0 bfbd d672 f73d
00000320: 4e0a 013e cccf 61bd b295 113e 1e70 3abe
00000330: c59b 5bbe 5f8f 7cbd d91d fcbd 1667 2fbe
00000340: 8483 453e 8ecf 25be a1a3 253e 95f1 7e3d
00000350: 19da 623c ab77 ddbd 067e 36be d7d5 d6bd
00000360: f646 b43c 46d4 3dbe 4dea bdbd a874 4ebe
00000370: 0588 233d 6165 39be 10e7 f13d 78a9 bf3c
00000380: e6e9 12be 3ad2 b3bd 2f9f 40be 9833 a63d
00000390: a647 41be 99a0 99bd b362 25be 021c a83d
000003a0: 7234 bbbd ca89 9cbb fe40 88bc d6eb 28bd
000003b0: cba0 59bd d11e 203e 207a f73d 4164 1bbd
000003c0: be41 4cbe 68d9 293e 0d64 dd3d fb59 20be
000003d0: d46d 263e 0b7e 0bbd 81f3 a63d 62b8 36bd
000003e0: d0d4 67be 0827 60bd b239 023d 7863 ae3d
000003f0: 06c5 bbbd ce1c 73be 2e02 a0bd 5a4d 213d
-0.098405875 -0.05118584 0.0787725 -0.2817662 0.064133905 0.019947631 0.049545668 -0.2201435
-0.058999974 -0.053261954 0.14351138 0.066911265 -0.11658898 -0.19191094 0.17102735 -0.005028525
-0.13265453 -0.23872736 -0.10421646 0.06550177 0.024645677 0.15591612 0.14107421 0.100372374
-0.16127998 -0.15440686 0.09311201 0.083251074 -0.27539808 0.0052588275 -0.21384963 -0.00050090125
0.0074131554 0.120787635 -0.12955552 0.009324986 0.13866903 -0.037402924 -0.14275105 0.02379298
0.08093863 -0.027210519 -0.03925022 0.1520381 -0.010877304 0.1405132 -0.19977269 0.043671113
0.0009293652 0.028478902 -0.011503814 -0.08785654 0.018034847 -0.15344104 -0.19929059 -0.2391711
-0.29298744 -0.21610782 0.046983395 -0.17212307 0.058363955 -0.17887999 0.1017161 0.025194399
-0.0608615 -0.1688349 -0.14072317 0.09287534 0.07829417 0.17180322 -0.21686603 -0.124058455
-0.19936085 -0.054183163 0.09708209 -0.10295975 0.16348533 0.08351552 -0.12650973 -0.0825226
0.06465463 0.019935064 0.044548403 -0.22441866 -0.22791517 -0.09304968 0.085002474 -0.14080851
0.12405445 -0.16190664 -0.026345149 0.10406777 -0.21557648 0.14777246 -0.039153673 0.031696517
-0.063858904 -0.15795259 -0.19627123 -0.077952325 0.009139852 -0.0759714 0.1454491 0.033653542
-0.2643579 -0.16315334 -0.03459163 0.055143435 0.1359974 0.105627574 0.13763769 -0.045406062
-0.11590058 -0.16674718 0.14239444 -0.0071257087 -0.08782724 0.0013923026 -0.14109023 0.057586968
0.013182775 -0.01963169 0.014953616 -0.07878972 -0.10483554 0.033426087 -0.051611103 0.15130927
-0.11986879 -0.13326965 -0.008643454 0.09403523 -0.09889895 -0.13868837 -0.055681784 -0.20699745
0.0025610495 -0.09799025 0.08301494 -0.09641508 -0.15720496 -0.03923652 -0.21744563 -0.21090187
-0.03566244 -0.24490705 0.08976102 -0.0036230546 0.0798491 -0.098210774 -0.11171832 0.14514458
0.059301246 -0.09637513 0.0035005733 -0.085584894 -0.072509795 -0.08354912 -0.09926155 0.093939126
0.03684284 -0.1360121 -0.15218228 0.024824193 0.21975036 0.048372883 -0.018120041 -0.046536874
0.10934056 -0.13911346 0.036852043 -0.10997728 -0.15370937 0.026034335 0.026615473 0.14089465
0.050101645 -0.090558134 -0.16961972 -0.043950204 0.06293806 0.021275628 -0.12701467 -0.009298121
-0.2141649 -0.23179212 -0.14573042 -0.045310993 0.003071782 -0.1329507 -0.13698086 0.031986248
-0.1942645 -0.13624123 -0.11798432 0.1908052 -0.0064136777 -0.2664036 -0.09356714 0.1208245
0.12601587 -0.05512981 0.1421726 -0.18206832 -0.2144614 -0.061660167 -0.123103805 -0.17129168
0.1928845 -0.16192457 0.161757 0.06224211 0.013845944 -0.108138405 -0.17821512 -0.104900055
0.022006493 -0.18538007 -0.09273205 -0.20161688 0.03992464 -0.18105079 0.1181165 0.023396239
-0.14347038 -0.08780332 -0.18810724 0.081153095 -0.18874988 -0.07501335 -0.16150932 0.08208467
-0.091408625 -0.004777168 -0.016632553 -0.041240536 -0.05313186 0.15636756 0.1208384 -0.037937406
-0.19946954 0.1658684 0.10810099 -0.15659325 0.16252834 -0.03405575 0.081519134 -0.044609435
-0.22639775 -0.054724723 0.031793304 0.08515066 -0.091684386 -0.23741457 -0.07812916 0.03938041

fc2.weight f4 [300, 400]
00000000: 6eac 20bd 4762 523d ed3a 833b 676f 953c
00000010: 56fd f33c a6af 2ebd 721d c13d 0231 313d
00000020: d609 7c3d 4828 843d 0466 cc3c 8bfa d13a
00000030: 6818 703d 797c 6e3d e953 963d 8690 81bd
00000040: 18f0 de3c 52ea 13bd 3f2e 40bd 3681 18be
00000050: 4649 21bd 6dd4 89bc 8950 e03c cf3d 02bd
00000060: f44e 5b3d 1de8 373d 76eb 01bd 5933 563d
00000070: a1b1 b4bd fbc2 53bd 5808 983c 0f36 803d
00000080: b102 19bc e9e6 453d 344f cfbc 489d 833d
00000090: cdfb 39bd a4f6 e53b 59eb 0c3d 7ed5 96bd
000000a0: 1b4a 5c3c 541a 1bbd 38c9 043e d6ff e93d
000000b0: 8b53 483d bc08 59bd 4422 2f3d 7fe0 43bc
000000c0: 3eea 47bc 041e 73bc 0bb1 5abd 6ce1 a23c
000000d0: a93d 68bd 1161 4dbc ca94 8b3d 92fe 1bbd
000000e0: f3ef 963d eeb7 a7bd ad2e 733d 3919 133d
000000f0: ddcb bb3d b602 d3bd 86ae 303d dc96 8a3d
00000100: 7aeb 633d 3358 89bd 286a 95bc d235 debd
00000110: 64d9 953d bea2 03bd 75d5 a4bc 6fd7 96bd
00000120: 118a cf3c dd58 0b3d b728 12bd db3c 0bbe
00000130: ddac 1fbd 00c3 12be dcb8 b3bb 6187 85bc
00000140: db95 1c3d 99ac fabb 70ed ad3d 4e81 80bc
00000150: a196 0fbe 4e61 1abc 7729 6fbc 6dac ca3c
00000160: 5ddb 6f3b f522 fcbd 6c42 60bd 003a c3bd
00000170: 52b4 833d 5dea 6d3d 07f9 0ebc 6803 c33d
00000180: 1dd0 a1bc e2e5 873d 3bf6 113d 176e 09bd
00000190: 1474 77bd 863c cb3c bfb5 0abd ab3d 79bd
000001a0: f617 8e3d 06e2 38bd 7c90 893b bd0c 3bbb
000001b0: b219 dc3c b17e 91bc b864 9a3d 9a29 09bb
000001c0: c0d8 083c b5be 2dbd 08d9 24bd 4bcc 2a3c
000001d0: bc9f 30bd e6d2 12bd 2ffb cc3d 4d1b 683a
000001e0: 1f9a 53bd 9df3 bf3b 16f6 4b3d 0c2e 163d
000001f0: 03c2 69bd 9479 123c a798 0a3d 0495 abbc
00000200: 000a 81bd 8037 f13d d12b bb3c 956b 753d
00000210: f4d1 803d 55ec 97bd 28a0 303d 773a c93d
00000220: d751 c3bb d858 7abd 6da6 50bd 6193 863d
00000230: 4e49 883d 3da4 483d bce0 25bc c9fa bdbd
00000240: 64d7 34bd 62a1 443d 79fd edbc 00f0 7e3d
00000250: a19c 493d d778 f7bc 980d b23a d086 873c
00000260: b08f 97bd d178 51bd 252a f43b 4982 99bd
00000270: cd36 0a3c d609 30be dd0c b93b 3094 ba3d
00000280: 111d e9bc b750 6dbd af53 92bc 3a3e 053b
00000290: 6494 4dbd d4fc f73a 1c14 233c cc4e 893d
000002a0: 438b 8e3d 18f1 fa3c c13e fc3c f38a 1e3c
000002b0: f228 72bb 9ec8 fbbb a57c 9dbd aac6 28bd
000002c0: 2056 c53c 34c4 043d f6ae a73b 3fe5 553d
000002d0: 2181 abbd 3509 b7bc 6f33 ddbb 88bb 8f3b
000002e0: 8a48 ccbd faa9 6fbd af65 9a3c 4ccd 8cbd
000002f0: a8cf 03bd dd2b 073d 1beb 06bc dd6d c83d
00000300: 0836 dabd 34e9 5f3d e1ca 04bd 1129 f73c
00000310: c3d9 a63d ecde c23b efb0 e83c fab2 bdbc
00000320: e7c2 993c 9ae7 feba 4358 bfbd 796a 00bd
00000330: 9968 d43c 07ed 77bd 53ad ed3d d281 f4bc
00000340: b87a ee3c 3aaa 173d 4a30 eabd 7449 1ebe
00000350: cbf5 f73d 0bc0 37bd 4480 4c3d 8f5d 0dbd
00000360: ed09 093d 80da 123d 491e d5bc d9a7 f9ba
00000370: 51c6 28bd f24d c3bb 25d0 e0bd ab2d 903b
00000380: dbfc 3ebd d951 8bbd e001 f4bc 73a7 b2bc
00000390: 2959 703c 5a64 7b3d 558e 953a d57b fd3c
000003a0: 9666 843d 3aa3 4abe 1003 a13d b005 0c3d
000003b0: b945 403c cdc5 b13d e7aa 8d3d 0c5d af3c
000003c0: 2979 153d 8613 14bd 30f2 833c 983e 27bd
000003d0: 538d 95bc 0020 4d3d 347a 86bd 2753 0f3b
000003e0: fd66 f33c c079 19bd 93c8 1f3d 789d d1bd
000003f0: 2699 8a3d ec3c aa3d 8fb2 553d dc55 d83c
-0.03922694 0.051363256 0.0040048272 0.018241597 0.029783886 -0.04264798 0.094294444 0.043259628
0.061532818 0.064529955 0.024950989 0.0016020102 0.058617026 0.058224175 0.07340223 -0.06326394
0.027214095 -0.036112137 -0.046919104 -0.1489304 -0.03937652 -0.016824925 0.027382152 -0.031797227
0.053542092 0.044899095 -0.031718694 0.052295063 -0.088229425 -0.05169962 0.018558666 0.06260311
-0.009339021 0.048315916 -0.025306322 0.064264834 -0.04540615 0.0070179272 0.034404133 -0.07364939
0.0134454025 -0.037866905 0.12967384 0.1142575 0.048907798 -0.052986845 0.042757288 -0.0119553795
-0.012201844 -0.014838699 -0.053391498 0.01988288 -0.05669943 -0.0125353495 0.06815489 -0.038084574
0.073699854 -0.08189379 0.059370685 0.035912726 0.09169743 -0.103032514 0.04313519 0.067670554
0.05564449 -0.06706276 -0.018239096 -0.10850109 0.073168546 -0.032137625 -0.020121315 -0.073653094
0.02533439 0.034020294 -0.03568336 -0.13597433 -0.038983215 -0.14332199 -0.0054846834 -0.016299905
0.03822885 -0.00764997 0.08492553 -0.015686657 -0.14022304 -0.009422613 -0.014597288 0.024740422
0.0036599257 -0.12311355 -0.054750845 -0.09532547 0.06430878 0.058084834 -0.008726365 0.09522134
-0.019752556 0.066356435 0.035635214 -0.033552255 -0.060413435 0.024809133 -0.033864733 -0.060849827
0.06938164 -0.045137428 0.004198132 -0.0028541528 0.026867721 -0.017760606 0.07538742 -0.0020929337
0.0083524585 -0.0424182 -0.04024604 0.010424684 -0.043121085 -0.03584566 0.10008847 0.0008854166
-0.051660653 0.0058578984 0.049795233 0.036665007 -0.05706979 0.008940119 0.033836987 -0.02094508
-0.063007355 0.11778164 0.022848042 0.05991705 0.062900454 -0.07418124 0.043121487 0.098256044
-0.005960684 -0.061119884 -0.050939966 0.06571079 0.06654607 0.048984755 -0.010124382 -0.09276349
-0.044150725 0.04800547 -0.02905153 0.0622406 0.04922164 -0.030208988 0.0013584374 0.016543776
-0.07400453 -0.05114061 0.007451313 -0.07495553 0.008435917 -0.17191252 0.0056472854 0.09110296
-0.028456243 -0.057938304 -0.01786217 0.002033128 -0.050190344 0.0018919953 0.009953525 0.067044824
0.06960156 0.03063254 0.030791642 0.009676683 -0.0036950675 -0.0076838275 -0.0768979 -0.041205086
0.02408892 0.032413676 0.0051172925 0.05222058 -0.08374239 -0.022343257 -0.006750516 0.004386369
-0.09974773 -0.05851171 0.018847315 -0.06875095 -0.03218046 0.033000816 -0.008234764 0.0978658
-0.10654837 0.05466576 -0.032420043 0.03017095 0.081470035 0.0059469845 0.028404681 -0.023156632
0.018769694 -0.0019447685 -0.093430065 -0.03135154 0.025928782 -0.06052878 0.116053246 -0.02984706
0.029111251 0.037027575 -0.11434992 -0.15457708 0.12107428 -0.04486088 0.04992701 -0.034513053
0.03345673 0.03585291 -0.026015418 -0.0019047215 -0.041204754 -0.0059602195 -0.109772004 0.0043999753
-0.04662786 -0.068027206 -0.02978605 -0.021808362 0.014669695 0.061375 0.0011410216 0.030942837
0.06464879 -0.19788828 0.07861912 0.03418511 0.011735373 0.08680306 0.06917363 0.021406673
0.0364925 -0.03615143 0.016106695 -0.04083118 -0.018255865 0.050079346 -0.06566277 0.002186963
0.029712195 -0.037469625 0.03900964 -0.10235113 0.06767492 0.08312401 0.05217224 0.026408128

fc2.bias f4 [300]
00000000: 907f 123d 739d 463c eef2 6c3c be29 013d
00000010: 7dc7 a2bc dada 553d 5b93 793d f35b 1b3c
00000020: 7865 fa3d 7ec2 093d d623 2f3d f247 4e3d
00000030: 1d46 af3d 2e76 313d 8ec7 353d 4916 d33c
00000040: 4857 0c3d 5631 133d bb28 d03c 93f2 b73d
00000050: 800a a83d 1324 b93d c0f6 933c 5f41 8e3d
00000060: a951 a73b d846 f53c f031 aabc 7314 943d
00000070: 7626 513c 57ad 083e 7645 693c ec36 b8bb
00000080: 1bc8 533d 002a 6b3d 0a19 8a3d 0600 333d
00000090: 3a3c ae3c 9646 9e3d 7680 0ebc 8e6b 333d
000000a0: 1b73 293c 59ab 113c 3614 0a3d 1a16 553c
000000b0: 9e1d 653d a6a0 893d 22f9 2b3c cc57 c53d
000000c0: 37c4 843d 893c 37bb 7818 78bc ce36 a43d
000000d0: 214b 4b3d 169d cebc b274 8a3c 79f0 293d
000000e0: 8dca 7abc 4b0c d43d c250 173d 3d02 793d
000000f0: f2c1 793d 7a51 e03d be67 0d3b d692 aa3d
00000100: 931a 103e 6cb0 ff3d 9eaa b63c dbac f43c
00000110: 5ce5 3b3d 9fe1 c03d 0902 203d 31d2 8cbb
00000120: ca43 f03d 4757 783d 1e35 55bd 83a0 ac3d
00000130: 5192 abba b8cb e83a 9733 363e d147 9d3d
00000140: b6cc d13b 6317 293d 4dd3 b33d 6dbb 7d3c
00000150: 7fd9 d33b 6db1 bb3d a67d 5d3d 5d51 e03d
00000160: 5af7 943d 925e a23c bc0a 583d 49e3 2b3d
00000170: bbba 923c 93f7 acbb 5a7c 823d 8745 ddbb
00000180: 55f4 9c3d a2f3 c23c 7c64 f13c cade 07bd
00000190: b619 123d 9e72 073d 8037 ea3b d53c c53d
000001a0: 88b3 2e3d dc17 4e3c 1fb0 a23d 1ff6 4c3d
000001b0: 5dd9 423d 0e08 013d b2b0 f33d b1ac 253b
000001c0: 77e2 79bd cf4a 773c b2ab d63d 5833 833c
000001d0: dfc3 dd3c 72e6 373d dbd5 b73d 0269 73bb
000001e0: fe9d d63d 0c71 9dbc f91f 693d e641 483e
000001f0: f4d8 333d 58a9 a43d 31ee 27b9 ca39 25bb
00000200: f36a 6f3d 4b7b 823d 59ab b83d d56d eabc
00000210: e819 d83d b6a2 883c 3dd9 363d 875c 273d
00000220: 9d0a f33c ff1d cf3c 3425 48bc 01dd 923c
00000230: 8687 ef3d fb98 bd3d 0568 4a3d bfd6 a63d
00000240: 46c6 493d 865b 613c f702 873c a0ea 713d
00000250: bdff e13d 8462 b53d cddc ba3b 3536 aa3d
00000260: 19a4 c03c e215 453d 7538 cb3d f90c 893a
00000270: 90fe c33c b0c4 7b3d 08ec a03d e447 a73d
00000280: ae09 d73d 4ffa 5b3d 69fd aa3d c21a 863d
00000290: b30a 5a3d 7895 98ba 6409 c03d cad5 fe3d
000002a0: 62da c7bc b452 043e fd98 143d 30d1 173d
000002b0: 5436 0b3d 28f1 663d 81e5 a13d 3755 3b3d
000002c0: b93a d8bb 7437 643c 742f c93d b63e 993d
000002d0: a5eb 4a3d 0f3b 4b3d 3975 763d a62a 84bb
000002e0: dd6a 62bb adfc b33d ee0e 1bbd d802 c53d
000002f0: 3ac5 4e3d 33b5 733d a3b4 973d c6fd 17bc
00000300: 07c6 983c 782d 443d c70f 013c d61e c53d
00000310: d0f8 ca3c c998 ad3d c319 743d 82dc 863d
00000320: 8f31 fbbc 2d6a 81bc fc09 913d eed1 73bc
00000330: a1b6 8d3d 21f3 bf3d 90e6 083d 2917 9d3d
00000340: 39bf 03bc 7b07 d23c 9f73 a03d d46e 2e3d
00000350: bd93 663d a368 a13d 3983 d33d dc46 553d
00000360: eb72 48bc 9558 e7bc 5b65 2d3c 53e7 333d
00000370: 7df9 993d 3959 943d 91da 7c3d 65e5 6c3d
00000380: 93b5 a43d 8b08 a2bb 61ca 113c ea87 153d
00000390: 5299 0f3d 13f9 953c bc00 ba3d a78f 3c3d
000003a0: 4553 903d 1e60 563c 51df ad3d 35e1 13bb
000003b0: 2797 83bc f93c b03c 1b87 4d3d 9730 853d
000003c0: bc07 6a3d fa7a 68bc 9090 4e3d a9bd 9f3d
000003d0: fb1d 08ba 23ac 8fbc b6d6 cdbc 42b7 103d
000003e0: d82e f13d 80eb 0f3d 547d 2b3d df52 d73c
000003f0: de54 af3d bb1f 1b3e 0acb 773d c0d9 5e3d
0.035766184 0.0121225 0.014462216 0.03153395 -0.019870514 0.052210666 0.060931545 0.009482372
0.12226385 0.033632748 0.042758785 0.05036158 0.08558295 0.043325596 0.044379763 0.025767462
0.034262925 0.035935722 0.025410047 0.08981814 0.08205128 0.09040084 0.018061996 0.06946062
0.00510617 0.029941007 -0.020775765 0.07230463 0.012765517 0.13347374 0.014237752 -0.0056217816
0.051704507 0.0574131 0.06743057 0.043701194 0.021268953 0.07728307 -0.00869762 0.043803744
0.010342385 0.00889095 0.03371068 0.013005758 0.05593645 0.067200944 0.01049641 0.096358865
0.064827375 -0.0027959666 -0.015142553 0.08018266 0.049632195 -0.025221389 0.016901348 0.0414891
-0.015307081 0.10353907 0.03694225 0.06079315 0.060975976 0.109530404 0.0021576728 0.08328788
0.14072637 0.12484822 0.022298153 0.02986758 0.04587303 0.09418034 0.03906444 -0.0042975177
0.1173168 0.06063011 -0.05205261 0.08429053 -0.001308987 0.0017760908 0.17793117 0.076797135
0.0064025773 0.04128207 0.08780537 0.01548658 0.0064651365 0.09164701 0.054074906 0.10953019
0.07273741 0.019820485 0.052744612 0.041964803 0.017911306 -0.0052785366 0.063713744 -0.006752673
0.0766379 0.023797814 0.02946686 -0.033171453 0.03566905 0.03306829 0.0071477294 0.096307434
0.042651683 0.012578931 0.07943749 0.050039407 0.047570575 0.031501822 0.11898936 0.0025279934
-0.06100699 0.015093519 0.10481967 0.016015694 0.027070938 0.044897504 0.089763366 -0.0037141447
0.10479353 -0.019218944 0.056915257 0.19556388 0.043908074 0.08040112 -0.00016015094 -0.0025211447
0.058451604 0.063711725 0.09017057 -0.028616825 0.10551816 0.01667915 0.04464077 0.040859725
0.029668147 0.025282858 -0.012215901 0.017927648 0.11695771 0.09257694 0.049415607 0.08146428
0.049261354 0.013754731 0.016480906 0.059061646 0.11035106 0.08856681 0.005702591 0.083111204
0.023515748 0.048116572 0.09922878 0.0010456137 0.023925096 0.061466873 0.078575194 0.08168009
0.10499893 0.05370551 0.083491154 0.065480724 0.05323286 -0.0011641225 0.09376791 0.12443121
-0.024396125 0.12922174 0.036278713 0.03706473 0.03398736 0.05638233 0.079051025 0.045735564
-0.006598797 0.013929237 0.09823504 0.07482664 0.049541134 0.04961687 0.060170386 -0.0040334044
-0.0034548559 0.087884285 -0.037856035 0.09619683 0.05048106 0.059498977 0.074075006 -0.009276813
0.018649114 0.047894925 0.007877297 0.09625022 0.024776846 0.08476407 0.05959488 0.06585027
-0.03066328 -0.015797699 0.070819825 -0.014881594 0.06919599 0.09372545 0.033423007 0.07670433
-0.0080411965 0.025638333 0.07834553 0.042586163 0.056293238 0.07881286 0.10327763 0.05206953
-0.01223443 -0.028240481 0.010583247 0.04392178 0.07518289 0.0724358 0.06173188 0.057835955
0.08042445 -0.004944866 0.008898349 0.03650657 0.035058327 0.018307244 0.09082171 0.046035435
0.070471324 0.01308444 0.0848986 -0.0022564654 -0.016063286 0.021513449 0.050177675 0.065034084
0.057136282 -0.014189476 0.050430834 0.07799847 -0.0005192456 -0.017538136 -0.025126796 0.03533102
0.11776513 0.0351367 0.04186757 0.026284633 0.08561109 0.15148823 0.060496368 0.05440688

fc3.weight f4 [2, 300]
00000000: 622e 1a3e 0997 0d3e 22a2 c0b9 f8ea 403e
00000010: 966b eebd ab38 be3d 9e2f 47bd 45e7 d5bd
00000020: d8a6 8c3d 6109 db3d 67a5 17be 6101 983d
00000030: d68a 113e e6e6 263e f7b3 ba3d 42a1 033e
00000040: 4831 83bd 2f77 c1bd b882 373e 5b66 eabd
00000050: 68e2 d33c 82d6 06be 914c 0abe 233c e33d
00000060: 35a1 643e 3494 e2bc a6f0 133e 53a8 143e
00000070: 4ca1 88bd f853 30be f905 e3bd 3cb1 dabc
00000080: a07f 21be 3850 1dbe 01d1 aa3d a2f3 f8bd
00000090: 2641 d03d 3850 13be 5627 ddbd 4013 0a3e
000000a0: 1de3 553d 2386 1e3d cc79 f1bd 86f5 e43d
000000b0: 7a02 09be c0be c8bd c89d 513e f098 273e
000000c0: f1bb 3c3e ef6a 47bd e784 1f3e 1d31 f7bd
000000d0: 5a6e 9ebd 124e be3d f229 d6bd 2bdd dabc
000000e0: da74 8fbd bc9f 1abe a37d 03be cbf2 e3bd
000000f0: 02b6 00be 18d3 373e 9ce5 073e 07f4 15be
00000100: a996 01be f582 eebd 441a 31be 6688 1e3e
00000110: 6f83 01be c330 90bc 6a28 81bb e7ff 07be
00000120: ae20 393d 3423 fbbd b85c 2c3e df71 23be
00000130: eeb8 cd3d 5840 bebd 760c d23b 6aa7 663c
00000140: 92e4 0dbe 23fe 0ebe 8f3b 12be fb30 03be
00000150: d02d 4b3e f7b1 91bd 6e13 1cbe c081 14be
00000160: 255a ab3d 9af8 ed3d 4d7f c63d d476 743d
00000170: 30ec d53d 43d6 993d 8ad4 d9bd 341d a6bd
00000180: 73b4 b83d 87d7 aa3c f879 513d 904b 1a3d
00000190: 434b fe3d 7ec4 f43d dcb2 7abd 5249 cb3d
000001a0: 7845 713c b3c1 0fbe d9b1 173e e857 543e
000001b0: 379e f6bd 159e e43d 5197 093c 91a8 18be
000001c0: e579 c7bc 5666 393e 6c5a 24be a798 b93d
000001d0: f4f1 1ebd f529 1e3e 7bb9 f23c bcd6 753e
000001e0: b12d 18be d936 743d 5a91 213e 743a 9f3c
000001f0: 8af1 203e c320 623d 2ca0 01be 4855 063e
00000200: de41 1f3e 635c fabd f846 ddbd 9122 ea3d
00000210: f96c 8fbc 4f9a 1d3e 1dd1 0cbe ab99 a8bd
00000220: 4f9a 563e 36e0 09bd f45a 81bd d36d 863e
00000230: d9c5 3c3e d52c f7bd d683 90bd 55cf 0b3e
00000240: f4f4 913d 35bd 0ebe 4db9 863d db6e 0abe
00000250: 8f2a 943c b914 6d3c c316 253e d902 803d
00000260: 4972 05be 59cc 563d 5d95 d73d ea2c 473d
00000270: 4416 023e 49e7 14be 4ade 07be 14aa 773d
00000280: d02d 1dbe 67e5 23be fc1c 2d3e e60c 983d
00000290: 03a9 3f3d 57d4 643e c9de 2b3e 40a4 15be
000002a0: 2ece 8fbd d9d3 003d 9c44 643e 8eb3 e3bd
000002b0: 37c5 e63d bb32 1c3e f1c3 163e 2ea9 9c3d
000002c0: d2a3 b23d efdf 5cbd 96d3 06be 66a9 a7bd
000002d0: 2a67 fbbd 92ed 28be 23f5 27be c6d5 9bbd
000002e0: 983d 023e d566 d3bd f065 083e 9296 90bd
000002f0: d0ea 273d 55c2 823d f522 b6bd adca dd3c
00000300: 4293 ec3d 07e6 c2bd f20f 9a3d b404 2b3e
00000310: 31c1 12be cf21 22be 0e90 253e 9516 023e
00000320: 31b0 acbd 3bd0 f7bb 9862 273c 1989 cc3d
00000330: 96bf 2e3d 8043 0dbe ce22 d4bd 6e8c 26be
00000340: f428 cf3d 67c4 663d a18a 0d3e 8574 f1bd
00000350: 1168 313e 5a66 e83d 5471 e43d e205 0a3e
00000360: 930a bbbd 2d34 403e 7283 80bd 2c1f 063d
00000370: 937d 1e3e ef30 febd e98f 1abe 9989 12be
00000380: d388 1fbc 600d 91bd 21da 21be 3b2a e43d
00000390: 584e f1bd f717 19be 3dee 0ebe 31f6 f4bc
000003a0: 9151 c9bd 6b7f a5bd e442 2dbe 8ce3 86bd
000003b0: 037f d33d c538 60bd 79c9 853d faf6 783c
000003c0: 99fe 00be 1b09 e3bd 68dd 1a3e 2afa d83d
000003d0: ab26 01be e72b a83d b7b4 c83d abeb fe3d
000003e0: 49b5 09bd ab9a 16be 1764 9dbc 49ff 29bd
000003f0: 5d64 3bbd 539b 783d f8af 2cbe 874e 1dbe
0.15056756 0.13827147 -0.00036741892 0.18839633 -0.11641614 0.09288152 -0.048629396 -0.10444502
0.068677604 0.10695148 -0.1480919 0.07422138 0.14213118 0.16299018 0.09116357 0.12854484
-0.06405884 -0.094465606 0.17920959 -0.11445304 0.025864795 -0.13167766 -0.1350577 0.110954545
0.2232712 -0.02765856 0.14447269 0.14517336 -0.0667139 -0.17219532 -0.110851236 -0.02669584
-0.15771341 -0.15362632 0.083406456 -0.12155844 0.10168676 -0.1438607 -0.10798518 0.13483906
0.052218545 0.03870214 -0.11790809 0.111796424 -0.13379851 -0.09802008 0.20470345 0.16366935
0.18431069 -0.048685964 0.15578042 -0.120699145 -0.07735892 0.092922345 -0.10457219 -0.02671679
-0.070047095 -0.15099996 -0.12840895 -0.111302935 -0.1256943 0.1795162 0.13271183 -0.1464387
-0.12655129 -0.11646072 -0.17295176 0.1548172 -0.12647794 -0.017601376 -0.0039415853 -0.13281213
0.04519718 -0.12262574 0.16832244 -0.15961407 0.10045038 -0.09289616 0.006410177 0.014078001
-0.13856724 -0.13964133 -0.14280532 -0.12811653 0.19841695 -0.07114022 -0.15241787 -0.1450262
0.08366803 0.116196826 0.096922494 0.059683636 0.1044544 0.0751157 -0.10636242 -0.08111039
0.09018793 0.020854725 0.05114171 0.03766972 0.12416699 0.119515404 -0.06120573 0.09926094
0.014726035 -0.14038734 0.14813937 0.20736659 -0.12041896 0.11162964 0.008397893 -0.14908053
-0.024350116 0.18105444 -0.16050118 0.09062319 -0.038804963 0.15445693 0.02962946 0.24007696
-0.1486118 0.05962262 0.15778103 0.019437052 0.1571714 0.055207025 -0.12658757 0.1311847
0.1555247 -0.122246526 -0.10804552 0.11432374 -0.017508017 0.15390895 -0.13751645 -0.08232435
0.20957302 -0.03366109 -0.06316176 0.26255664 0.18434848 -0.12069098 -0.07056396 0.1365331
0.07126799 -0.13939364 0.06578312 -0.1351885 0.0180867 0.014470273 0.16121964 0.06250543
-0.13031878 0.052440975 0.10526536 0.048626818 0.12703806 -0.14541353 -0.1326839 0.060464934
-0.15349507 -0.16005479 0.16905588 0.07424335 0.04679204 0.22346626 0.16784205 -0.14613438
-0.070217475 0.031452034 0.22291797 -0.11118232 0.112680845 0.15253727 0.14723183 0.07649456
0.087226525 -0.053924497 -0.13166651 -0.08186607 -0.12275536 -0.16496876 -0.16402106 -0.076091334
0.12718809 -0.10322348 0.13320136 -0.07059969 0.04099542 0.06384722 -0.08893386 0.027074182
0.11551525 -0.095165305 0.075225726 0.16701013 -0.14331509 -0.1583321 0.16168234 0.12703927
-0.08432043 -0.007562665 0.010216378 0.09987087 0.04266318 -0.1379528 -0.10358201 -0.16264507
0.10115233 0.056339648 0.13822414 -0.117898025 0.17324854 0.11347647 0.11154428 0.13478807
-0.09132876 0.18769903 -0.06275071 0.03274457 0.1547759 -0.12411677 -0.1509396 -0.14310302
-0.009737211 -0.07082629 -0.15805866 0.11140867 -0.11782521 -0.14950548 -0.13958068 -0.02990255
-0.09830011 -0.08080944 -0.16920048 -0.0658637 0.1032696 -0.05474164 0.065325685 0.015195603
-0.12597121 -0.11085721 0.15123522 0.1059459 -0.12612407 0.08211499 0.098000936 0.12447294
-0.033620153 -0.14707439 -0.019212766 -0.041503225 -0.04575001 0.060695004 -0.16864002 -0.15361987

fc3.bias f4 [2]
00000000: 519a a7bd 3397 a4bc
-0.081837304 -0.020091629

bn1.weight f4 [400]
00000000: 2689 493f 0fff 813f 573a f33e 2aee 433f
00000010: a53e fc3e 6740 103f 1db2 093f 3cb6 563e
00000020: 44f5 fc3e 0503 4b3f 37b0 533d f062 0d3f
00000030: c2e7 133f 8ddf a83e cb23 9d3e 75e1 083f
00000040: 9e3d 873f 7c57 293f fd1e ab3d ad1f e23e
00000050: 0eaf 403e cb3e 333f b463 453e 9985 423f
00000060: cb2c 033f 8a6b a03d f506 bf3e e4df 673f
00000070: cc2b 4a3f f179 7a3f 994c 053e 2cbd 003f
00000080: f7b4 cf3e 9466 273d 7b7d 9c3e 1aa8 5f3f
00000090: a8bd 753f f1da 913e c95b 773f 0259 043f
000000a0: db4d e53e 735d 543e 35eb 1d3f 41ad 483e
000000b0: 123f fa3e a9d1 283f 262f 343e 558e 4b3f
000000c0: ee1d 253f ac1f 393f 3f75 453f 7f22 ff3e
000000d0: c457 763f fbea 3f3e b8d2 b43e 7090 993e
000000e0: c95e 4b3f 45a5 573e 1a06 4a3f e80e 833f
000000f0: be5b 2d3f 64c9 813f cbce d33e da26 a23e
00000100: 179f 4b3f 9cc8 033f 5396 5f3e fa7a 623f
00000110: 6cc9 153f 2f4c e83d 1f37 7e3f 5fe3 d13e
00000120: fe1a 7b3f 5c61 4c3f 2ba5 7b3f 9ed4 873f
00000130: 847e 533f c907 4a3f 104a 813f d1b6 593f
00000140: 7691 d63e 1bbf 013f 1c3f dc3e e2b2 fe3e
00000150: 9f4e a53e 7c19 ee3e 64a3 073f f61c e73e
00000160: e5a6 0b3e 2929 123f 9d3c 6c3f 4fda 833f
00000170: c4a3 573e 7b5c 793f b82a 653f c143 5c3e
00000180: a817 4d3f 4f0b 143f 9d9e 863f 2200 3c3f
00000190: 805c 7dbe ac34 003f eba8 3a3e b959 4c3f
000001a0: dc4b a83e 27e3 293f 998a 1d3f 96aa 263f
000001b0: 3d47 223e 3088 df3d 0190 7b3f 646f 003f
000001c0: 970c 6a3f 974d 5b3f 66ac d03e d1fe b23e
000001d0: e30c ed3e 00de 3b3f e5c4 233f 2920 663e
000001e0: f275 1b3e 2cce 703f fd91 0b3f 73cb a63e
000001f0: 0680 e33e faa7 803e fff7 d03e 4b06 a53e
00000200: fae3 d13e 0b56 193e 7af7 cd3e 35cd 5d3e
00000210: 9beb 643f e5ad 2d3f d5f2 c43d d598 843e
00000220: 5397 513f b1b9 183f 92aa 3a3e 6fa8 883f
00000230: cf9d 513f 73ec 163e 177d 983e 46e5 6a3f
00000240: 6140 5d3f 182c 8a3e f8e3 5d3f 6308 a63e
00000250: da99 6e3f 917d 433f d5ba 2d3f 822e 4c3e
00000260: 860b 2e3f 7bec 5f3f 5732 5e3f 554a 573e
00000270: 3d30 6f3e 1abf de3e d6f2 f43e 7bc2 3a3f
00000280: c4ee dc3e 43cb 7f3f b4d9 f43e 6bd6 333f
00000290: 70d6 ee3e 0778 8b3e 00e5 833e daa6 703f
000002a0: dce0 153e 6747 f63e d7fb 423f 542c 4c3f
000002b0: 7bc9 c23e 4775 4a3f 6c2a a43e 43de 573f
000002c0: 87e4 7a3e 2763 643f 6b76 4d3f b75c 453f
000002d0: f8af a93e e0b5 393f ba8b 153f 5989 503f
000002e0: 30e3 6c3f 0bd0 743f a983 fa3e 55ae 2a3f
000002f0: 0b3b 353f 873b 003f 1039 873e cb72 083f
00000300: beab fc3e e7c2 4d3f 3d80 6b3f d1d4 153f
00000310: 3884 d83d 325e 823f 754b 803e f1d8 8a3f
00000320: 1e45 2b3f 4052 103f dd42 853f 0284 1d3f
00000330: 2bac 003f d017 2b3f 3825 713e b3dc 6b3f
00000340: f334 1e3f c992 1d3f 77fb d63e de63 e73e
00000350: eaf5 363f 3b44 e03e 713e 4c3f d69f 8d3f
00000360: 504a e33e f2c5 7e3f eeed 813f efa3 763f
00000370: 6e9d 263f ad76 033f 010e 033f 3a1b 263f
00000380: ac94 2c3e 7e5d b53e 7db7 0f3f dd0c 4e3f
00000390: 5abe e23d fa5b 193f 2f7c 7a3f 980f db3e
000003a0: 4a3a 743f 0289 1f3f 9343 4f3f 7a73 a83e
000003b0: 4141 243f 7167 723f 677c e23e d38b 763e
000003c0: 09ac 163f 2bf3 c03e 308a 633e 3b57 763e
000003d0: d155 523f f221 353e 52ea 5a3f a9a4 303f
000003e0: 1871 5b3f db4e 693e 8442 c63e 7060 873f
000003f0: a5cb 983e 1fcb 7a3f 6a90 da3e 8bb3 7d3f
0.78724897 1.0155963 0.47505447 0.76535285 0.49266544 0.5634827 0.53787404 0.20967954
0.49405873 0.7930148 0.051681723 0.5522909 0.5777551 0.32983056 0.3069137 0.5346902
1.0565679 0.66149116 0.0835552 0.44164792 0.18816778 0.7001769 0.19276315 0.75985104
0.51240224 0.078330114 0.37309995 0.90576005 0.7897308 0.9784232 0.13017501 0.50288653
0.40567753 0.04086931 0.30564484 0.8736588 0.9599252 0.28487352 0.9662443 0.51698315
0.44785962 0.20738773 0.6168702 0.19597341 0.48876244 0.65944916 0.1759611 0.79514056
0.64498794 0.7231395 0.7713203 0.49831006 0.9622767 0.18741982 0.35317016 0.2999301
0.79441506 0.21059139 0.7891556 1.0238924 0.6771811 1.0139585 0.41368708 0.31670266
0.79539627 0.5147798 0.21834688 0.884689 0.5851047 0.11342656 0.9930286 0.40993783
0.9808806 0.7983606 0.982989 1.0611761 0.8261492 0.7891813 1.0100727 0.8504458
0.41907853 0.5068223 0.430169 0.49745852 0.32286546 0.46503818 0.5298369 0.45139283
0.13637884 0.57094055 0.9227999 1.0300997 0.21058565 0.9740674 0.8951831 0.21510221
0.8011422 0.57829756 1.0517155 0.734377 -0.24742317 0.5008037 0.182285 0.79824406
0.32870376 0.6636223 0.6153961 0.65104043 0.15847488 0.109146476 0.9826661 0.5016997
0.9142546 0.8566527 0.4075653 0.34960034 0.46298894 0.7338562 0.6397231 0.22473206
0.15181711 0.94064593 0.54519635 0.32577094 0.44433612 0.25128156 0.40814206 0.32231364
0.40994245 0.14974229 0.40227872 0.21660312 0.89422005 0.67843467 0.09616629 0.25897852
0.8187153 0.5965834 0.1822913 1.0676402 0.8188142 0.14738636 0.29782936 0.91756094
0.8642636 0.26986766 0.8667598 0.32428274 0.9320351 0.76363474 0.6786321 0.19939616
0.67986333 0.87470216 0.8679556 0.21024449 0.23358245 0.43505174 0.4784152 0.72953004
0.43150914 0.9991953 0.47822344 0.7024905 0.46647978 0.2724001 0.2576065 0.94004595
0.14636558 0.4810135 0.7616553 0.7975514 0.38044342 0.790852 0.32063615 0.8432352
0.24501239 0.89213794 0.80258816 0.77094597 0.33142066 0.72543144 0.5841633 0.81459576
0.9253416 0.9562995 0.48928574 0.6667226 0.7079322 0.5009083 0.26410723 0.5330016
0.4934978 0.8037552 0.9199255 0.5852786 0.10572094 1.0184996 0.2505757 1.0847455
0.6690234 0.56375504 1.041103 0.6152955 0.5026271 0.6683321 0.23549354 0.92133635
0.61799544 0.615521 0.41988727 0.4519338 0.71468985 0.43802056 0.7978278 1.1064403
0.44392633 0.9952079 1.0150735 0.9634389 0.6508397 0.5135296 0.51193243 0.64885294
0.16853589 0.3542289 0.56139356 0.8048838 0.11071463 0.5990597 0.9784574 0.42785335
0.9540144 0.6231843 0.80962485 0.32900602 0.6416207 0.9468909 0.44235536 0.24076776
0.58856255 0.37685522 0.22220683 0.24056713 0.82162195 0.1768873 0.85513794 0.6900125
0.8571944 0.22783987 0.38722622 1.0576305 0.29842868 0.9796619 0.42688304 0.99102086

bn1.bias f4 [400]
00000000: 63f6 443d 7de5 37bd fe50 ecba a116 c73c
00000010: 45be 84bd 385c 50bc fd34 953c 2772 003d
00000020: 7823 733b cbc8 08bc 475b 31be 4768 b9bc
00000030: da94 1cbb d610 4d3b caf6 ffbc 7400 24bd
00000040: 8cf8 acbc 6fa7 ab3c fd67 263d 7d72 f7bc
00000050: c916 5bbd 469b 393c 2a1c 6d3d 0141 1dbc
00000060: 67a8 c7bc 3014 f33d 84b2 99bc 7688 acbb
00000070: da2b 913d 61f4 283c 847e cebd 29aa 51bd
00000080: ff53 d33c 2af2 c03d d2a1 d1ba 935f 4cbd
00000090: 6790 5c3d a3cf ccbc 03f7 8dbc 0350 0abd
000000a0: ca35 31bd 823a 43bd 1820 8e3d 9bea 07bd
000000b0: 6b63 81bc 9819 68bd 5c2d fd3d 0773 ce3c
000000c0: 0b8f 823c 9dde 093c bf17 433d 8f5b bdbd
000000d0: 1454 cbbc bb6e f43b 09bc 273c b67e ce3c
000000e0: 7a73 25bb 3d69 f4bd dab3 aabc 606d a2bb
000000f0: e781 973b b004 453d 4749 b6bc 9d62 35bd
00000100: ada5 5ebc 7c39 43bd c8a9 393d 904e 21bc
00000110: 8d1b 583d f189 79bc 5062 e2bc 8cea 54bd
00000120: 1c0a 12bc 8c3f 3abd 58b6 31bd a167 acbc
00000130: 03cc edbc ed96 d1bb 4c4a 8cbc 78e8 dcb9
00000140: cfc5 003b 5b8f 153c 922a 3f3b 1709 98bc
00000150: 4128 c2bc 87cb 053d ccac 9abd 4c4b 783d
00000160: 8f33 1ebc 0174 6b3c 9ea2 053d 6119 8f3c
00000170: 5dac f53c 70dd b8bb 3f9a 67bc c10c c13c
00000180: ecd4 c6bc 3da8 f63c a3ce 94bc f406 c4bc
00000190: 342e 5ebe c1dd 833c 65c8 4abd 0398 85bc
000001a0: fc52 6c3b 84f2 4e3d 420c 0abd 1bbd 0c3d
000001b0: b9e9 b23d cb51 1cbc c8b1 7ebb c9c0 d43d
000001c0: 4a60 0ebd d026 c53c 6776 00bd 8891 99bc
000001d0: ce3b e6bc d1c6 583c 29df 97bd f60c 82bc
000001e0: c936 6abc b4bd 5dbc ba12 aabd 92e6 f2bc
000001f0: f1b9 aabb aee5 05bc 09b4 b8bd 6878 1a3c
00000200: 315a e7bc 5257 78bd 1b95 29bc 0149 f83d
00000210: 086c 9c3c f675 493c 5aa6 3e3e 02da 0a3d
00000220: a229 573b 361e 97bd 0067 c53d df9e 363c
00000230: 839c af3c abe0 ea3c aec4 323d 98b1 e9bc
00000240: 2684 a9bc 5c00 bd3b 85b6 50bd 3485 4cbd
00000250: 3a62 3ebb 9dc5 3ebd ea12 51bb 9670 243d
00000260: 9899 ccbc 2923 c83b 8efc 09bb d59e 5abe
00000270: 4544 dfbd 7d1f 15bd 1efd 9abc bd12 92bc
00000280: 964b 8b3b 084c 7a3c 3158 8d3c 6c25 cbbc
00000290: 6fd4 fc3c f8ce d93b 3fcd 3ab9 b75b 2dbd
000002a0: 9d90 c63d 23e2 5c3c bd5b 5fbc 80fb 873b
000002b0: d4d8 06bd 3e87 7dbd c042 13bd 2f68 b43c
000002c0: 367a 9abd 57fa 463d 1d65 41bc daf6 8d3b
000002d0: 894a 87bc cd12 42bc 0391 bdbc 5146 0bbd
000002e0: 56d7 64bc b6cc 0bbb 7ff8 70bc 882c 72bc
000002f0: 171d 8c3b f9f3 75bb bae8 f8bd 6b67 79bb
00000300: d1b6 08bd d96e 9ebc e4ca 8abc 9840 933c
00000310: 4572 0e3d 2481 b8bc 5cfc b2bd b043 23bc
00000320: 08ae 493d c6bf 973c 310d 13bc e912 113c
00000330: ee9f f13c 5b75 47bc cf39 243b fc6c 3a3c
00000340: a6fb 0dbd e16f efbb f037 c4bc 4255 bb3b
00000350: b10c bdbd f3fa 60bd c7bc 42bb 4173 5f3c
00000360: b140 7d3c 9980 bebc f245 1fbc c1d7 a5bc
00000370: 5bb4 2abd 7836 3f3d b258 f7bc aeee b3bc
00000380: d652 0bbc 1c49 78bb 7ec8 3f3b 72ff cb3c
00000390: 4a7e d53d edb5 22bd 96af 51bc 6fda 4f3b
000003a0: ca74 88bc a0b7 5c3d 0e31 72bd 63be bebd
000003b0: 125c 3c3d de7f 95bc e4a1 1c3c 8201 573d
000003c0: a7c2 d7bb 32fa 7bbc 1079 b8bb f7f6 a4bd
000003d0: b3af 2e3c fdad 06be 862e 343a 8904 71bc
000003e0: 42bf 5dbc 5c57 aebc 380c 6dbd 50d7 a83c
000003f0: 8e7d b03c e2f1 a2bd b05a 4c3c d866 71bc
0.048086535 -0.04489659 -0.0018029509 0.024302782 -0.064816035 -0.012717299 0.018213743 0.031358864
0.0037099998 -0.008348654 -0.17319976 -0.022632731 -0.0023892433 0.0031290553 -0.031245608 -0.040039495
-0.02111461 0.020953862 0.040626515 -0.03020596 -0.053488526 0.011328524 0.057888187 -0.009598018
-0.024372293 0.11869085 -0.01876188 -0.005265291 0.07088442 0.010312171 -0.10082725 -0.051187668
0.025796888 0.09421189 -0.0015993661 -0.049895834 0.05384865 -0.025001353 -0.017329698 -0.03376771
-0.043264188 -0.04766322 0.06939715 -0.03318272 -0.015794476 -0.056665033 0.12362167 0.025201334
0.015937349 0.008414892 0.047630068 -0.09245979 -0.024820365 0.007459489 0.010237702 0.025206905
-0.0025245831 -0.11934135 -0.020837713 -0.004956886 0.00462364 0.048100173 -0.022251738 -0.044283498
-0.013589305 -0.047662243 0.04532793 -0.009845391 0.05276065 -0.015230642 -0.02763477 -0.051981494
-0.008913543 -0.04547076 -0.043386787 -0.021045508 -0.029027944 -0.0063961656 -0.017125271 -0.00042134873
0.0019649153 0.009128417 0.002916966 -0.018559022 -0.023700835 0.032664802 -0.0755249 0.060618684
-0.009655847 0.014370919 0.032625787 0.017468156 0.029989416 -0.005641632 -0.014135896 0.023565652
-0.024271451 0.03010952 -0.018164938 -0.023929097 -0.21697313 0.016096951 -0.049507517 -0.016307836
0.0036060205 0.05052425 -0.033703096 0.034360033 0.08735985 -0.009540985 -0.003886329 0.10388333
-0.034759797 0.024066359 -0.031362917 -0.018746153 -0.028104689 0.013230995 -0.07415611 -0.01587532
-0.014295288 -0.013533998 -0.08304353 -0.02965096 -0.005210154 -0.008172436 -0.09018714 0.009428121
-0.028241249 -0.06063015 -0.010350491 0.121232994 0.019094482 0.0122961905 0.18618146 0.033899315
0.0032831212 -0.07378809 0.09638786 0.011146276 0.021436935 0.028671583 0.0436446 -0.028527066
-0.020692896 0.005767865 -0.050955314 -0.04993172 -0.0029050247 -0.046575177 -0.0031902143 0.040146433
-0.024975583 0.006107707 -0.0021055075 -0.21349652 -0.10901693 -0.036406983 -0.018919524 -0.0178312
0.004250954 0.015276916 0.017253967 -0.024798118 0.030863015 0.006646987 -0.00017814802 -0.042323794
0.096955515 0.01348165 -0.013632712 0.004149854 -0.032921627 -0.061896555 -0.03595233 0.022022335
-0.07542841 0.048578586 -0.011803892 0.0043324055 -0.016515033 -0.011845303 -0.023140436 -0.034002606
-0.013967356 -0.0021331734 -0.014707684 -0.014781125 0.0042759287 -0.0037529452 -0.12153764 -0.0038056027
-0.033377472 -0.019339966 -0.016942449 0.017975137 0.034776945 -0.022522517 -0.0873954 -0.009964868
0.049238235 0.018524062 -0.008975313 0.008854606 0.029495206 -0.012173976 0.002505887 0.011378523
-0.03466382 -0.007307038 -0.023952454 0.0057169506 -0.09230936 -0.054926824 -0.002971457 0.0136383185
0.015457318 -0.02325468 -0.009721266 -0.020244481 -0.041675907 0.046682805 -0.03019366 -0.021964397
-0.008503636 -0.0037885373 0.002926379 0.02490208 0.10424478 -0.03972428 -0.012798211 0.003171589
-0.016657252 0.053886056 -0.059128813 -0.09313657 0.045986243 -0.018249448 0.009560082 0.052491672
-0.0065844837 -0.015379475 -0.005629666 -0.08054917 0.010662007 -0.13152309 0.00068733876 -0.014710554
-0.013534369 -0.02128189 -0.05787298 0.020610482 0.021544244 -0.07956292 0.012472793 -0.0147339925

bn1.running_mean f4 [400]
00000000: ff07 2e3f a6f6 0540 14ed 583f d7e3 5e3d
00000010: 0c2a b73e 36ba 873d a090 1c3c 7242 ea3e
00000020: 599c e23f 883c 273d 0cf3 293f d7b2 1940
00000030: bbed f83e 8d2c e83f 67f8 b93f 2a06 2f3f
00000040: 61d8 363e 658d 603f 63e2 3f3e 90a4 bd3c
00000050: cbb4 6d3f 57ba 273f 0a45 8a3f 65ac 733e
00000060: 76ce 493f 90bc 0040 51bd 503f 8a11 b43f
00000070: be28 813e 8d07 053f e8ee a53d d80d 403e
00000080: 298e 483e cd29 b03f 9552 693f 9093 b83e
00000090: aff6 353f 6909 2b3f 2da3 093e 95d1 a23c
000000a0: d903 073d a76f d93e d94a ad3c e72c c63f
000000b0: d6d5 ac3f a21e 283f d463 a53a 0a49 ee3e
000000c0: 8cde 503f 14f3 1b3d d460 bb3f 8da6 693f
000000d0: 0778 033e 9877 9b3e 05cc f23f c6ea 3e3f
000000e0: 2df5 8d3d 9ab6 ae3f ff3d fa3f e901 613e
000000f0: dced 9c3f d019 833c 6c12 033f 7875 c13e
00000100: e773 913e 0f71 ee3e b1b6 423f 4f95 b43c
00000110: 0bc1 653f 8277 bc3f f0ee fe3e 75fe f03a
00000120: 9a91 683e 71d8 3d3f 933d ae3f 2929 873c
00000130: c23c be3e 156b 523d 562c ac3e cf13 e63e
00000140: 8ef3 1840 9f35 fd3e 1c03 d13e a15b cb3d
00000150: 71aa f63e 288d 943e 4404 293f 30e8 233f
00000160: 86f9 163f 2873 bb3e c5be f93e 44a5 893d
00000170: a9f2 d73d a014 413e edbc 423e 2a77 273f
00000180: b9ef 103d 5bb4 623f c23b f63c 0f1f 193d
00000190: 08fb 8d3f fd49 8a3e acb1 fa3e fa30 c13e
000001a0: c6f4 7d3e f532 d13e 060b 7d34 1080 8c3e
000001b0: 8317 943f 3e1d 463f 6da5 0b3f 3f0d d83e
000001c0: 6f4a c93d ce50 de3d 2536 7c3f b1d3 1c3f
000001d0: 075c 0c3f 568a 213e 9696 e63d 2ce9 4a3e
000001e0: bafb 0e3f a858 e13f 7928 e83e 8231 2a3f
000001f0: 8c06 c63a 24c0 1f3f 7d54 593c 7a72 c13e
00000200: f283 293e 64d2 4e3e 0f4f bb3e d604 e73c
00000210: 9887 8f3f c1a7 033d 34e9 e53f ed6f 873f
00000220: bce0 283f 32d3 403e 7124 113e 2cb5 2d3f
00000230: 8296 503e ccdd 1040 c2a7 3b3e 85c8 623d
00000240: c06a 823c 8d41 273f 7bf9 243d 9a4b c33e
00000250: b238 d93f b0e3 db3e a221 bb3c 9818 6c3f
00000260: cb84 053d a8f8 eb3d 4342 943d 9ad2 0f3c
00000270: e8a6 953f 73d9 b23d 90a8 073f 41e6 473f
00000280: e90b e53e 3203 4a35 b253 153f 7dc5 bc3f
00000290: ddfb b83f a6d3 3c3f 125c 2740 c13f be3d
000002a0: cbaa 033f 7266 b43e 0585 fa3d f3fb 153f
000002b0: d801 403e e173 b63d 84e0 433d e158 0b3f
000002c0: 5a00 b33e def5 633f 9baf ab3f 8a6f ba3f
000002d0: 9ba5 903e c590 b33d 0436 cd3c 1882 153e
000002e0: 66ef 933d aea3 0e3f acca b23f b50c 0a3e
000002f0: b3d4 163e e2fb e93e b1f8 f83e b1af e63e
00000300: 11fa 103e ca9a ff3d 097f 203d de80 e63f
00000310: bd10 613e 7c9e 153e 3ad4 0a3e d0f9 e73c
00000320: 679b a13e 3b18 7e3f 4ba5 913d 945f 1b3e
00000330: 19c6 573e e3dc 753f e287 5a36 5309 8c3f
00000340: 2d5e ea3f f199 6d3d 096e 8c3d 037a b13e
00000350: fc74 b73f fc60 f83f 2945 e53e a2a5 1c3f
00000360: 4f03 8e3e 7fdc 0c3c 52d3 d53d ca1e fa3c
00000370: d363 8c3f 949a d73b 2c2b 3c3f ebe9 e63f
00000380: 8702 3c3f 09db b93e 0db0 2206 c463 dd3e
00000390: b8d4 b03e 7c3e 643e 359e d93e 32b3 873d
000003a0: 0400 0000 7245 853e 3dcf 493e 7d77 eb3e
000003b0: fe95 5540 310c f83f 943c ff3e 413b 3a3f
000003c0: 0200 2f3f 9bcd 2c3f 482a 943f e2d3 613f
000003d0: 2920 3f3f c92d 173b c264 1f3e b2f2 2f3f
000003e0: fa86 d33e 377a 673e 9dd4 4e3f 163f 7f3e
000003f0: a368 1b3f 8ac9 5d3e 0200 3f3f ae76 d33e
0.6798095 2.0931792 0.8473675 0.054416504 0.35774267 0.06627314 0.009555966 0.4575382
1.7703964 0.04082921 0.66386485 2.4015405 0.48618874 1.8138596 1.4528931 0.6836878
0.1785598 0.8771575 0.18738703 0.023149759 0.92853993 0.6551871 1.0802319 0.23796232
0.7883066 2.011509 0.81538874 1.4067852 0.25226396 0.51964647 0.081022084 0.18755281
0.1958548 1.3762757 0.91141635 0.3605008 0.71079534 0.66811234 0.13441153 0.019875327
0.032962654 0.42467996 0.021153854 1.5482453 1.3502758 0.6567174 0.0012618252 0.465401
0.8158958 0.038073614 1.4638925 0.9126976 0.12838756 0.3036468 1.8968512 0.74576986
0.06931529 1.3649476 1.955017 0.21973385 1.2260089 0.01600352 0.51199985 0.37784934
0.2840874 0.46570632 0.76060015 0.022043852 0.89747685 1.4723971 0.4979167 0.0018386381
0.22711793 0.7415839 1.3612541 0.016499119 0.3715573 0.051371653 0.33627576 0.44936988
2.3898654 0.49454972 0.40822685 0.09929586 0.4817691 0.29013944 0.66022134 0.64026165
0.5897449 0.36611295 0.48778358 0.06720975 0.105443306 0.18855524 0.19017382 0.65416205
0.035384867 0.8855645 0.030057792 0.037383135 1.1092234 0.27009574 0.48963678 0.3773268
0.24800405 0.4085919 2.3566471e-07 0.27441454 1.1569675 0.7738837 0.54549295 0.42197606
0.0982865 0.10855256 0.9852012 0.61260515 0.5482792 0.15775427 0.11259191 0.1981551
0.55852854 1.7605181 0.45343378 0.6648179 0.0015108152 0.6240256 0.0132647725 0.3778265
0.1655424 0.20197445 0.36583754 0.028200548 1.1213255 0.032142404 1.7961793 1.0581032
0.6596792 0.18830565 0.14174058 0.6785457 0.20369914 2.2635374 0.18325713 0.05536701
0.015920043 0.653344 0.040276986 0.38143617 1.6970427 0.4294715 0.022843186 0.9222503
0.032597344 0.11522037 0.07239201 0.008778239 1.1691561 0.087328814 0.5299158 0.78085715
0.4473565 7.5255514e-07 0.58330834 1.4747769 1.4451863 0.7376045 2.6149945 0.09289504
0.51432484 0.3523441 0.12232403 0.5858757 0.18750703 0.08908821 0.047821537 0.54432493
0.34961206 0.8904704 1.3412966 1.4565289 0.28251347 0.08767847 0.02505017 0.14600408
0.07223396 0.55718505 1.39681 0.1348141 0.14729576 0.45699984 0.48627236 0.45055917
0.14157893 0.124806955 0.03918365 1.8008077 0.21979041 0.14611238 0.1355752 0.028317362
0.31563875 0.9925572 0.07111605 0.15173179 0.21071662 0.9604017 3.2563626e-06 1.0940346
1.830999 0.058008138 0.06856925 0.346634 1.4332576 1.9404597 0.44779328 0.61190236
0.277369 0.008597492 0.10440697 0.03053226 1.0967964 0.0065797064 0.73503375 1.8040136
0.73441356 0.36299923 3.0598155e-35 0.43240178 0.34537292 0.22289461 0.42503515 0.06625976
6e-45 0.26029545 0.19707961 0.459896 3.3372798 1.937872 0.49850905 0.72746664
0.68359387 0.6750123 1.1575403 0.8821393 0.7465845 0.0023068062 0.1556578 0.687297
0.41313916 0.22605215 0.8079317 0.24926409 0.6070654 0.21658912 0.74609387 0.41301483
